DeepAR/W1/gluon_ts/prediction-net-state.pt (torch, 98912 bytes, 11 tensors)

model.param_proj.proj.0.weight f4 [1, 40]
00000000: 1a76 003e 9dce 01be ce5f 26be 93d8 1ebe
00000010: 8624 80bd 751c 1dbd cde4 f1bc dedf 0b3e
00000020: 9f23 dcbe 7d48 a8be a40d a1be 5228 333e
00000030: cf32 6fbe 6a91 9ebc b1eb de3c fc31 283e
00000040: 13bc 123e 7322 b23d 70d6 143d ad69 a2bd
00000050: 768a 253e 87e8 96bd fb28 44be def2 b8be
00000060: 834c 203e d450 cd3c 926b e2bd 431f 5e3d
00000070: 8492 88bc f742 19bd 6e01 25be 239f 3e3e
00000080: 7ee5 b6bd a2c7 173e a31e 263e 916a 5f3b
00000090: e4a9 16be cf97 203e e106 ab3d a254 323d
0.12545052 -0.12676473 -0.16247484 -0.15512304 -0.06256966 -0.038357217 -0.029528046 0.13659617
-0.42995927 -0.32867804 -0.3145572 0.1749585 -0.23359226 -0.019356448 0.027211996 0.16425318
0.14329557 0.08697977 0.036337316 -0.07930312 0.161661 -0.0736857 -0.19156258 -0.36122793
0.15654187 0.025062956 -0.11055674 0.054229032 -0.016671427 -0.03741738 -0.16113827 0.18615393
-0.08930491 0.14822248 0.16222624 0.0034090618 -0.14713246 0.1568291 0.083509214 0.043537743

model.param_proj.proj.1.weight f4 [1, 40]
00000000: ad1a 84bd cc99 ffbd 8abb 1f3e 2fc9 2f3e
00000010: 43ea eebd 6798 fd3d 1e80 d1bd a12b 4a3e
00000020: 935f eabd 630c 7e3d 51ed 873d f205 8b3d
00000030: fbc4 553d 8f0c 223e 2ddf df3d 03b0 1f3e
00000040: 9f71 813d 9a94 513e cfa1 e6bd 362b 91bd
00000050: 820d e83d 87b3 e8bd 8cc7 ccbc 91b3 803d
00000060: 9e7a b83d 059a 573e 2fe4 90bd 78b1 4abe
00000070: 76bf 283e 4c1d e0bc 8cf9 063d 03a2 0a3e
00000080: a7c3 a8bd df53 463e 478f 813d 2e4c 2d3d
00000090: 495e 8ebd 5cd9 3a3e 696c d93d a0ca 083e
-0.064504005 -0.12480506 0.15598884 0.17166589 -0.116657756 0.12382584 -0.102295145 0.19743206
-0.114440106 0.06202353 0.066370614 0.06788243 0.05218981 0.15825103 0.10931239 0.15594487
0.063205 0.20466843 -0.11261331 -0.0708832 0.113307014 -0.11362367 -0.024997495 0.062842496
0.09007762 0.21054848 -0.070747726 -0.19794261 0.16479287 -0.02735772 0.03295283 0.13538365
-0.08240443 0.19367932 0.06326156 0.04230898 -0.06951577 0.18246979 0.10616381 0.13358545

model.param_proj.proj.2.weight f4 [1, 40]
00000000: 33af 48be 621c 1c3e af16 213e dfbd 443e
00000010: b48b bc3d eccc dfbd 37b2 a03d 9773 abbd
00000020: 3d14 213e 0943 883e e819 2f3e 8a9e 9b3d
00000030: 265f 053e 4a8b e5bd 6d1a 32be c009 a6bd
00000040: 92b5 82bd a9fb e53d c23c fdbd 59ce ad3d
00000050: a469 243d aa07 023d 1444 1a3e 3f5b 343e
00000060: d551 83bd 2ab8 1b3c 1df4 453e 832d d53d
00000070: 0295 bbb9 1b3c d3bd f698 093d 4166 d9bc
00000080: 3d94 95bd b97a 94bd 2ebb 24bd 3a15 6fbd
00000090: ca51 383e 1813 f13d bfa0 43be 7730 2abe
-0.19598083 0.15245202 0.1573131 0.19213055 0.09206334 -0.109277576 0.07846492 -0.083716564
0.15730377 0.26613644 0.17099726 0.07598598 0.13024577 -0.11208208 -0.17392893 -0.081073284
-0.06382288 0.11229641 -0.12365104 0.08486623 0.04013981 0.03174559 0.15065032 0.17612933
-0.064120926 0.009504357 0.19331403 0.10409071 -0.0003577844 -0.103141986 0.03359314 -0.026538016
-0.07303665 -0.0724997 -0.04021757 -0.058369853 0.1799995 0.1177122 -0.19104289 -0.1662005

model.rnn.weight_ih_l0 f4 [160, 21]
00000000: 6aa7 c63d 7049 113e 711f 533e 53f2 953d
00000010: 49cd 203e 0193 143e b8c0 553e 92a7 c4bc
00000020: 1ae3 febc b57a 403e 2963 3d3e 4d77 b0bd
00000030: 07e2 4b3e 4903 033e 5048 cb3d fb9a 3f3e
00000040: 6b6e 1b3c 7891 7a3d 1b1b 373e 9496 993d
00000050: 558c 69bd cb56 4e3e 9c83 063e 4381 503d
00000060: baa5 ae3d 818d 0d3e 1275 453e 836e 8c3d
00000070: 5eec 443e 1d1c 2f3d a3ac 5c3e 4b59 3fbd
00000080: a340 cebc 9084 dfbb b459 843a 77a4 983d
00000090: 963d 993c ca5d 41be 3dbb c13d 17ac 9d3d
000000a0: fd38 933e 1609 423d cb71 203e c430 7b3d
000000b0: df26 3f3d b200 753e 7454 90bd a6ff 833e
000000c0: 2d02 423e 443d 7b3e ef43 523e 90ff 473e
000000d0: 1421 003e d278 b8bc 6407 0d3e 23bd 133e
000000e0: ab32 e23d b9c9 aa3d a7d0 77be a576 37bd
000000f0: 01c5 883d 84c9 30be 718b b4bc d40d 67bc
00000100: 8dee 133e 7781 dc3d 40b4 483e 10c3 383e
00000110: 89b5 e73d 7347 4b3e e650 103e 3aef c53d
00000120: 8459 a83d 8281 173e 5a3b 8f3d 1758 2d3e
00000130: 135e 063e 882b 10bd 5843 963d 3f3c b5bd
00000140: d755 8a3d 1084 30bd 7932 9dbb 0ddb 623e
00000150: af18 98bd 60f3 473d feab 98bd a895 1fbc
00000160: bbfd ecbc 0f00 0dbd d022 8dbb 2941 543e
00000170: 6546 9b3d a19f b0bd 2694 893c 16df 7abd
00000180: 616f edbc 75a1 6c3d d47f 293e 1474 0bbe
00000190: 23c0 6f3d d36c 19bd 2ea5 d23d 8554 82be
000001a0: 2ecc c6bc 43d5 74bb 65d2 76bc d1ef 47ba
000001b0: 45bc 483d cfcc 2e3d ae07 90bd 71ed b53d
000001c0: c054 a73d d143 a23d cb24 bd3d bf4b 363e
000001d0: 6342 953d b03e 583e 9fce 313e 3c12 d43d
000001e0: c5cc a2bd 5144 9fbc a080 a53d fbaa 5c3d
000001f0: 514d d43d edf1 c53d 5d7c b53d 9734 883d
00000200: 611d 153e 0414 38bd 21f1 21bc 0c6f 70bd
00000210: b688 393e f87c bf3d 7418 623e 7526 acbd
00000220: a3a7 443e 71ec 863d 430b 053e da58 273e
00000230: f0bc 313d 27fe 833d 8595 45bd 4613 103d
00000240: 51a6 83bb 0b92 65be df85 723e 7680 8a3d
00000250: d4ef b9bd 9cff 45bd b0d0 da3a d8cc d4bc
00000260: f0f3 8a3d bd92 afbd daa1 aa3d 0b92 713c
00000270: ff77 0a3d b9f1 3a3c bcb2 d8bd dfbd b0bd
00000280: f1cd cd3c 3dff 72bd d470 de3d a1d2 ae3d
00000290: 8941 f2bd 5089 623d 75a2 82be 26a6 f0bd
000002a0: 73bd a53d cb69 6b3e 3924 923d 6668 df3d
000002b0: 7fa4 433d 673d 63bc 89f7 2e3d 57a9 80bc
000002c0: b31f 923e 9bc5 5d3a 4864 143c a244 653e
000002d0: f55a 59bd d21b ce3d 6390 bb3d 14af 533d
000002e0: a4fc 0abc 66ff 8dbc 3d2e 843e b846 18bd
000002f0: 2535 283e 6859 2c3e 7494 1cbd 4c8a 1f3e
00000300: c0b9 e0bc 5147 09be 5119 c33c 090f 19be
00000310: 4e60 b6bc 307f 993d 9229 a6bd 2314 853c
00000320: ba4c 2bbd 8bd1 c33d 7cc5 d83d da83 693d
00000330: 1423 0c3e 6102 ef3d d67a 61bd 4506 093e
00000340: 91f5 d9bc 9083 333e 3a7e 643d 4d97 603e
00000350: 9aea ce3d a820 313e 78de e4bc 9750 4d3d
00000360: 0059 4c3d d29d 423d 36a1 3b3d dcb7 763e
00000370: 72f6 803e c262 583c 6a48 593e 4b2a 153e
00000380: eff0 2c3e da67 2d3e 38ef 7fbe 70c0 453d
00000390: a178 45bd 308e 56be 3e60 383c fa93 933e
000003a0: 0e39 833e a55c 353e 54f2 753d 39de 99bc
000003b0: 1ade 5c3e 7409 673d 6e99 d63d d5b7 1b3e
000003c0: 279f 443d a601 f7b9 830e b63d b046 813c
000003d0: d880 9bbd 3c1b 8abd 61d9 433e a5e0 78be
000003e0: 8e95 1fbd 8250 c53c 9848 9fbe 2e90 1b3e
000003f0: de3f a5bc ca50 59bd 16f6 303e f57b 693e
0.096999004 0.1418817 0.20617463 0.0732161 0.1570331 0.14509203 0.20874298 -0.024005685
-0.03111415 0.18796809 0.18494858 -0.08616505 0.19910441 0.12794222 0.09925902 0.18711464
0.009486775 0.061173886 0.17881434 0.074994236 -0.057018597 0.20150296 0.13136142 0.050904524
0.085277036 0.1382351 0.1928294 0.06857016 0.19230792 0.04275142 0.2155023 -0.046716016
-0.025177306 -0.0068212226 0.0010097534 0.07453244 0.018706124 -0.18883434 0.09459541 0.07698839
0.28754416 0.047371946 0.15668409 0.061325803 0.04666793 0.23926046 -0.07047358 0.25780982
0.18946142 0.2453509 0.20533727 0.19531083 0.12512618 -0.02251855 0.1377235 0.14427619
0.110448204 0.08339257 -0.24200688 -0.044790883 0.066782005 -0.17264372 -0.022039147 -0.014102418
0.14446469 0.10766881 0.1960001 0.1804316 0.11313922 0.19851474 0.1409336 0.096647695
0.08220199 0.14795497 0.06993742 0.16928135 0.13121824 -0.035197765 0.073370636 -0.08849382
0.06754654 -0.043094695 -0.0047972766 0.22153874 -0.07426583 0.048816085 -0.0745468 -0.009740271
-0.028929582 -0.034423884 -0.0043071285 0.20727982 0.07581786 -0.08624197 0.016794275 -0.061247908
-0.028983774 0.057771165 0.16552669 -0.13618499 0.058532845 -0.0374573 0.10285412 -0.25455108
-0.024267282 -0.003735856 -0.01506481 -0.0007626983 0.049007673 0.04267579 -0.07032715 0.08883179
0.08170462 0.07923091 0.09235533 0.17802332 0.07288053 0.21117663 0.17363976 0.103550404
-0.07949213 -0.019441755 0.08081174 0.053873997 0.103663094 0.09665284 0.08861611 0.06650656
0.14561988 -0.044940963 -0.00988415 -0.058699653 0.18118557 0.09350008 0.2207964 -0.084057726
0.19204573 0.06588066 0.12992577 0.16342488 0.043393075 0.0644496 -0.048238296 0.03517463
-0.004017629 -0.22418992 0.2368388 0.06762783 -0.09078947 -0.04833947 0.0016694274 -0.025976583
0.06784809 -0.0857291 0.08331652 0.014744292 0.033805843 0.01141017 -0.10580966 -0.08629965
0.025122615 -0.059325445 0.10861364 0.08536268 -0.11828906 0.055306733 -0.2551457 -0.1175044
0.08092775 0.22989576 0.07135815 0.10908584 0.047764298 -0.01386962 0.042716537 -0.015705748
0.2853981 0.00084599265 0.009057112 0.22389463 -0.05306526 0.100639 0.09158399 0.05168064
-0.008483086 -0.017333698 0.25816527 -0.037176818 0.16426523 0.16830981 -0.038227513 0.155801
-0.027432323 -0.13406111 0.023815783 -0.14947142 -0.022262719 0.07494962 -0.08113398 0.016244953
-0.04182122 0.095614515 0.10584542 0.05701051 0.13685256 0.116703756 -0.055048786 0.13381298
-0.026606353 0.17530656 0.05578444 0.21932717 0.101033404 0.17297614 -0.027938113 0.050125685
0.049889565 0.04751379 0.04580804 0.24093574 0.25188023 0.013207139 0.2121903 0.14566915
0.16888784 0.16934147 -0.24993598 0.048279226 -0.048210744 -0.20952678 0.011253415 0.28823835
0.25629467 0.17711122 0.060045555 -0.018782722 0.215691 0.0564055 0.10478483 0.15206845
0.048003342 -0.0004711274 0.08889487 0.015780777 -0.07592934 -0.06743476 0.19125892 -0.24304445
-0.038960986 0.02408624 -0.31110072 0.15191719 -0.020172056 -0.053055562 0.17281374 0.22801192

model.rnn.weight_hh_l0 f4 [160, 40]
00000000: 531d 153e ce68 0f3e 5fed 9c3d f1fb 2a3e
00000010: 5c78 7bbd 7695 783d 4c99 1e3d a730 51be
00000020: 74b4 a1be 039d 22bd 5c3b 9c3c 4262 58be
00000030: a3fe 313e 3502 1ebe 9f0f 85bd 7cda 4b3e
00000040: 3681 473d e87f e53d 34d2 773d 6beb 51bc
00000050: ebd2 413d 8405 9f3c ca56 f43d ec68 443e
00000060: e238 cebd df8f 0a3d 224d 273e d414 37be
00000070: d9b1 96be 6d0f 283e ec50 d53d ba06 89bd
00000080: 0299 c33d 159a a43e 9fcc dabd eea3 b9be
00000090: e9ab 583e 9239 aa3d 641d 2dbd 9329 aa3d
000000a0: 7456 dd3d 08b6 493d b828 0b3e 2a7d 92bc
000000b0: bf04 c0bd 8c7b 44bd 1db5 bbbd f1cc cfbd
000000c0: 3e27 a6bc 19ef d53d 892a 43ba 9bef 1ebe
000000d0: 1529 38bd 814d bcbc 8e19 62bd d55b 24bc
000000e0: c0a1 7d3d d6a1 ba3d aae1 c43d 4333 c4bd
000000f0: 81f6 b3bd 52de e73d 91d9 dbbd 3afc 233b
00000100: b64c adbd bced 21be f2db 113e 3840 063d
00000110: 0293 17be 25b3 fa3d 1f87 843d 5d19 3bbd
00000120: 6cb7 00be 59b2 143d aba5 033d 025f 3abe
00000130: 937f adbd 630a b9bb e52c 0b3e c87c 59bd
00000140: 644b 20bd 303b 583d 65f3 e93d d8c9 d0bb
00000150: 5f5a a9bd 88a7 343e 024e 0ebe 4b86 17be
00000160: 0f17 84be f310 143e 5d16 be3d cc9b ccbd
00000170: f25a 0a3e 05eb 72be 735a 40bd 792c 6fbd
00000180: 3425 873d 914f 7f3e 19ab 85bd 2e45 febd
00000190: 654a ac3d 9f25 57bd 07b9 693d 1ddb 1c3e
000001a0: 9257 a6bc f6b2 37be 1af4 603b c6ce 76be
000001b0: b71c 45be d55c 013e ebf4 5d3e 7de7 87bd
000001c0: af1f 8b3d 16a4 983e 6eb9 87be 6b1c 29bd
000001d0: af2b 6dbd df2e 1f3e d2b7 863d 7856 5d3e
000001e0: fc9c 4a3d 4ac5 a13d 23ce efbd a6c4 2a3e
000001f0: d369 3e3b 3668 45bd a621 a0bd 5dc8 4ebc
00000200: 913d c6bd c2ed 95bd 9f32 853d fec6 2abe
00000210: 048d 1f3e 9e62 9d3d 31e4 453c 4b53 f4bd
00000220: 40e1 35be ac9e 91bd 4b4f 0c3e 5d46 38bd
00000230: 06b6 383d 03dc bf3c ed11 85bc 36ae b7bd
00000240: d999 07bc 1d23 22b9 b5c8 8ebd cc57 373d
00000250: 3326 8c3d 3fa6 c4bd b654 9c3c 9bac 033e
00000260: 3557 dcbd 313b 343e a5e0 ec3d 7bff 9f3d
00000270: 3293 373d 0d75 04bd dc33 373d ae43 093e
00000280: 15f9 a03d 59ed 8bbc 6b96 d33c 4228 9cbd
00000290: 31c2 16bd 0787 5f3c 46a6 98bd 2eed a3bd
000002a0: 5c2f 12be 252f c0bc 4c39 6d3d 250e 6abe
000002b0: 9b86 b6bc 09ff 323c 6fe2 41bd 42d2 b6bd
000002c0: c24a 8f3d d199 113e b0c1 0a3d ce15 32bd
000002d0: 51ce b03d c67c 023c 6c37 a73d 6710 64bd
000002e0: 00ed 32be b6ce 3fbe 556b 3b3e c51f 8ebd
000002f0: 5aec d13c f160 c73d 6302 013e fa7d 023c
00000300: 431f 54bd 9ad3 113d 4e31 523d 6fbe 23be
00000310: 5db4 9c3d 5e3a c9bc dce0 c9bd 220d b63d
00000320: 6b56 0ebe 44a0 a6bd 16bd 413d 978b 8ebd
00000330: e810 8cbd 26f8 2e3c e12a 34bd b879 083e
00000340: 6e2e c83d 4174 6abd 21e5 5d3d aaa0 133c
00000350: 6a99 d2bc e496 9bbd 7568 a0bd 206d 5d3c
00000360: 1f2c 0fbe 148c fdbd 66f5 b3bd b312 0d3d
00000370: bd7b 13bb fcf6 283d c3f7 403d 9d68 27bd
00000380: 3662 583c 7520 09be 640b 333d 8e6f 513d
00000390: f1d4 ec3d 6298 c9bd f836 bf3b 7a01 e9bd
000003a0: 9629 0bbd e057 213d 7d50 18be 1db7 f4bb
000003b0: 960f 903c 96b8 a8bd 3163 a3bd 79d1 49bd
000003c0: f1ab da3c 2f50 113e 5b8e 0b3e 32e7 693d
000003d0: 4b7a b9bd 9482 2c3d e98a a63d 9554 97bd
000003e0: a6f7 5abe 6609 fe3d 54a5 963d 9957 643d
000003f0: 3406 b23d 7a5a 2b3d 4a65 86bd 1917 4c3e
0.14561968 0.14004824 0.076624624 0.1669767 -0.06139408 0.060689412 0.038720414 -0.20428716
-0.31582987 -0.03970052 0.019071274 -0.21131232 0.17382292 -0.1543053 -0.0649712 0.19907564
0.04870721 0.11206037 0.0605032 -0.012812476 0.047320288 0.01941181 0.11930616 0.1918065
-0.10069443 0.033828612 0.16338018 -0.17879039 -0.29432562 0.16412134 0.10415825 -0.06690736
0.09550668 0.32148805 -0.106835596 -0.3625788 0.21159329 0.08311762 -0.042264357 0.08308711
0.10807505 0.049245864 0.13589752 -0.017881949 -0.09375905 -0.047969386 -0.09165404 -0.10146511
-0.020282384 0.10445995 -0.0007444998 -0.1552109 -0.044961054 -0.022986175 -0.055200152 -0.01003166
0.061921835 0.09112899 0.096133545 -0.0958009 -0.08787251 0.11321701 -0.10734857 0.0025022165
-0.08461897 -0.15813345 0.14244059 0.032776088 -0.14802173 0.122412 0.06471085 -0.045678485
-0.1256997 0.036302898 0.032140415 -0.18200305 -0.084715985 -0.00564699 0.13591345 -0.053097516
-0.039134398 0.05279082 0.11423377 -0.006371718 -0.0826919 0.17642033 -0.13896945 -0.14797322
-0.25798842 0.1445959 0.09281609 -0.099906534 0.13511255 -0.23722465 -0.04696126 -0.05839202
0.06598893 0.24932696 -0.06526775 -0.12415539 0.08412627 -0.052526113 0.05706122 0.1531796
-0.020305429 -0.17939362 0.0034325183 -0.24102315 -0.19249235 0.12633069 0.2167546 -0.0663595
0.067931525 0.29812688 -0.2650866 -0.041286867 -0.057902988 0.15545224 0.0657803 0.21615016
0.04946612 0.07898958 -0.11709239 0.16676578 0.0029054775 -0.048195086 -0.07818918 -0.0126210125
-0.096797116 -0.07320739 0.06503796 -0.16677472 0.15581137 0.07684825 0.012078331 -0.119299494
-0.17761707 -0.071103424 0.13702123 -0.04498898 0.045095466 0.02342034 -0.0162439 -0.08968775
-0.008276426 -0.00015462605 -0.069718756 0.044761464 0.068432234 -0.096020214 0.019083362 0.12858813
-0.10758821 0.17600705 0.11566285 0.07812401 0.04481811 -0.03233819 0.04472719 0.13404724
0.078600086 -0.01708095 0.02582856 -0.07624866 -0.03680629 0.013643033 -0.07453589 -0.08004223
-0.14275879 -0.02345998 0.05791597 -0.22856958 -0.022280982 0.010925063 -0.047335085 -0.08926822
0.06996681 0.14218833 0.03387612 -0.043477826 0.08633102 0.007964319 0.08164868 -0.055679705
-0.17473221 -0.18731198 0.18302663 -0.06939653 0.025625397 0.09735287 0.12598567 0.007964605
-0.051787626 0.03560219 0.051316552 -0.15990613 0.07651589 -0.024563964 -0.09857342 0.08889224
-0.13900153 -0.08136037 0.047299467 -0.069602184 -0.06839162 0.01067928 -0.043986205 0.13327682
0.09774481 -0.057239775 0.054173592 0.009010473 -0.02570792 -0.075971395 -0.078324236 0.013514787
-0.13981675 -0.123802334 -0.087870404 0.03444166 -0.0022504174 0.041251168 0.047111284 -0.04087125
0.013207009 -0.13391288 0.043712035 0.051131777 0.11564053 -0.09843518 0.00583541 -0.11377235
-0.033975206 0.039390445 -0.14874454 -0.007468118 0.017585557 -0.08238332 -0.07977904 -0.049272034
0.026693316 0.14190744 0.13628523 0.05710525 -0.09056529 0.042116717 0.08131964 -0.073891796
-0.21383533 0.12404136 0.073557526 0.055747602 0.086925894 0.041834332 -0.06562288 0.19930686

model.rnn.bias_ih_l0 f4 [160]
00000000: ceb3 343e 22cb 333e 6b1b 1e3e 9dd6 183d
00000010: 515a 253e 8403 153d 0b09 913e 729b e43d
00000020: ddb9 023e 245e 233e f2ef 6c3e f9e5 debb
00000030: 3b3d 55bd 3c88 13bd 5c95 ac3d f54f 2f3e
00000040: 1668 023e 892f 073e 6742 643e ca70 b13d
00000050: ce71 7abd 108f 583e b88d df3d 0d81 eb3d
00000060: 3ba6 a83d 45d7 2b3c d10d 063e 9d9b bc3d
00000070: 3374 543e a833 1b3e ed54 793d a5dc 733e
00000080: 332e 333e e426 f23d a938 743d da43 69bd
00000090: 96ec d43d fa96 873d 65e1 08bd c17d 5b3d
000000a0: 7686 f9bd 329e babd 4ffa 803c 8ddc 2abb
000000b0: 05a8 d0bd de04 e5bd c39c a23d d618 0d3e
000000c0: b862 acbd c9c3 953d 77f8 b13d 9313 fa3d
000000d0: 3dbe 1dbe 0cc5 2dbd 882a d53d 490a 33bd
000000e0: 0829 043e fe61 a4bd 3de5 833d f5ec 67bd
000000f0: ae22 95bd 1961 353e 3caa 213c 0f33 273e
00000100: e4ba 20be bd30 e7bc 26ba 3b3d 817f c2bd
00000110: cf1b 703c f2f7 2ebd a45a b23d 3edd 203d
00000120: d901 f4bc 2057 123e 34cb c83d b61d d03d
00000130: b951 88bc f442 103e d276 1f3e e0ea 16bd
00000140: 2e79 babc 9975 873d bea6 b33d b7c4 d93d
00000150: 0399 d13d 6289 123d d4a1 cf3c d313 4cbd
00000160: 215d 0dbe 3dd3 383e 846c 9abc b17f c0bd
00000170: 095c b43d 2a61 4bbc a506 e5bd 98e3 74bd
00000180: 94b0 fcbd c580 0f3e 54fc c53d 4699 133e
00000190: ecf5 3fbd e532 823d 9690 1f3d b5f8 023c
000001a0: a6f4 d73a fbb6 6c3d 6266 143e e32d 20be
000001b0: 5334 813d cb3b 623d d7f9 d33d 9329 d2bc
000001c0: 1346 3c3e 1f91 dcbd ee40 1cbe 6c7e 37be
000001d0: 4e4b 1ebd 37bf 44bb 2448 23bd 3298 a3bd
000001e0: 799f 69bd 9f6e de3d 0606 bb3d 837e 953c
000001f0: 5709 0a3d 7ade 203e 5f17 393e 949f 3bbd
00000200: d338 383d c651 623d f2f7 88bc c14e 6cbd
00000210: 06c2 3b3e d2b0 243e 738b 6b3c 37af 103e
00000220: 0219 aebc c425 06bd 499c 50bd a79c f7bc
00000230: 49b2 793d 61b0 1f3d 2109 863b 271a 06bd
00000240: de1c 1b3e 3521 a1bd 7289 b9bd 4c9a 56bc
00000250: 7677 0fbe 36bc ff3c d196 603e 185e 68bd
00000260: 86cd 9f3d 89da 173e 705f 1b3d 2441 9ebd
00000270: aa3b 3a3e 9815 ee3d 4858 393e bcb6 443e
0.17646715 0.17557958 0.15440147 0.037314046 0.16147734 0.036380306 0.28327212 0.11162461
0.12766214 0.1595388 0.23138407 -0.006802317 -0.052060347 -0.036018595 0.084269255 0.17120345
0.12735018 0.13201727 0.22290955 0.08664091 -0.06114369 0.21148324 0.109157026 0.11499224
0.08234831 0.010488336 0.13091208 0.092093684 0.20747451 0.15156424 0.060872007 0.23814638
0.17498092 0.11823824 0.059624348 -0.056949474 0.10396688 0.06620593 -0.033418078 0.053586725
-0.121838495 -0.091122046 0.015744356 -0.00260714 -0.10188297 -0.11182569 0.07940056 0.13779005
-0.084172666 0.07312734 0.08689969 0.12210765 -0.15404601 -0.042424247 0.10408503 -0.04371098
0.12906277 -0.08026503 0.06440208 -0.056622464 -0.07282005 0.17712821 0.009867247 0.16328071
-0.15696293 -0.028221482 0.04583182 -0.09496976 0.014655068 -0.042716928 0.087086946 0.039273493
-0.029786037 0.14291048 0.09804383 0.10161917 -0.01664053 0.1408804 0.1557267 -0.036845088
-0.022762861 0.06614227 0.08772038 0.106332235 0.10234263 0.03577555 0.02534572 -0.049823593
-0.13805057 0.18049331 -0.018850572 -0.09399355 0.08806617 -0.012413302 -0.11182908 -0.059787363
-0.12338367 0.14013965 0.096672684 0.14413938 -0.04686539 0.063573636 0.038956247 0.007993867
0.0016476109 0.05779169 0.14492181 -0.15642504 0.06308808 0.055232804 0.103503875 -0.02565459
0.18386106 -0.10769867 -0.15259144 -0.1791932 -0.038646035 -0.00300212 -0.03986372 -0.07988013
-0.05703685 0.10860943 0.09132008 0.018248802 0.033700313 0.15709868 0.18075322 -0.045806482
0.044976067 0.055253766 -0.016719792 -0.057692293 0.18335733 0.16083077 0.014376509 0.14129339
-0.021252159 -0.03275086 -0.050930295 -0.030226065 0.06096104 0.038986567 0.0040904437 -0.032739785
0.1514773 -0.07867662 -0.09059419 -0.013098311 -0.14010414 0.031217676 0.21932532 -0.05673036
0.07802872 0.14829458 0.037932813 -0.07727268 0.18186823 0.116252124 0.18100083 0.19210333

model.rnn.bias_hh_l0 f4 [160]
00000000: 946d 02bd 80e0 373d 3eb1 2c3e 2000 e73d
00000010: b88e 093e 8308 21bd 7dc1 f93d 2106 ec3d
00000020: 41f7 09bd ca81 e1bd 8b12 54bd 5af0 dd3a
00000030: 3e8f 433e 6043 003e 72ff 7b3d 8e90 c43d
00000040: 6cdb 643e 0480 ad3c 0621 463e 01d8 6cbd
00000050: a0e9 303e aedd 2bbc aa98 573e dcab 9b3d
00000060: fcda be3d 14f2 ed3d 5901 5f3e 8618 d23d
00000070: ef0a 27bc 7ae3 253d e161 14bd f0b5 613e
00000080: 9c5b 2f3e 8d8b ddbd 3d95 fa3d 6930 93bc
00000090: 47c2 253e cacb 3e3e 8f94 213e 4e23 3d3d
000000a0: 1d15 d93d c57e 8dbd 40a6 45ba 974b 2bbd
000000b0: 0154 9d3d 305d eebd 23af 11be aa3a d83d
000000c0: 0805 9d3d 9461 e83d 58ed 61bd 026d a3bd
000000d0: 141a f63d a22b b73c 1fd9 13bd 9789 483d
000000e0: 0a23 01bb ca7b bd3d e495 1c3e 0f04 cc3d
000000f0: 59c5 12be c3aa fb3c a20c 4f3d 65d9 523d
00000100: 3360 0e3e e4c5 893d 2d39 fe3d d4c0 c83d
00000110: 582b 873c a7d9 093d 605e b8bd b5d2 2e3e
00000120: 46fb 06bd ec54 533d 831f 473e 63b4 7a3d
00000130: f37d e4bc 8d2e 0dbe 44b3 04be 7892 dbbd
00000140: 69cd e83b 1038 a9bd 2445 3cbe 8088 4b3e
00000150: 457e c23d 2ab9 163e d6be d73d f6e6 efbd
00000160: 6e94 df3d fd46 87bc 9d2e 073e 55f9 3b3d
00000170: 4d66 cb3d 0fd1 b33d 8fdd bbbd 8d00 b9bd
00000180: 478d e13c 34ba 92bc 430b 323e 2a55 eb3d
00000190: 5c0e 103d 9081 c53d 88d4 043e d7fe 033e
000001a0: 19da 19be 68c6 1abe 6a90 a6bd 48c2 0cbe
000001b0: 7718 1a3c 26ec 2bbe 0db4 d93d c853 033e
000001c0: e9a1 8c3d c436 8f3d 6a6f bd3d ecc4 a5bd
000001d0: a585 643d 48f8 7c3d e354 96bd a64e 253e
000001e0: 67a8 b33d 6155 4f3e 73a4 b73c 397d e73b
000001f0: 6c13 8e3c 8483 3e3e ecd1 923e 046c 203e
00000200: 496b 1b3e 2d0c 133e de3d 9abd 59f5 7f3e
00000210: 4f2b dd3d 6a83 323e 3b3c 3abc 0500 c6bd
00000220: e260 383e c1d4 1c3e 650e 083e cd95 313e
00000230: 0af7 483e 25ee 403e fbce 02bd 602f a3bb
00000240: 7bbe dd3d 9963 053e 08b1 ecbc 570e 093e
00000250: f8d7 8dbc 863c 113e 92a4 b6bc 308d 87bd
00000260: 9cda 2cbc 2f2b 90bb d64d 28bd 6c73 ec3d
00000270: 8b69 e03c 7951 08bd 3d09 4f3e 52ce e6bc
-0.031842783 0.044891834 0.16864488 0.11279321 0.13433349 -0.039314758 0.12195108 0.115246065
-0.033683065 -0.110110834 -0.051775496 0.0016932592 0.19097611 0.12525702 0.06152291 0.09597884
0.22349328 0.021179207 0.19348535 -0.057823185 0.17276621 -0.010489864 0.2105433 0.07601139
0.09319112 0.11618438 0.21777858 0.10258584 -0.010195478 0.04050014 -0.036226157 0.2204206
0.1712479 -0.10817633 0.12235496 -0.01796742 0.16187392 0.18632427 0.15779327 0.046176247
0.1059973 -0.06908945 -0.0007539727 -0.041820135 0.07682038 -0.11638868 -0.14226966 0.10558064
0.07666975 0.113467366 -0.05515799 -0.07979776 0.12016693 0.022359673 -0.036095735 0.04895934
-0.0019704723 0.092521265 0.15291554 0.099617116 -0.14333095 0.030721074 0.050549157 0.051476855
0.13903885 0.06727198 0.12413249 0.09802404 0.01650016 0.033654835 -0.090023756 0.17072566
-0.032954477 0.05159466 0.19445615 0.061207186 -0.027892089 -0.13787289 -0.1295901 -0.10721296
0.007104565 -0.08262646 -0.1838575 0.1987629 0.0949674 0.14719072 0.10534446 -0.11713974
0.109169826 -0.016513342 0.13201375 0.04589208 0.09931622 0.08780109 -0.09173118 -0.09033308
0.027533187 -0.017911054 0.17387109 0.11490853 0.035169944 0.09643853 0.12971699 0.12890182
-0.15024604 -0.15114748 -0.081330135 -0.13745987 0.009405247 -0.16789302 0.10630045 0.12824929
0.068668194 0.069928676 0.09249766 -0.080942005 0.055791516 0.061760217 -0.073404096 0.16143283
0.087723546 0.20247413 0.022417283 0.0070644883 0.017343245 0.18604857 0.28675783 0.15666205
0.15177645 0.14360113 -0.075313315 0.24995936 0.10799276 0.17432943 -0.011366899 -0.096679725
0.18005708 0.15315534 0.13286741 0.173423 0.19625488 0.18840845 -0.031935673 -0.004980013
0.10827347 0.13026275 -0.028893009 0.13384376 -0.017314896 0.14183244 -0.02229527 -0.06618726
-0.010550167 -0.004399679 -0.041089855 0.115454525 0.027394077 -0.033280823 0.20218368 -0.028174553

model.rnn.weight_ih_l1 f4 [160, 40]
00000000: cbe4 553d e199 263e c0d2 32bc c085 6c3c
00000010: f836 72be e6a5 a23d 5040 063e c0fe bc3b
00000020: 94e4 9d3d 8e89 77bd f623 8abd fec0 853e
00000030: fbaf d33c a428 14be a8cb 083d 5075 e53d
00000040: a4e7 6c3b 77e7 43bd a70c 353e 5f46 3abc
00000050: 4e9c 443e 3ea7 463e 18bb d9bd c076 0a3e
00000060: 10c1 583d 6a9b 483d d5d0 dfbd c95d 3e3d
00000070: ab35 54be 24e7 183d 36b5 603d 6222 c73d
00000080: 9e73 bc3c f59d 9a3d 226b 303e 0b37 abbd
00000090: 7024 96bd 0374 93bd 0d63 83bd 8628 b2bc
000000a0: c17d 78bd d08a 973e 69da cfbc c72d 303e
000000b0: 0ea0 973d 6f5f 81bd a3ab a73d 6bb0 ccbd
000000c0: 80da 97bd 1b54 14be 0043 b2bd 2933 273c
000000d0: 71b0 603e f598 cebd b6b8 5bbe ada7 8c3d
000000e0: 5a0c 5abd 23e9 c03d d22f 93bd 08de 17be
000000f0: 2be7 273b 403f 1bbd c5b1 f3bc 2d0f abbc
00000100: 9c7d 333c 186c 4e3c 9317 f03d 9329 17bd
00000110: 879b 5abe 1a07 d03c 083a b1bd 74b2 143e
00000120: a654 1a3e 37a9 08bb d5d4 043e 92a9 b8bd
00000130: e871 2e3e 6293 103e f8ac 4b3e e164 153e
00000140: 67c3 a63d ec8a a2bc 891b 11be 449a 69bd
00000150: 9be1 f8bd ad1b ce3c 56b2 71bd 276e 35be
00000160: 2120 17be a631 6cbc 9d73 acbd b3bd 5bbe
00000170: 0c16 023e e623 b8bd 2894 743d 15fe 8a3d
00000180: b575 11be 242f 463e eba0 873c 36eb 323e
00000190: a3cd 393e 69f7 ab3d 70c1 003d 76df 33bd
000001a0: d80c aa3d 31bf 24bd fd33 6d3d fceb a03d
000001b0: 77df 9d3d 5abe bdbd ac01 22ba 9193 3f3d
000001c0: 6729 c2bc c3ec 4bbd d23e 5cbe 592d fbbd
000001d0: 26c4 093e 485d 2c3e a6a7 823d b7f6 59bd
000001e0: 361f 4e3e ef4a 0d3e 8158 18bd b024 653e
000001f0: 1637 8cbc 72df 4c3e 6beb 9fbd 1869 fcbc
00000200: 9dea ae3d 16d7 0abe 1a71 643d f833 3a3e
00000210: e34c 1abe 8a68 873d aca4 f4bd c14f 303e
00000220: f70c 413b 24bf 04bd e865 993d 6061 953c
00000230: 04bb 193e d437 80bd 3d24 033d 4f54 b83c
00000240: 6381 173e 3caf 54be 6154 67bd bc0d d6bc
00000250: d610 2bbd 1bf9 613d 2e64 dcbc fd17 8bbd
00000260: 02df 013d bc80 263d 2c4c bbbd 6866 ce3c
00000270: fbfe 37bd 26ef a83a bcc5 cdbb 6f0e bc3d
00000280: 3a30 85be 2316 293e 52d8 623e b3f7 063e
00000290: 91a5 62bd 5f8e b93d 62a6 51bd 2eca 0fbe
000002a0: cd2f bdbd 2cf9 eebd d197 cc3d 46e4 2d3d
000002b0: 5d8f d93b 0f06 713d 6853 b93d 090f f33b
000002c0: 4a9f 863c f867 8fbd 52b6 b3bd 57dc 0bbd
000002d0: e47a c93c 121f 1c3e 165f b5bd 8d2c 2d3e
000002e0: bf80 4c3c 510b 94bd 8f38 eb3c bf15 02be
000002f0: 40f3 9a3d c7b8 a2bc 0c99 1c3e cc16 dc3d
00000300: 010a 1d3a 0efd 68bd 5299 b83d 9833 3abe
00000310: 8952 393d c8ef b63c c438 f4b9 fda8 373e
00000320: 1147 2cbe 5b60 013e 9afb 593e d2d9 113e
00000330: 8258 813c 0336 e03c e215 853c 1d7d aa3d
00000340: e20f 28be ada4 103d 1569 023b 7f72 cebd
00000350: d0df 583b 50c1 38be d3c9 bcbd 3a42 4c3e
00000360: 3093 07be 9044 6b3c 6c4e cebd ec34 dcbd
00000370: 805e 003e 3074 d03d 53bf 1f3d 6425 893d
00000380: cd33 80be 520b 803d 48dc 7e3d 8c7a 5abd
00000390: 6981 b63d eb17 e9bd 366d 93bd 920e a63d
000003a0: d67d 03bc 43a8 963d 9ddf 3fbe 311c b23d
000003b0: b005 9f3d af2e d03c 1bd6 583d b251 83bd
000003c0: 3b6b 82be 76d8 513e b2e0 883e 42fc 613e
000003d0: e2d4 2cbe b2e3 cd3d 407d f9bd 2063 33be
000003e0: cbda 2bbe 6212 293e 534c 1c3d 0a80 80be
000003f0: 9d56 3a3e 1457 69bd eee3 0cbe 89e4 8a3e
0.052220147 0.16269638 -0.0109145045 0.014436185 -0.23653781 0.07941799 0.13110471 0.0057676733
0.077096134 -0.060433917 -0.0674514 0.26123804 0.02584075 -0.14468628 0.033397347 0.11204016
0.003614881 -0.047828164 0.17680608 -0.011369317 0.1920025 0.19399735 -0.106313884 0.13521862
0.052918494 0.04897634 -0.109285034 0.04647616 -0.20723598 0.037329808 0.054860316 0.09723355
0.02300435 0.07549659 0.17228368 -0.08360108 -0.07331169 -0.07199862 -0.06415377 -0.021747839
-0.060666803 0.29598093 -0.0253727 0.17204963 0.07403575 -0.06317031 0.08187034 -0.099945866
-0.074147224 -0.14485209 -0.087041855 0.010205069 0.21942307 -0.10087768 -0.2145718 0.06867919
-0.053234436 0.09419467 -0.071868554 -0.14830792 0.0025619965 -0.037902117 -0.029747853 -0.02088126
0.010955241 0.012599014 0.117232464 -0.036904883 -0.21348391 0.025394011 -0.08653647 0.145212
0.15071353 -0.0020852813 0.12971814 -0.09016718 0.1703564 0.14118722 0.19890201 0.14589263
0.08142739 -0.019841634 -0.1417066 -0.057031885 -0.12152406 0.025159681 -0.059007965 -0.17717801
-0.1475835 -0.014416134 -0.08420489 -0.21459083 0.12703723 -0.08991222 0.059711605 0.067867436
-0.14205058 0.1935392 0.016556224 0.17472538 0.1814485 0.08396799 0.031434476 -0.04391428
0.08303231 -0.040221397 0.057910908 0.078575104 0.07708638 -0.09264822 -0.00061800587 0.04677159
-0.023701383 -0.04978634 -0.21508339 -0.12264509 0.13453731 0.16832459 0.06379633 -0.0532138
0.20129094 0.13798116 -0.03719378 0.22377276 -0.01711611 0.20007113 -0.07808574 -0.030811831
0.08540843 -0.13558611 0.055771925 0.18183887 -0.15068392 0.06611736 -0.11945471 0.17217924
0.002945719 -0.03240885 0.0749014 0.018234909 0.15012747 -0.06260648 0.03201698 0.022501139
0.14795451 -0.20769972 -0.056476954 -0.026129596 -0.041764103 0.055169206 -0.026903238 -0.06791685
0.031706817 0.040650114 -0.09145388 0.025195315 -0.044920903 0.0012888655 -0.0062796753 0.091824405
-0.26013356 0.1651235 0.22152832 0.13180427 -0.055333678 0.09060358 -0.051184066 -0.14041969
-0.09237633 -0.116686195 0.09989894 0.042454027 0.0066394047 0.05884367 0.090491116 0.007417564
0.016433377 -0.07002252 -0.08775009 -0.03414568 0.024594732 0.15246227 -0.08856027 0.16911526
0.012481867 -0.07228721 0.028713493 -0.12703608 0.075659275 -0.0198635 0.15292758 0.10746536
0.00059905654 -0.056881957 0.090136185 -0.18183744 0.045244727 0.022331133 -0.000465816 0.17935558
-0.16823985 0.12634413 0.21287385 0.14243248 0.015789274 0.027369505 0.016245786 0.08324645
-0.16412309 0.035313297 0.001989906 -0.10080432 0.0033092387 -0.18042493 -0.092181824 0.19947138
-0.13239741 0.014359608 -0.100735515 -0.107522815 0.12536049 0.10178411 0.03900082 0.06696585
-0.2503952 0.06252159 0.062221795 -0.053339526 0.08911402 -0.11381515 -0.07198565 0.08108248
-0.008025607 0.07356312 -0.18737645 0.08696783 0.07764757 0.025412885 0.052938562 -0.064120665
-0.25472435 0.2049273 0.2673393 0.22068885 -0.16878083 0.10053195 -0.12182093 -0.17518282
-0.16782682 0.16510919 0.038158726 -0.25097686 0.18197103 -0.05696781 -0.13758823 0.27127483

model.rnn.weight_hh_l1 f4 [160, 40]
00000000: a65e 163d ba9b 973b 3edf 05be 90c4 e0bd
00000010: a017 013e 659e 54bd cecd cabd e6b7 86bd
00000020: a00e d73c dc03 743d 22e6 3fbe 7438 d73b
00000030: 4caa 6b3c bff0 d23c c475 a73d 795a d93d
00000040: 97b1 4f3d 18c4 113e 478e 0fbe 17c6 183e
00000050: 5228 dbbd 5589 9cbd 7155 91bd 8488 12be
00000060: 3cf7 65bb 58fd c13d 5f96 1f3d e87c 093d
00000070: 3e7b 403e 674d 073e 4e9c 403d faae 0f3e
00000080: 1416 043e 4490 343d 8526 88bd 8140 03be
00000090: 5152 eb3d c6b3 8bbd b45f 04bc 7c9c fcbd
000000a0: cab6 b33d 4715 66bd 328c ae3d 9bf1 0c3e
000000b0: 5bbb 9d3c 7fde 903d cb01 083d a8ee 2c3d
000000c0: cb8a c4bd b944 0fbe 76a3 623d a83b 293e
000000d0: 0591 c93d 7973 823d aefd 023e c947 573b
000000e0: 173f 143e d3b8 07be bf3a 27bd 2798 a63d
000000f0: 2196 a5bd de00 20be 4396 a53d f7b5 4abd
00000100: 67a1 99bd 24c7 5abd c8b0 ec3d 0042 683d
00000110: cfff 493e ad0e 0dbd 810f c63b fae3 c93d
00000120: 50cf ea3d 9271 433c 313d d73d 79dc 87bd
00000130: a8a1 08bd b48f e63a 1e32 fdbd 537f 143d
00000140: ac8e c03c 3c0a f93d bed7 903d 4812 8cbd
00000150: 7932 32bc 4fc0 b13c fe7c 07bd c1f2 ddbd
00000160: 38b8 3d3e 37d9 b0bd 1d97 73be e685 44bd
00000170: 86c7 12be 31d7 683d bc88 443d abe5 503e
00000180: 1723 b13c 5ed2 bc3d a6c9 49bd 8a52 d2bd
00000190: 874f edbd d19b 5d3d f80a d93c b81a 5cbe
000001a0: a797 1d3e e63f da3d e476 bdbd 7e9c 17bd
000001b0: a6e4 d83d fdbb d93c b711 2ebd 3c0d a9bd
000001c0: 0aa5 643c b783 cb3d bb51 ed3b 0c0e 4f3b
000001d0: 8093 17be 19ae 233e e4df 7f3d df8c 323e
000001e0: 3c37 9abd c011 9e3c 66ee 6a3e 5ede 08be
000001f0: bdac 9fbd 46c0 cd3d 2477 e1bd 6732 453e
00000200: b010 45bd b0f4 1bbe 8679 10be 6127 1d3e
00000210: d38c 423e e8de 56bd ebb9 e63d 61b4 99bd
00000220: 00d6 3c3e 7f41 27bd cae7 0b3d 3c84 09be
00000230: 7b8a 443e a197 943d b00b 32bd 6ad8 15be
00000240: 1623 613c b80c 69bd 20ba 933d de7c afbd
00000250: 93be 343d e8fd f4bd 9eb3 b53d c467 b83d
00000260: f1f1 bb3c 551a 263e f86d 983d d5f4 4c3e
00000270: 88db efbd 5555 1b3d df67 dabd af3e 28bd
00000280: 13aa 08be c8f0 bf3d 02d7 903d a929 46bd
00000290: 79e3 45bd 69d9 ddbc 1da2 633c 3f03 1abe
000002a0: 87c8 dc3d abb7 123e 3f74 523d 90d5 c7bd
000002b0: 605a d83a c76b f83d 657b f0bd f9c5 20be
000002c0: ae6d 1dbd 9dd4 0fbe c199 183d 9e66 7b3d
000002d0: 7435 5b3d 449c e7bd a1f4 793d 3ac7 263d
000002e0: 7d77 c33d 4f90 573d ad63 823d e41f de3c
000002f0: 3b09 1c3e 8df3 8bbd cc3f c6bd 5a0f f33d
00000300: 415b 163e fef3 fb3c a529 78bd 1d76 39bc
00000310: 85c0 e43d 88f0 f1bc cc35 f63d d1e0 2f3d
00000320: 2967 263d b9c6 dc3b 2abb e73d a8a4 f73d
00000330: aa44 cb3d aa38 97bd b45e 13bd 4fc4 8d3d
00000340: 9206 13bd 745d 8bbd 6dcc eabd 4c88 f83d
00000350: 2b79 e5bd 48f9 2fbd 38f1 5a3d 6266 acbd
00000360: 7ce8 5a3d 9c2c fabd c08f 13be 76a3 b1ba
00000370: e5ae 213d c193 20be 1db3 893d 13fd 79bd
00000380: 0dc0 08bd 0d0e fcbd e205 513d 22bb da3d
00000390: ab2f 07bd 8e76 983c 9c66 b5bd dc1e 83bd
000003a0: db6c f63d c71d 81bd 93b3 32bc f7ea 1abe
000003b0: 4004 0f3e 9846 033e 4724 05be 256f d6bd
000003c0: 4a09 a8bd ed18 c83d 7058 8abd e0c1 313c
000003d0: 6b1a ab3d 1562 d3bd cada bfbb 6c54 0bbe
000003e0: 1d53 c5bd e1cc 523d 840e 023d 6c89 d9bd
000003f0: 82ea 223e b8df 8cbd 0d9c b1bd d354 bdbd
0.036711358 0.0046267183 -0.13073441 -0.10974991 0.12606668 -0.05190887 -0.099025354 -0.065780446
0.02625209 0.059573993 -0.18740132 0.006568009 0.014383864 0.025749562 0.08176759 0.106129594
0.050706472 0.1423496 -0.14019118 0.14919315 -0.1070105 -0.076433815 -0.07096375 -0.14309889
-0.003508999 0.094721496 0.038961764 0.033566386 0.18797013 0.1321312 0.047024064 0.14031592
0.12899047 0.044082895 -0.06647972 -0.12817575 0.1149031 -0.068213984 -0.008079458 -0.123345345
0.087750986 -0.056172635 0.08522834 0.1376404 0.019254377 0.07073688 0.033204835 0.042219788
-0.09596785 -0.1399106 0.05533167 0.16526663 0.098421134 0.06369681 0.12792084 0.0032849184
0.14477192 -0.13254099 -0.04082751 0.081344895 -0.080852754 -0.15625331 0.08085301 -0.04948994
-0.07501488 -0.05341257 0.11557156 0.056703568 0.1972649 -0.034437824 0.0060443287 0.09857936
0.11465323 0.011928933 0.10509718 -0.06633849 -0.033357292 0.0017590434 -0.12363075 0.03625424
0.023505531 0.12160155 0.070723996 -0.06839424 -0.010876291 0.021698145 -0.033078186 -0.10837317
0.18527305 -0.086351804 -0.23788114 -0.047979258 -0.14333925 0.056845848 0.047981963 0.20400111
0.021623177 0.09219812 -0.049264573 -0.10269649 -0.11587434 0.054103676 0.026494488 -0.21494567
0.15389882 0.10656719 -0.09251192 -0.037014477 0.10590486 0.026578898 -0.042497363 -0.082544774
0.013955364 0.09937232 0.007242409 0.0031594066 -0.1480236 0.15984382 0.062469378 0.1743655
-0.07530066 0.019295573 0.22942504 -0.13366076 -0.07796619 0.10046439 -0.110090524 0.19257508
-0.048111618 -0.1523006 -0.14108858 0.15347053 0.18999033 -0.052458674 0.1126593 -0.07505108
0.1844101 -0.040833946 0.0341566 -0.1342935 0.19193451 0.072554834 -0.043468177 -0.14633337
0.013741275 -0.056896895 0.07213235 -0.085687384 0.04412706 -0.11962491 0.0887215 0.09004167
0.022942515 0.16220982 0.0744285 0.20015271 -0.11711794 0.037923176 -0.10664343 -0.041075405
-0.13346128 0.09372097 0.070722595 -0.048379574 -0.048312638 -0.027081208 0.013893631 -0.15040301
0.10780435 0.14327876 0.051380392 -0.09757531 0.0016506426 0.12129932 -0.11742286 -0.1570052
-0.038434677 -0.1404595 0.037256006 0.06137716 0.053517774 -0.11309102 0.061024312 0.04071734
0.09544275 0.052627858 0.06366668 0.027114816 0.15237896 -0.06833563 -0.09680137 0.118681625
0.14683248 0.030755993 -0.06058659 -0.011319664 0.11169533 -0.02953364 0.1202198 0.04293901
0.040625725 0.006737557 0.113149956 0.120919526 0.09925206 -0.07383855 -0.035978988 0.069222085
-0.035894938 -0.06804934 -0.114647724 0.121353716 -0.112047516 -0.042962343 0.0534527 -0.084179655
0.05344437 -0.1221554 -0.14410305 -0.0013552743 0.039473433 -0.15681364 0.06723616 -0.061032366
-0.03338628 -0.123073675 0.051031 0.10680224 -0.033004444 0.018611219 -0.08857462 -0.0640237
0.12032481 -0.06304508 -0.010907072 -0.15128694 0.13966465 0.12819898 -0.1300212 -0.10470418
-0.08204897 0.09770379 -0.06755149 0.010849446 0.08354648 -0.10321442 -0.005854939 -0.13606423
-0.09634993 0.05146492 0.031752124 -0.10621914 0.1590977 -0.068786085 -0.086723424 -0.092446946

model.rnn.bias_ih_l1 f4 [160]
00000000: c671 af3d 6bed 643e 4825 263e 90fa 453d
00000010: 48fe 7e3d ea5a 84bd d381 813e a6ec 883d
00000020: 4350 7f3e bd7a 013e f92e dbbd 908e 0bbd
00000030: c34e c33d 7577 d03d 298e f03d 1e1a 593e
00000040: 528a 643e 043d 893c 1faa 173d 88a6 203e
00000050: a857 093e 782e 9ebb a693 243e 2a98 483e
00000060: eff7 193e 2d9e 4d3e 48c5 303d 83a0 443d
00000070: 3922 29bb 2482 6ebd 2a79 95bd d7d9 41bd
00000080: 64af d33d da49 a1bd d192 be3c df86 783e
00000090: b598 583e a2ba 9dbd f93a 84bd 3e52 15bd
000000a0: 237d 1e3e 6718 873d 3973 9dbd b46b f83c
000000b0: 4a68 913d f7fc a83d 426c da3d fde0 e23c
000000c0: d704 7a3c e38a 953d 419d c5bd 19f3 643c
000000d0: b874 bfbc 3ffd 0b3e e11f 363e 2f3d e9bd
000000e0: db45 a0bd 62d1 99bd 17ef 373d c785 f73d
000000f0: c6be 133c 4b07 a23d 798c 933c be2c 713d
00000100: 16f3 98bc 83a7 83bd c77d 263e ffd3 7b3d
00000110: eea7 10be 7c71 f93d 4f9b e03c 46cf 783c
00000120: 6a9d 203e bc6a 9d3b e4c0 0d3e 2319 dbbc
00000130: 61fc 8e3d b0d2 55bd 465f 06bd 2cd0 093e
00000140: 8789 ebbd 2e22 2bbd b136 183e 9580 8abc
00000150: eaf2 abbc 8cbf f03d 0d50 b53d 7cbb 373e
00000160: 7103 16bd 7ecc c4bb 62c2 46bd 36f0 a53d
00000170: 4fcf 9dbd 068f cd3d ae6d a83d 4b54 a8bd
00000180: d368 d83d 82fa d03d 482f 073d a482 b73d
00000190: 4f1b 78bb 8aa8 0ebe 2bee 813d bc6a c6bc
000001a0: 66fc 233d f648 023d de8f babd ed51 323d
000001b0: e5f8 f43b a7f0 c9bd 2062 81bd 497f 6cbc
000001c0: 708f f2bd ed42 493e c587 c53d 5561 613d
000001d0: 162d a1bd 26d6 d93d c5e3 313e 5362 373d
000001e0: ab60 233c 58c9 bb39 2bd7 ccbd fbe0 5f3e
000001f0: 6fa0 dcbc 85c1 163c b877 abbd 0072 d7bd
00000200: 6874 583d 3bd2 0c3e 6856 a1bd 7ca5 093e
00000210: 1e9d 16bd 63a3 89bc b1fd 5d3c 4f1d 2d3e
00000220: 4398 0abb 5f1d 5f3d fbcf d43d 1b03 1d3e
00000230: f0c5 213e 8305 bc3d c1e7 c9bd 66d7 de3d
00000240: b05a 1fbd 1315 37bd a54c 8ebd 809b 253e
00000250: 3874 0f3e d8f2 8a3d dfd2 983d ac20 813d
00000260: 5f78 3f3d 241e 72bc 5780 e6bd 1dca a93d
00000270: 50cf b6bd ca74 9c3c fc3e abbd cc31 21bc
0.085666224 0.22356193 0.16225159 0.04833466 0.06225422 -0.06462653 0.2529436 0.06685762
0.24932961 0.12644477 -0.10702319 -0.034071505 0.09536507 0.101790346 0.11745865 0.21201369
0.2231839 0.016752727 0.037027474 0.15688527 0.13412344 -0.004827317 0.16071948 0.19589296
0.15035985 0.2007987 0.043156892 0.04800464 -0.0025807752 -0.05822958 -0.07298501 -0.04732689
0.103361875 -0.07875414 0.023263367 0.24270199 0.21152003 -0.07701613 -0.06456561 -0.036455385
0.15477423 0.06596451 -0.076879926 0.030324794 0.0709997 0.08251374 0.1066518 0.027695173
0.015259943 0.07301881 -0.096491344 0.013973975 -0.023371086 0.13670824 0.17785598 -0.11388623
-0.07825824 -0.0751064 0.04490575 0.12086063 0.009017652 0.07911547 0.018011319 0.05888056
-0.0186706 -0.06428435 0.16258918 0.061481472 -0.1412656 0.121798486 0.027417807 0.015186137
0.15685049 0.0048039835 0.13843113 -0.026745385 0.06981731 -0.05220288 -0.032805704 0.13458318
-0.11500841 -0.041780643 0.14864613 -0.016907016 -0.020989854 0.11755285 0.08853159 0.17942613
-0.036624376 -0.0060058227 -0.04852522 0.08102457 -0.077055566 0.10037045 0.08224045 -0.082192026
0.10566869 0.102040306 0.033004075 0.089604646 -0.0037858074 -0.1393148 0.06344255 -0.024220817
0.040035628 0.031807862 -0.09109472 0.04353516 0.0074759596 -0.09860354 -0.06317544 -0.014434644
-0.11843765 0.19654436 0.096450366 0.055024464 -0.078699276 0.10636549 0.17372043 0.044771504
0.009971778 0.00035817432 -0.100019775 0.21863167 -0.02693197 0.009201412 -0.08372444 -0.10519791
0.05284539 0.13752072 -0.07877809 0.13442034 -0.036770932 -0.016801542 0.013549254 0.16905712
-0.0021147884 0.05447137 0.103912316 0.15333216 0.15798163 0.09180739 -0.09858657 0.10880928
-0.038904846 -0.044697832 -0.069482125 0.161726 0.14009178 0.067846 0.074620955 0.0630506
0.046745654 -0.014777694 -0.11254948 0.08290503 -0.089262605 0.019098658 -0.08361623 -0.009838533

model.rnn.bias_hh_l1 f4 [160]
00000000: 652e 98bd 8267 b93d 5490 523e 2a72 23bd
00000010: 7dd9 97bc 1965 3b3e 2238 d03c 0089 5b3e
00000020: a8dc 3e3e d66d d3bd 8fd4 25bd 9cce 233e
00000030: 4cbb 6b3c 2038 88bd 9f50 843d c3b5 513e
00000040: 411c 76bd b58e 963d 62b9 193e c844 c6bc
00000050: 0545 d9bc 80a0 9bbd aac7 403d 9967 e93d
00000060: ea4e f73d 39d6 323c 142d 243e aa2f 543e
00000070: 4fbd d63d 43e5 f13c 5722 4bbd 7ea1 1a3e
00000080: 8e2d 98bc b78c fc3c c474 433e b292 373d
00000090: 8e2c 3e3d fc06 78bc b31f 003e 59c8 243e
000000a0: 6109 893b 1a89 093d c300 07be cee9 d6bd
000000b0: 5fa2 293d 0660 1c3e 0c54 b0bd 83d2 a6bd
000000c0: 1dba 293e 7db1 8d3d 4bd1 99bd bc5e 14be
000000d0: 4115 183b 9b41 0e3d 55ad 45bd 0a39 c43d
000000e0: 85d7 fe3d eb92 c5bd 0152 1f3e c5b9 dc3d
000000f0: 497f 903c 0cd2 91bd f19d 0e3e 52bb 51bd
00000100: 159f b73d 16c6 293e a950 083e 1e63 b23d
00000110: d1c2 3dbe a505 94bd 943d 273d 3fba 2ebd
00000120: c25d 203e 413f 81bd c24e a33d eaca eb3d
00000130: 74c0 2b3e 3170 ddbd cad7 d73d 6977 4f3d
00000140: 4d4d 0e3e f61e 913d 157a 9cbd 5d19 0d3d
00000150: a940 723d 5d52 023e 37fe 99bd e648 0c3c
00000160: 81c0 be3d 8b5a 0fbd 6222 e3bd 8ba2 d0bc
00000170: d53b 23bd 54f1 293e eaf6 383e 4412 f13d
00000180: d892 763d 6e58 eb3d 8b80 c1bd 3fa6 babc
00000190: 82f8 883d 3227 d8bd 2c14 d9bd a8eb 98bd
000001a0: aaa3 003e 7675 213e ddbe 06be a1ba 1ebe
000001b0: 5dd5 7e3d cc66 0c3e 031a ae3c ee85 3d3e
000001c0: 8bc1 28bd 326f 28bd 270c 463e 7be9 37bd
000001d0: e457 17be c04e 343d ca69 37bd 5c75 75bc
000001e0: c5d5 9abd 2833 163e 1842 85bd e49a b43c
000001f0: c2fb f4bd dda7 9ebd 08ed 52bd b6fa 3b3e
00000200: d406 8e3c 817d 473e 1359 db3d 8d9e 49bd
00000210: 75d2 c73d 498a a9bd e797 efbc 3065 173e
00000220: 186b e3bb c5bd 99bd 103f 87bd 5e83 6c3c
00000230: c436 413d 11de babc 23de b4bd 199a ecbd
00000240: 8103 533e f742 af3d fa46 ac3d 8fad 503d
00000250: a8c6 02be 9c06 afbb 9028 12bc b711 403e
00000260: 3af0 2d3e c3c5 4e3e 2c30 01be 8e6a 303d
00000270: 2fa3 5d3d 3a43 4bbc 1ebb a83d f1b4 70bd
-0.07430724 0.09052946 0.2056287 -0.039903797 -0.018536324 0.18300284 0.025417391 0.2143898
0.18638861 -0.10323684 -0.040485915 0.15996784 0.014387917 -0.0665133 0.0646069 0.20479493
-0.06008554 0.07351438 0.15012124 -0.02420272 -0.026522169 -0.07598972 0.047065414 0.11396713
0.120755985 0.0109153325 0.16032821 0.20721307 0.104853265 0.029528266 -0.049593296 0.15100667
-0.01857641 0.030828817 0.19087511 0.044817634 0.04642921 -0.015138384 0.12512092 0.16092052
0.0041820263 0.033578016 -0.13183884 -0.104938135 0.041414615 0.15271005 -0.08609781 -0.08145621
0.16574903 0.06918619 -0.075106226 -0.14489263 0.0023206028 0.034730535 -0.048261005 0.09581192
0.12443451 -0.09647163 0.15558626 0.1077762 0.01763882 -0.071201414 0.13927437 -0.051204033
0.08965889 0.1657947 0.1331202 0.08710311 -0.18531348 -0.07227639 0.04083021 -0.042658087
0.15660766 -0.06310893 0.07974006 0.11513312 0.16772634 -0.108124144 0.10539205 0.050650988
0.13896675 0.070859835 -0.07640473 0.034448016 0.059143696 0.12726732 -0.07519191 0.008562302
0.09314061 -0.034998458 -0.110905424 -0.025468132 -0.039851982 0.16595966 0.1806294 0.11771062
0.060198635 0.11491476 -0.09448346 -0.02278435 0.06688024 -0.10554351 -0.105995506 -0.07466823
0.12562433 0.15767464 -0.13158746 -0.15500881 0.062215198 0.13711089 0.021252638 0.18508121
-0.041200202 -0.04112167 0.19340573 -0.0449004 -0.14779621 0.044020414 -0.044778623 -0.014981594
-0.075603046 0.14667952 -0.06506747 0.022046514 -0.119620815 -0.07746861 -0.051495582 0.18357357
0.01733724 0.1948147 0.10710349 -0.04922347 0.09756938 -0.08278329 -0.029247237 0.14784694
-0.006940257 -0.07506899 -0.06603825 0.014435617 0.04717137 -0.022810968 -0.08831432 -0.11552829
0.20606805 0.085576944 0.08411975 0.05094677 -0.12771094 -0.005341364 -0.008920804 0.18756758
0.1698617 0.20192628 -0.12616032 0.04307037 0.054110702 -0.012406165 0.08238815 -0.05876631
