DeepAR/W1/gluon_ts/prediction-net-state.pt (torch, 98912 bytes, 11 tensors)

model.param_proj.proj.0.weight f4 [1, 40]
000000 11 13 08 be f3 d7 b6 3d 2c 53 a4 bb 00 9f 77 3d
       -0.13288523 0.08927908 -0.0050147977 0.06045437
000010 b5 a2 19 3d 85 48 ee 3e 6d b0 66 bc d8 d3 7e 3d
       0.037508685 0.46539703 -0.014080149 0.06221375
000020 a3 6a 13 be f5 3c d4 bd 73 84 ac 3e 7a 25 5b be
       -0.14396147 -0.10363189 0.336948 -0.21401015
000030 b7 62 dc 3d 0c fb 08 3b b9 9d 18 bd 2b 34 4c 3e
       0.10761016 0.0020901589 -0.03725979 0.19941776
000040 ba 83 1f bc d1 22 a8 bd 0f a8 43 bd e8 b5 34 be
       -0.009735996 -0.08209766 -0.047767695 -0.17647517
000050 d7 6c a2 bd 28 06 db 3d 38 3d d6 3d b3 5f 5d be
       -0.07930916 0.106945336 0.10460895 -0.21618538
000060 7d d9 3e be 9d 95 5c bd 8e f8 86 3e e6 d2 29 3e
       -0.18637653 -0.05385362 0.26361507 0.16584358
000070 45 c5 0f be 1e 4c 08 be 42 3d 04 bc 50 9d 96 3d
       -0.14040096 -0.13310286 -0.008071246 0.07354224
000080 44 aa ba bb 8d 64 dd 3d 49 10 5d 3d be d1 d8 3d
       -0.005696567 0.10810194 0.05397061 0.1058688
000090 82 3d 74 3d b3 32 36 bd 85 dc 83 3e 6f 97 12 be
       0.05962897 -0.044481944 0.2575418 -0.1431558

model.param_proj.proj.1.weight f4 [1, 40]
000000 0a 49 0a 3e 2a dd fa bd 24 d4 27 3e 13 c8 be bd
       0.13504425 -0.12249215 0.16389519 -0.09315505
000010 54 79 29 3d c2 50 12 be 7c 03 7d bd 04 31 50 be
       0.041375473 -0.14288619 -0.0617709 -0.20331198
000020 ef 43 7f bd 9c 38 11 be 05 c1 dc bd 7c 1a 7d 3e
       -0.062320646 -0.14181751 -0.10779003 0.24717134
000030 1a d1 97 bd 86 21 3e 3e a0 dc 04 be bf 49 1f 3e
       -0.0741293 0.18567476 -0.12974787 0.15555476
000040 37 a2 77 3d 70 48 f0 bd 0c 05 70 be 67 1b 09 3e
       0.060457435 -0.11732566 -0.23439425 0.1338936
000050 cb 32 30 3d 12 5f a3 bd 34 41 be 3c 43 b3 5c bd
       0.04301719 -0.079771176 0.02322445 -0.053881895
000060 b5 50 df bd 42 2c b4 bd 2e f4 8f bd dd e8 af 3d
       -0.109040655 -0.08797504 -0.070289955 0.08589337
000070 45 c9 16 3e 3b 15 11 be 5f 8a d4 bd fa f7 dc 3d
       0.14725216 -0.14168255 -0.10377955 0.10789485
000080 0d fe 9b 3d 98 79 38 be 20 db 97 3d 71 4f 36 3c
       0.07616816 -0.18015134 0.07414842 0.011127339
000090 ff c4 26 3e ac 72 f4 bd e1 26 02 3e 18 0b 95 bd
       0.16286086 -0.119359344 0.12710144 -0.072775066

model.param_proj.proj.2.weight f4 [1, 40]
000000 5b fe 80 3d 00 84 37 bd e6 1c 11 bd 3e 4c f6 bd
       0.062985145 -0.04480362 -0.03542795 -0.12026261
000010 75 28 ab bd 3a b7 b2 be 17 c9 3f 3e 6b e9 f8 bc
       -0.08357326 -0.34905416 0.18729053 -0.03038474
000020 a2 3f 04 3e 49 54 20 be bb d9 6d be 72 de 02 bd
       0.12914899 -0.15657152 -0.23227589 -0.03195042
000030 60 73 63 bc f9 4b 42 bd ec bd 01 3c 2f d5 b1 3d
       -0.013882488 -0.047435734 0.007918816 0.0868324
000040 f0 7c 75 be 0f c4 61 3e 80 62 8d bd 0a f9 f8 3d
       -0.23973441 0.22047447 -0.06903553 0.121568754
000050 ac c3 9f 3d 6f b0 51 bd 6b f6 74 3d af 96 0d 3e
       0.07800993 -0.05119365 0.059805315 0.13827012
000060 c8 ee 48 3e 88 d0 19 3e 5c 30 5b be 5c 6f 2e bd
       0.19622338 0.15020955 -0.21405166 -0.04258667
000070 12 c6 99 3d 9e ba 06 3e 04 c1 1b 3e 8a f1 f7 bd
       0.07508482 0.13157126 0.15210348 -0.12106617
000080 5b 57 43 be ff 02 a2 bd 7f fe 3e 3d d5 51 1f be
       -0.19076292 -0.07910728 0.046629425 -0.1555856
000090 79 5b 14 3d 65 0a 04 3e 5f 29 86 be c8 ed a8 bc
       0.036220048 0.1289459 -0.2620344 -0.020621195

model.rnn.weight_ih_l0 f4 [160, 21]
000000 b9 88 cd bc d5 8e b0 3d 77 a9 e3 3d aa 65 22 3d
       -0.025089609 0.08620993 0.11116307 0.039647736
000010 70 5c b3 bd 11 2d 01 3e d1 08 59 bd ea 88 a7 bd
       -0.087578654 0.12614848 -0.052986924 -0.08180411
000020 37 b7 51 3e 9b 08 48 bd f3 ed 2e 3e 29 fc 58 3c
       0.20480047 -0.04883633 0.17082958 0.013243713
000030 c5 66 68 3c a2 52 da 3d 09 a8 13 bd 53 57 52 3e
       0.014184658 0.10660292 -0.036048923 0.20541124
000040 24 ef 19 3d 5f b2 be bd d7 a6 69 3d 1a ac 20 be
       0.037581578 -0.09311365 0.057043876 -0.15690652
000050 e2 ca c2 3d c4 ae 73 3e c5 80 be bd 59 3f e5 3b
       0.09511353 0.23797137 -0.093019046 0.006996077
000060 e7 e9 4e 3e 3e 35 72 3d 7c ef 3f bd 08 68 5b bd
       0.20206414 0.059132807 -0.04685925 -0.05356601
000070 4b c7 71 bd 50 a3 80 3d e4 cc 80 3e 52 c0 da 3d
       -0.05902795 0.062811494 0.2515632 0.106812134
000080 52 8b a0 3e 6b ec 2a 3e 96 13 c3 3c bb b1 9e 3d
       0.31356293 0.16691749 0.02381305 0.07748743
000090 3b d0 02 3c 7b 59 0c be 05 8b be bd 81 67 09 bc
       0.007984216 -0.13706009 -0.093038596 -0.008386494
0000a0 44 a4 78 3e 58 84 48 3e 6f d7 87 3e 39 8d 31 3d
       0.24281412 0.19581735 0.2653155 0.04334757
0000b0 a3 c3 f4 bd c3 71 97 3d 04 6d 8d 3b 20 b4 b2 3c
       -0.11951377 0.07394745 0.004315974 0.021814406
0000c0 e9 0e e4 bc 8e a6 35 3d 54 6b 89 3e a0 f9 e5 3d
       -0.027839141 0.044348292 0.26839697 0.11229253
0000d0 cf d4 d8 bc 41 bd ac 3d 2b f8 37 bd 18 55 44 bd
       -0.026468663 0.08434535 -0.044914406 -0.047932714
0000e0 c8 28 f0 3d f3 48 ad 3d 56 c3 0d 3d 65 e7 8b 3d
       0.117265284 0.084611796 0.034610115 0.068312444
0000f0 54 68 a5 3d 33 cb c7 3e 40 60 eb 3d 47 5a 5c 3d
       0.0807654 0.39022216 0.114929676 0.053797033
000100 6d f2 00 3d a1 47 9d 3d b2 73 33 3d 34 7a 9c 3c
       0.031481195 0.07679678 0.043811508 0.01910124
000110 6a 14 93 3d 18 4f 01 3e df c7 a9 bc ec a2 5c 3e
       0.07181628 0.12627828 -0.020725189 0.21546525
000120 5e a2 8b 3e c0 6a 03 3e f1 3a 17 bd 22 58 67 3e
       0.27272314 0.1283369 -0.036921445 0.22592214
000130 e9 4c 7c 3d 24 dd 9e 3d 1c 06 42 3d 1e 86 7e 3c
       0.061596785 0.07757023 0.047369108 0.015534906
000140 ac 1c b5 3d f5 ae 36 3e 91 b1 8e bd 2f 5e 1a 3e
       0.08843359 0.17840178 -0.06967462 0.1507499
000150 0e 85 aa 3d ce 37 17 3e b5 96 c1 bd 84 80 c6 3c
       0.083261594 0.14767382 -0.09452573 0.024231203
000160 7a 8f eb bb c7 52 14 be 84 f4 9b bc 67 28 2a 3d
       -0.0071887346 -0.14484702 -0.019037493 0.041542437
000170 74 5d c5 3d 42 29 63 3d 49 f4 c1 bd a7 8f e5 3d
       0.096369654 0.05545927 -0.09470422 0.1120904
000180 f5 a5 b6 bd 6e 47 33 3d 38 36 f4 3d 27 d0 b4 bd
       -0.089183725 0.043769293 0.11924404 -0.088287644
000190 f3 f7 02 bd a9 79 93 3d 30 56 72 bd b3 4e f1 be
       -0.031974744 0.07200939 -0.059164226 -0.47130355
0001a0 87 08 db bd 2a d7 10 3d 36 50 b1 3d 8e 58 64 bd
       -0.10694986 0.035361446 0.08657877 -0.055748515
0001b0 ef ad a0 3d b9 44 bc 3d a7 85 9b 3c dc b1 8e 3d
       0.07845675 0.09192795 0.018984629 0.06967518
0001c0 25 35 2d 3e 7e 6c 48 3e 72 cf 01 3d e8 05 05 3e
       0.16914804 0.19572636 0.031691976 0.12990534
0001d0 ac 4c 58 3e 06 3e b4 ba 05 25 b5 bc ff 94 8e bd
       0.21122998 -0.0013751395 -0.022112379 -0.069620125
0001e0 90 29 ef bd c2 77 28 bc 96 8f a9 bd fa 8c 9d 3c
       -0.11677849 -0.010282459 -0.0827934 0.019232262
0001f0 14 fe 24 be 59 6d 01 3e e7 9b 57 bc c5 cf 1a 3d
       -0.16112548 0.12639369 -0.013159729 0.0377958
000200 7c 69 47 3e 14 05 10 bd b2 c3 5d 3c 8e cc 50 3d
       0.19473833 -0.035161093 0.013535427 0.05097633
000210 18 b3 ab 3a 21 9b 07 3e 3a 84 05 3e 56 33 36 3e
       0.0013099639 0.1324277 0.13038722 0.1779302
000220 38 81 83 bc c9 3f e4 3d 82 aa 8e 3d 44 97 a4 3d
       -0.016052827 0.111449786 0.069661155 0.08036664
000230 bc 92 39 3e 7c ad 3c 3e 0b 6f 5e bd 25 22 97 3c
       0.18122381 0.18425554 -0.054305118 0.018448899
000240 ae ea 5d 3e b0 02 b3 bd 96 e6 c4 bb cf 50 0a 3e
       0.21671554 -0.08740747 -0.0060089333 0.13507389
000250 3c ad 0e bd 72 2f 2a 3e 97 02 c3 bd bf 49 5a 3d
       -0.034833178 0.16619661 -0.09521978 0.053292986
000260 e2 53 55 bc 9f 5a 54 3d 0a 02 2f bd a4 6a 81 3e
       -0.0130204875 0.051844236 -0.042726554 0.25276673
000270 c5 d8 f8 bd 9e 2e f7 bd 69 fa 63 3e d3 55 a1 bc
       -0.121507205 -0.120694384 0.22263493 -0.019694244
000280 d1 e2 00 be ca 04 20 3e 0d 56 03 be 30 12 38 be
       -0.12586524 0.15626827 -0.12825795 -0.17975688
000290 7e cd 43 bd a3 ed a8 bd a6 0b a1 3e 90 0f d9 3d
       -0.047803394 -0.082484506 0.314542 0.105986714
0002a0 f9 5a 71 bd 9c 3c 1f 3e d0 c0 a0 3e ee fd 0d be
       -0.05892465 0.15550464 0.31397104 -0.13866398
0002b0 6e 95 e1 3d 35 2c 6d 3e a1 8a 0d 3d 0a bd b4 3e
       0.110148296 0.23161395 0.034556035 0.35300475
0002c0 ac 44 9b 3e f1 52 9b 3e bc a2 53 3e 06 74 6c 3e
       0.3032583 0.30336717 0.20667547 0.23091134
0002d0 4b b7 12 3e 18 00 09 3e 7d ed 59 3d 6d 4c 86 3d
       0.14327733 0.13378942 0.053205002 0.06557546
0002e0 ef bf 62 3d 16 bc 57 3d 02 b6 4a 3d 84 e8 2a bd
       0.055358823 0.052669607 0.049489982 -0.04172565
0002f0 3e ea 42 3d 83 b5 49 3e d4 bf c3 3d e6 52 6e 3d
       0.047586672 0.19698147 0.09558073 0.058184527
000300 3e 92 6b 3e 4f b4 53 3d c4 2e 21 3d 2c 22 36 3c
       0.23005006 0.051685628 0.03935124 0.011116546
000310 6d 91 5a 3e 00 f1 e1 3d 8e d4 62 3e 5a fd 8e 3e
       0.21344538 0.11032295 0.22151396 0.27927667
000320 24 76 96 3e 84 f3 db 3d a5 5a 0a 3e 38 21 92 3e
       0.2938701 0.10739806 0.1351114 0.2854097
000330 0b cb 81 3e 5e 27 d5 bd 7a 4f cf bd 6f 56 c2 3c
       0.25350222 -0.10407899 -0.10122581 0.023722855
000340 32 0f 55 3e 75 28 55 3d ee da ab 3e a2 2f 86 3e
       0.20806578 0.052040536 0.33565468 0.26208216
000350 de da 8f 3e 22 ac 98 3d 3a 23 f8 3d 8b 5d f9 3c
       0.2809667 0.07454707 0.12116094 0.030440113
000360 35 ff cf 3d 91 cd 12 3e b3 e1 69 3e c1 91 1c 3c
       0.10156099 0.1433623 0.22840004 0.009556235
000370 4c 8b 20 be 47 a3 6e 3e f9 c8 10 3e 99 5c 81 bc
       -0.15678138 0.23304473 0.14139165 -0.015791224
000380 89 86 69 3d 0b 5d 10 be cb 01 03 be 49 9c de 3d
       0.05701307 -0.14097993 -0.12793653 0.10869653
000390 90 52 24 3d e4 e2 2b 3e 52 1d cf 3d e9 a8 ef 3d
       0.0401178 0.1678577 0.10113014 0.11702139
0003a0 23 1e 57 3e 8c cb 35 3b 64 4d f3 3b 63 c3 6d 3e
       0.2100759 0.0027739732 0.007424997 0.23219065
0003b0 bf 8d 26 3e 6e b7 51 3e f6 c3 45 3e ea 55 45 3c
       0.1626501 0.20480129 0.19313034 0.012044409
0003c0 b5 05 16 3e 41 e3 ef 3d 19 14 e6 3d 0a 0d b9 3d
       0.14650615 0.11713267 0.11234302 0.0903569
0003d0 aa cb 5d 3d f8 0d bc 3d 16 6d 8f 3d 4a c1 8a 3c
       0.054149307 0.09182352 0.07003228 0.01693787
0003e0 09 7f fd 3c 0a 40 0b 3d d5 52 22 3e bd 08 81 3d
       0.030944364 0.03399662 0.1585191 0.06300495
0003f0 e2 9d 89 bd 12 61 81 bd 0b 45 69 bd bc c8 09 bd
       -0.06719567 -0.06317343 -0.05695061 -0.0336387

model.rnn.weight_hh_l0 f4 [160, 40]
000000 0a 6b bc 3d 32 f5 d9 3c fa 8c a3 bd 88 09 17 3e
       0.092001036 0.026606176 -0.079858735 0.1474973
000010 f7 62 c3 bd d4 19 be bd 27 b0 49 be eb 29 d2 bd
       -0.095403604 -0.0928227 -0.19696103 -0.102619015
000020 32 f8 fc bd 16 9f d5 3d 10 6a 36 be 40 66 08 3e
       -0.12352027 0.10430734 -0.17813897 0.13320255
000030 86 f5 c4 3b d3 59 20 3e eb aa e4 bd f5 76 fd bd
       0.006010714 0.15659265 -0.111654125 -0.12376205
000040 98 f1 32 bd b2 c6 c1 3d d8 14 0e 3e 3c 2a dd 3d
       -0.043687433 0.09461726 0.13875139 0.10799071
000050 10 81 58 3d dd c5 0a 3e b3 b8 05 3e fb f1 54 bc
       0.05285746 0.13552041 0.13058738 -0.012997146
000060 80 67 1d bd d2 e1 ca bc 2a 48 1d 3d fb 9a 48 bc
       -0.038428783 -0.024765883 0.0383989 -0.0122439815
000070 57 b2 09 3e 11 71 f1 bd 54 fb 7f 3d ee 72 30 be
       0.13446938 -0.11789144 0.062495545 -0.17231342
000080 2e c7 a6 bc fe 51 f9 3d 06 96 2b 3d 34 d6 19 be
       -0.020358648 0.12173842 0.04189112 -0.15023118
000090 dd fc 10 be c8 77 ce bd 90 6a d4 bd 73 6a d4 3d
       -0.1415896 -0.1008144 -0.10371888 0.10371866
0000a0 af 3d e0 3d be e4 8f bd 3e 94 07 bc 67 3c 81 bc
       0.10949265 -0.07026051 -0.00827509 -0.015775872
0000b0 f8 0c 8a be df 88 9c 3d f2 4f 0f be 52 fa 1a bd
       -0.2696302 0.076432936 -0.1399534 -0.03783638
0000c0 b3 b4 a8 bc e4 cc be 3d 1a 55 3b bd d1 96 ad bd
       -0.020593977 0.093164235 -0.045735456 -0.084760316
0000d0 46 e6 3c 3d cc da 99 bd 48 d5 b2 bc 22 25 53 be
       0.046118043 -0.07512435 -0.021830216 -0.20619634
0000e0 57 e9 c6 bd 64 47 1d be b8 46 a8 3c dc 9f 1a 3d
       -0.09712475 -0.15359265 0.020541534 0.03775011
0000f0 64 1e 20 be 8a 6e e0 3c 3d da 82 3d e5 16 1c bd
       -0.15636593 0.02739646 0.06389282 -0.03810777
000100 e0 71 5e 3d 80 16 ea bc eb 16 7f bd 54 76 2e be
       0.05430782 -0.028575182 -0.062277716 -0.17037326
000110 9b e8 17 3e 76 72 23 be ed 49 f5 3d 01 73 28 be
       0.14834826 -0.15961632 0.11976991 -0.1645012
000120 c5 15 53 be 76 09 45 be e0 09 67 3d 70 1d 43 3e
       -0.20613773 -0.1924189 0.056405902 0.19054198
000130 af de 58 3c e2 bb 97 3d 6b 31 4e 3d 77 d7 8a 3d
       0.013236686 0.07408883 0.050340097 0.06779378
000140 80 70 db bd e0 1d a9 bd 74 7d 04 3e e4 84 df 3c
       -0.10714817 -0.08257651 0.12938482 0.027285047
000150 d4 c9 15 be b5 49 48 bd 65 77 2e 3d 9a b0 cf 3c
       -0.14627773 -0.048898418 0.042594332 0.025352765
000160 f3 da a4 bc f9 3b 86 bd e4 f3 72 bd 8c 15 e6 bd
       -0.020123934 -0.065544076 -0.059314623 -0.112345785
000170 73 50 7b 3d 64 4a 14 3e 87 4a e2 3c 57 3e b1 3d
       0.06135602 0.14481503 0.027623428 0.086544685
000180 ca 7f 2c be d0 26 28 be 4f 7d 7c bc 81 04 42 3e
       -0.16845623 -0.16421056 -0.015410735 0.1894703
000190 9c e6 85 3d 40 8c 87 3d 6d 60 64 be df 49 19 3b
       0.06538126 0.066185474 -0.22302409 0.0023389978
0001a0 a0 82 06 be 7b b1 97 bd 47 81 41 3d 64 1f 7d bd
       -0.13135767 -0.074068986 0.04724243 -0.061797515
0001b0 f0 dd 26 3e 30 3c 70 bd d8 d8 e4 bd 8a 7a 9d 3d
       0.162956 -0.05865115 -0.11174172 0.07689388
0001c0 f7 c8 05 3d c4 87 db bd 0d 2c 49 3d d1 30 cb bd
       0.032662358 -0.107192546 0.049114276 -0.0992142
0001d0 6e 51 74 bd 7b 73 c6 3c 22 4d e2 bd 10 e7 c7 bd
       -0.05964797 0.024224987 -0.11049868 -0.097608685
0001e0 07 72 2d be 56 cf 73 be 48 ef 56 3e 26 06 92 bd
       -0.16938029 -0.23809561 0.20989716 -0.07130079
0001f0 c3 9e af bd d1 ab 63 be de 85 84 be 9c fc 0c 3d
       -0.08575203 -0.22233512 -0.25883383 0.034420595
000200 fe d0 92 bd d3 16 28 3e 13 4c 51 3e 75 83 7d 3e
       -0.07168768 0.16414957 0.20439176 0.24757178
000210 96 7c 7e be 8e 18 66 be 8d fc f1 3d ca 2c 9f bd
       -0.24852213 -0.22470304 0.11815748 -0.07772215
000220 6b 5f 45 3e 88 1c 28 3d 46 5c 44 3e b3 9b e3 bb
       0.1927468 0.041042835 0.19175825 -0.006946051
000230 38 aa d6 bd 45 6f 94 be 42 76 9f 3e b9 b4 80 be
       -0.104816854 -0.28991142 0.3114491 -0.2513788
000240 67 d6 62 bd bb 0e b8 3c 06 e3 99 bd f0 28 06 3e
       -0.05538025 0.022467962 -0.075140044 0.13101554
000250 b7 73 de bd 3c db 27 bd fd 9c 4a 3e fd 92 b6 bd
       -0.108619146 -0.040980563 0.19786449 -0.089147545
000260 38 f7 71 3d 47 c7 4a 3d 4c 7d 30 3e 3d 4a 42 3e
       0.059073657 0.049506452 0.17235297 0.18973632
000270 61 87 23 be 52 10 80 bb b9 84 d2 3d df b7 48 be
       -0.15969612 -0.0039081955 0.10279221 -0.19601391
000280 a0 a1 1b bd 71 7e ff bd 20 c0 e6 3d 81 ff 7f 3e
       -0.037995934 -0.12475289 0.11267114 0.24999811
000290 d3 d6 b1 3c dc 22 07 3d e9 6a b3 3b 94 74 1b 3d
       0.021708881 0.03299223 0.005475391 0.037952974
0002a0 5a eb 80 3d 27 28 f3 3d f3 8f 99 bd 0a d8 4a 3b
       0.0629489 0.11872893 -0.07498159 0.0030951523
0002b0 18 82 2f 3d 06 cf b5 3d f9 7f 88 bd ed 9e 18 bd
       0.042848676 0.08877377 -0.06665034 -0.03726094
0002c0 e0 fe 1e 3d 66 21 e9 3d 0f 03 a4 bc 6a 6c c9 3c
       0.038817286 0.11383323 -0.02002099 0.024587829
0002d0 01 c5 0b 39 30 3a 2a 3d 3c f4 12 3d 66 bf 04 3c
       0.00013329463 0.0415594 0.03587745 0.008102274
0002e0 02 76 b2 3d 0c 9e 8b bd c3 e9 1f be 85 61 14 3e
       0.087139145 -0.068172544 -0.15616517 0.14490326
0002f0 0b 25 0b 3e 20 c1 ee bd 1e 59 5e 3c c1 29 76 3d
       0.1358835 -0.116579294 0.013571052 0.060098413
000300 57 04 1a be f1 69 4f be d9 e0 07 3d 38 94 1d bd
       -0.15040718 -0.20255257 0.033173416 -0.03847143
000310 2b 17 dd 3d f0 97 0a be 49 77 ba 3d 63 62 ba bd
       0.107954346 -0.13534522 0.09104783 -0.09100797
000320 98 83 ba 3d f1 5d f4 3d fb 8d fa bc 6c 65 45 3d
       0.09107131 0.119319804 -0.03058528 0.048192427
000330 24 7c 21 be 3c 5a f9 3d ab f1 00 be b9 58 1a 3e
       -0.15770012 0.12175414 -0.12592189 0.15072908
000340 3c b7 fc 3d e5 fd af 3d ff f5 0b be 75 c5 c8 bc
       0.12339637 0.085933484 -0.13668059 -0.024508217
000350 25 c4 12 bc c3 71 70 3d c0 17 0c bd 58 d7 02 3e
       -0.008957897 0.05870224 -0.034202337 0.1277746
000360 8f 76 fd bd 40 f3 1e be 46 f1 13 bd 21 97 e4 bc
       -0.12376129 -0.1552248 -0.03611877 -0.027904095
000370 37 47 d3 3c b3 59 32 3e 34 f8 b9 3c c4 91 c6 3d
       0.025790794 0.1741703 0.02270136 0.09695771
000380 5f 3f fa bd f6 fe 0b be 1f a3 ee 3d 14 cb 87 bd
       -0.12219118 -0.13671479 0.11652207 -0.06630531
000390 37 8f 20 3e d5 ff 19 be f3 69 76 bc fc 7d 12 3d
       0.15679632 -0.15038998 -0.015039909 0.03576468
0003a0 2a 7f 23 be 0f bb 06 3d 41 bf e0 3d 2a dd 81 3c
       -0.15966478 0.032893237 0.10973979 0.01585253
0003b0 e7 21 57 be 44 df 69 3d a5 bd 8a bd d8 9e 74 3c
       -0.21009026 0.05709769 -0.06774453 0.014930449
0003c0 b5 c7 a0 bd cb 69 dd 3d 53 b1 03 3e 1a 5c 2b 3d
       -0.07850591 0.10811194 0.12860613 0.04183588
0003d0 e6 78 0e be 56 43 0f bd 4c 9b 99 3d 8c 0a c3 ba
       -0.13913307 -0.034976326 0.07500324 -0.0014880463
0003e0 a6 58 9c 3d 6a f4 dc bd f1 26 2b bd e8 29 e5 3d
       0.07634096 -0.10788806 -0.041785184 0.111896336
0003f0 b4 4e 6d 3d 19 ea 06 3d 4d 41 b7 bc 7a 7a 9f 3d
       0.057936385 0.032938097 -0.022370005 0.077870324

model.rnn.bias_ih_l0 f4 [160]
000000 32 7c 5c 3e b9 ab ad 3d 64 03 e5 bd 4f 96 32 3e
       0.21531752 0.08480019 -0.11182287 0.1744015
000010 03 a3 ad 3d b0 e5 46 3e b4 68 37 3e 9c c6 79 bd
       0.08478358 0.19423556 0.17911035 -0.060980424
000020 a5 e5 43 3e 3c 1c d9 3d 26 af 96 3d d1 31 4d 3e
       0.19130571 0.106010884 0.07357626 0.20038535
000030 ef 4b b2 bd bf 89 5b bc 94 f8 a5 3d fc 79 b7 3d
       -0.087058894 -0.01339954 0.08104053 0.089588135
000040 d8 20 23 3e 91 8f 8b 39 3e a2 4b 3e b5 f8 b5 3c
       0.15930498 0.0002661911 0.19886109 0.02221332
000050 2a 8b d5 3d 4f 00 1f 3d 72 61 19 bc 42 85 b7 3d
       0.10426934 0.038818654 -0.009361612 0.08960964
000060 b8 ba 6e bd d6 c1 c1 ba 99 13 24 3d d4 7f 0f be
       -0.058283538 -0.0014782499 0.040057752 -0.14013606
000070 21 c0 f9 3c ef 0c 3c bb 90 ed eb 3c 1d 48 1e bc
       0.030487122 -0.0028694232 0.028799802 -0.009660748
000080 8b 1f 56 3d ae 84 0a bd 64 22 c1 bc 0f 4a 50 3d
       0.052276175 -0.03381794 -0.023575969 0.050851878
000090 89 54 86 3e 3c 64 82 3c 3e 2f ee bc b6 ab 45 3e
       0.2623637 0.015916936 -0.029075261 0.19303784
0000a0 2e a0 35 3e 7b 67 07 3d d6 a8 59 3d 94 61 e5 b8
       0.17736885 0.03305767 0.05313953 -0.00010937746
0000b0 62 2e fa bd 15 48 e5 3d fb 0a df 3c 75 e7 34 bd
       -0.12215878 0.11195389 0.027226916 -0.044166047
0000c0 20 ff b6 3d 40 e5 25 3e 75 dd 06 bc 43 43 a0 bd
       0.0893538 0.16200733 -0.00823151 -0.07825329
0000d0 55 7b ab 3d b6 7b 48 bd 43 98 0c be 5e 7f 3a 3e
       0.08373133 -0.048946105 -0.13729958 0.18212649
0000e0 6a a0 0e be ad c2 c4 3d 88 95 e0 bc 2d 0e e5 3d
       -0.1392838 0.09607444 -0.027415052 0.111843444
0000f0 4f 13 1e 3e 71 7a 15 3e c3 5e 9c bd fb 89 0c 3e
       0.15437053 0.14597489 -0.07635262 0.1372451
000100 25 ad 78 be f9 17 6e 3c ef 25 92 bc 2b ab 9a bd
       -0.242848 0.014532083 -0.017840354 -0.07552179
000110 34 43 ff bb 09 a6 13 bc c8 3e f9 3d 82 a4 a4 3d
       -0.0077899937 -0.009011754 0.12170178 0.0803919
000120 36 18 90 bc b2 c1 ba bd ad 60 92 3d 76 37 18 3d
       -0.01758967 -0.09118976 0.07147346 0.037162267
000130 c6 84 a3 3d a6 f8 84 3c 48 39 a1 bd 45 7f fe 3d
       0.07984309 0.016231846 -0.07872254 0.124266185
000140 b0 80 b6 bd 86 ff a5 bd ea 24 c2 3d c2 7c 34 3e
       -0.08911264 -0.08105378 0.09479697 0.17625716
000150 e3 ba d6 3d 97 6d d3 bd 1e a7 96 bb ee 33 10 3e
       0.104848646 -0.10323637 -0.0045975586 0.1408231
000160 71 ac 4f be 02 87 d4 bd 27 ea cf 3d 8f a4 ab bc
       -0.20280625 -0.10377313 0.10152083 -0.020952491
000170 e8 95 38 3d 7c f5 e6 3d 45 07 f8 3d bb 99 a9 bc
       0.045064837 0.11277291 0.121107616 -0.020703187
000180 b7 e7 be 3d 57 0e 49 3c 82 9e be 3d 3d 4b 16 bd
       0.0932154 0.012271485 0.09307577 -0.036692847
000190 3a da 07 be d5 db 03 3d 46 82 eb 3d f6 c8 12 bd
       -0.1326684 0.03219207 0.11499457 -0.035836183
0001a0 22 f5 88 bd 94 af fc 3d db 63 e2 bd ca 36 93 3d
       -0.066873804 0.12338176 -0.11054202 0.071881846
0001b0 79 d7 d4 bd b5 86 fb bd d9 26 27 3e 9d 6a 29 be
       -0.10392661 -0.12281553 0.16323413 -0.16544576
0001c0 c9 0b 3e bd f4 60 25 be f0 b3 93 bd fd 26 ef bd
       -0.046397958 -0.16150266 -0.07212055 -0.11677358
0001d0 f7 74 22 3d 0e b8 2c 3c 75 9a 09 bc 29 bf 0d be
       0.039662328 0.010541929 -0.008398642 -0.13842453
0001e0 c5 bc be 3d 54 c0 18 bd d1 62 55 bd 1f e2 87 3d
       0.09313349 -0.037292793 -0.05209619 0.06634926
0001f0 94 fa 68 3c e1 bd 8b 3d 17 6d e8 bd d8 22 d8 bd
       0.014219899 0.06823326 -0.11348932 -0.10553521
000200 c5 4c 51 bd fd bb 52 bc ff 67 31 3e 9e 87 2f 3d
       -0.051098604 -0.012862203 0.17324828 0.042853944
000210 73 e2 11 3e 07 15 bd 3d cf 03 f5 bc 77 16 1c 3e
       0.1424654 0.09232526 -0.029909043 0.15242945
000220 1b cd 2b 3e fd 69 af 3d ce 62 14 3e d4 3b 8b 3a
       0.1677746 0.085651375 0.14490816 0.0010622689
000230 bb a9 03 bc fb a7 f3 3d cd 98 45 3e d0 b3 7f bc
       -0.008036072 0.11897274 0.1929657 -0.0156068355
000240 0e fe 7a 3e 06 0c 1e 3e fd 34 12 3d 36 6e dc 3d
       0.24510977 0.15434274 0.035695065 0.107632086
000250 22 d9 fc 3c 07 51 19 3e 10 e8 a2 3b 05 ec 17 3e
       0.030865256 0.14972316 0.0049715117 0.14836128
000260 f5 b2 be bd a4 b1 3f 3e 58 cb 17 3e 48 f1 99 bd
       -0.09311477 0.18720108 0.14823663 -0.07516724
000270 41 07 40 3e 2d a9 2d bd 1f 97 84 bd 3d a1 86 3d
       0.18752767 -0.042397667 -0.064741366 0.065737225

model.rnn.bias_hh_l0 f4 [160]
000000 5a 8e dd 3b 5e ea c0 3c 09 b8 e1 3d d6 46 96 3e
       0.0067613544 0.023549255 0.1102143 0.2935092
000010 83 87 df bd 07 af 4d 3e ad 5e 07 bd 47 50 81 3d
       -0.10914519 0.20086299 -0.033049274 0.0631414
000020 68 2b 91 3d 6c f0 38 3d ee ed 8b 3e d5 f3 13 bd
       0.07088357 0.04515116 0.27329963 -0.03612121
000030 8c 42 ca 3b 79 5f 96 bd 08 fb 3b 3e d0 75 41 3e
       0.006172484 -0.07342429 0.1835748 0.18892598
000040 21 bc b1 3d a6 d6 96 3d 43 24 83 3d a6 84 56 3e
       0.08678461 0.0736516 0.06403401 0.20949039
000050 e8 cc 57 3d 12 9e 90 ba 7c 24 ad 3d d5 8f b1 bc
       0.05268565 -0.0011033437 0.084542245 -0.02167503
000060 10 55 3a 3e e6 7f 0d 3d af 9c 7e 3e 6c d2 74 bd
       0.18196511 0.0345458 0.24864458 -0.059770986
000070 31 cd 24 3d d1 6b 67 3e 27 23 5d 3e 2b ce c5 3d
       0.04023475 0.22599722 0.21595441 0.09658464
000080 1f 93 7c 3e f6 59 40 3e 9e 0d b9 3d 88 28 6c 3b
       0.24665497 0.18784317 0.090358004 0.00360349
000090 9f 46 97 3e 50 52 a3 3c 34 14 03 3e 97 98 b3 3d
       0.29546067 0.01993671 0.12800676 0.087693386
0000a0 40 46 e1 3c 2f d6 0f be 97 08 cd bd f1 0d a1 3c
       0.027499318 -0.14046548 -0.10011404 0.019659968
0000b0 a2 cc 16 bd 6d 96 2f 3e 2f 59 fe bd 0c fb 10 3e
       -0.036816247 0.17147227 -0.12419354 0.14158267
0000c0 6d a9 c6 bc 2c 5b 47 bd 47 da af bd b3 60 d8 bd
       -0.02425071 -0.048670933 -0.08586555 -0.10565319
0000d0 94 db 80 3c cf 4a 60 bd d8 37 df bd 82 8f b2 bd
       0.015729703 -0.054758843 -0.10899323 -0.08718778
0000e0 a9 6e b4 3d 87 2c 84 bd 60 ae 8d bd d6 d8 be 3d
       0.08810169 -0.064538054 -0.06918025 0.09318702
0000f0 1a 61 e9 bd 66 ea 13 bd 0f d0 a8 3d 46 ae a4 3c
       -0.11395474 -0.03611221 0.08242809 0.020102631
000100 d3 40 78 be 64 07 13 be 8e 58 cc 3c 45 eb 0a 3e
       -0.24243478 -0.14358288 0.02494457 0.1356631
000110 6e a9 12 be d8 59 33 3d c1 87 06 be 4e 64 a6 bd
       -0.14322445 0.043786854 -0.13137724 -0.081246
000120 ac 1d 4f 3e c3 6d 22 bc d1 1c 2b bd 32 5a 9b bc
       0.20226163 -0.009913865 -0.04177553 -0.018963907
000130 d1 e8 fa 3d 4b 83 ff bd 8d 5a 3a 3e 69 dc 09 3e
       0.122514375 -0.12476214 0.18198605 0.13462986
000140 83 1d e0 bd 46 d3 e7 3d 88 e0 36 3d f8 57 dc 3c
       -0.10943129 0.11319594 0.044647723 0.026897416
000150 3b 03 09 be 49 07 ce 3d be 67 8c bd fe bb 66 bd
       -0.13380139 0.10059983 -0.06855725 -0.056331627
000160 41 9f 30 bd 23 c7 01 be b9 2d 3f 3d 53 2e 6a bc
       -0.043120626 -0.12673621 0.046674464 -0.014293271
000170 bd 59 44 be 2f 88 30 bd cb 4a 6c 3d 5c dc 0b bd
       -0.19174857 -0.043098625 0.057688516 -0.034145698
000180 a5 70 08 be 7c ba 74 bd a0 c1 4d 3e 12 42 3b be
       -0.1332422 -0.059748158 0.20093393 -0.18286923
000190 a6 9c 5d be ea a4 80 bd f9 5e 2d 3e 65 0b 02 be
       -0.21641788 -0.06281455 0.1693076 -0.12699659
0001a0 33 ed 85 3d fd bb 11 3e 9d 88 01 3e 51 56 8b bb
       0.06539383 0.14231868 0.1264977 -0.004252233
0001b0 1e 14 fb 3d 8d a0 42 3c 88 67 5c bd b9 02 00 3e
       0.122596964 0.011879099 -0.053809673 0.12501039
0001c0 ee 57 5f bd 42 73 00 be 1d 2c 03 3e 47 b6 55 bd
       -0.054527216 -0.12543967 0.12809797 -0.052175786
0001d0 3a 22 07 be a2 93 9e 3d 6e 85 77 bd 26 9d d6 bc
       -0.1319665 0.077430025 -0.060429983 -0.026197981
0001e0 13 9c 71 bd 8b fb 2d 3e a9 e6 ab 3d 30 ad 69 3d
       -0.058986735 0.16990487 0.08393604 0.05704993
0001f0 6f 05 cf 3d 96 13 a2 bd df ce 23 3e 20 7e 11 3e
       0.10108458 -0.07913892 0.15996884 0.14208269
000200 9d 25 4b 3d cc 47 4a 3e 3d 7a 81 3c 46 48 fc 3d
       0.049596418 0.19753951 0.015805358 0.123184726
000210 93 8f ec bd 87 01 2b 3d b3 f0 d8 3d 81 22 03 3e
       -0.11550822 0.041749503 0.10592785 0.12806131
000220 14 58 43 3e 93 d2 b6 bb 12 46 58 3e e1 10 cb bb
       0.19076568 -0.0055793016 0.2112048 -0.0061970805
000230 0c 87 de bc 78 60 92 bc 02 46 83 bc ea b6 c0 bd
       -0.027164005 -0.017868266 -0.016024593 -0.09409888
000240 7e e4 28 3d fb e7 b7 bd 86 17 77 3e cf 7c d5 3d
       0.041233532 -0.08979794 0.24130067 0.10424196
000250 9b 99 1c 3e 9a 4b d9 bc 51 db 0a 3e cc 1d dc 3c
       0.15292971 -0.026525307 0.13560225 0.026869677
000260 66 07 c2 bd 6b 15 14 bd 95 d4 5b bd 69 8f ac 3d
       -0.094740674 -0.03615324 -0.05366953 0.08425791
000270 36 8c 7f 3d 58 f4 51 3e 68 26 d9 3d 89 66 c0 3d
       0.062389575 0.20503366 0.106030285 0.09394557

model.rnn.weight_ih_l1 f4 [160, 40]
000000 20 4d bf bc 98 15 02 3e 57 68 0c 3d df 54 ba 3d
       -0.023352206 0.1270355 0.034279194 0.09098219
000010 26 d5 d1 bd 85 67 49 be ce 0f 90 3d 4d 03 03 be
       -0.10245733 -0.19668396 0.070342645 -0.12794228
000020 b2 8b 18 3d a3 ea c4 bd ba f1 c0 3d a3 0f ff 3c
       0.0372426 -0.09615066 0.09421106 0.031135386
000030 c7 3b af bc 3c df 02 3e 41 0f 8f bd de 43 fb bd
       -0.021390809 0.1278047 -0.06985331 -0.12268804
000040 33 5d 9a 3d a2 53 62 3d fa ba 07 bd 28 ec 04 3d
       0.075373076 0.05525554 -0.0331373 0.03245178
000050 6f e9 9b 3d d9 bf b0 bc 87 9d 39 3e b7 21 39 be
       0.07612883 -0.021575855 0.18126498 -0.18079267
000060 80 83 4f 3c 66 f4 5f bd 55 fa d5 3d c2 5d 38 3d
       0.012665629 -0.054676436 0.10448138 0.04501129
000070 d6 cc ba 3d 64 2d a1 bb 97 f9 0b 3e c3 cd b2 3d
       0.091211006 -0.004918741 0.1366943 0.08730652
000080 cd 71 ab 3c 41 b0 1b bd c4 43 17 3b ee d8 63 bd
       0.020928288 -0.038009886 0.0023081163 -0.055626802
000090 10 53 98 bd 31 fb 0a be ec 2b 3d 3d cf fd e2 bd
       -0.07437718 -0.13572384 0.046184465 -0.110835664
0000a0 a4 01 11 be 96 1c c1 bd f8 cb d5 bd d8 95 53 be
       -0.14160782 -0.094292805 -0.104392946 -0.2066263
0000b0 b6 93 1b be 3f 4d 03 be 49 c8 04 be 59 09 9d 3d
       -0.15193066 -0.12822436 -0.12967028 0.076677985
0000c0 7d 9f ae 3d 4c 57 99 bc e5 70 aa bc 96 10 34 bd
       0.08526514 -0.018718384 -0.020805785 -0.04396113
0000d0 04 a9 7f 3d 9c f2 be 3c 45 dd 9b 3d 23 45 b3 3d
       0.062417045 0.023309045 0.07610563 0.08753421
0000e0 f7 67 ac 3c 44 fc 0f be fd 24 c8 bd 11 96 5e 3c
       0.021045668 -0.14061075 -0.0977268 0.013585583
0000f0 08 ef cd bd 82 08 be 3c 91 c1 61 3d 1d 88 eb bc
       -0.10055357 0.023197416 0.05511624 -0.028751427
000100 3e b2 f8 bd 7b 91 c5 bc 29 e5 eb bc 41 98 bc 3d
       -0.12143372 -0.024117222 -0.028795796 0.09208728
000110 01 b3 2f 3e 3b 73 ea bd d8 dd aa 3d 70 f8 a5 3c
       0.17158128 -0.1144776 0.083430946 0.020260066
000120 27 aa 77 3e bf 5a 27 3e 29 4e e5 bd 2e fa 93 bc
       0.24186002 0.1634321 -0.111965485 -0.01806363
000130 77 67 73 be 98 99 5c 3e 7b 13 ae bc 12 50 2d be
       -0.23769937 0.21542966 -0.021249523 -0.16925076
000140 9f 76 54 3d 53 3b 15 3b 27 c4 dd 3d 76 92 a3 bd
       0.05187094 0.0022770956 0.10828429 -0.079869196
000150 ee 7f 55 bb cf 83 fc bd 39 6c bd bd c3 ad 1c 3e
       -0.0032577473 -0.12329828 -0.092491575 0.1530066
000160 1c 0b 94 be 4f 5f 84 3e b6 8f 86 3e e4 5a d1 bb
       -0.28914726 0.25853965 0.26281518 -0.006389009
000170 b0 15 46 be a9 f0 83 3d c2 81 57 3e 14 8d 34 be
       -0.1934421 0.06442387 0.21045592 -0.17631942
000180 ed 1a 73 3e c8 76 92 3a aa 9c ed 3d 14 1f 5c be
       0.2374074 0.0011174316 0.11602147 -0.2149623
000190 f5 14 0d be 49 6c 5b be 45 20 22 3e a8 4e 97 3c
       -0.13777526 -0.21428026 0.15832622 0.018470123
0001a0 ea cb 97 bc 89 09 a9 3d 9f 37 05 be a1 75 54 3d
       -0.018529851 0.08253772 -0.13009499 0.051869992
0001b0 de 59 04 be 1f 81 39 be 84 54 4e 3d 68 5d ea bd
       -0.12924907 -0.18115662 0.05037357 -0.11443597
0001c0 01 10 b2 bc e1 f4 c3 3d 7c 24 07 3c 89 22 57 3d
       -0.021736147 0.09568191 0.008248445 0.05252317
0001d0 6c 13 67 be ca 9a 88 3b e2 b9 f4 3d e3 71 52 be
       -0.22566003 0.004168843 0.11949517 -0.20551257
0001e0 76 28 9b 3d fd d6 5c 3c 0e 2f c7 bd c6 7e 19 be
       0.07576077 0.013478992 -0.09725772 -0.14989766
0001f0 09 26 1d bd c6 af 0c bd 47 23 80 3d 5c 7b 26 3d
       -0.03836635 -0.034347318 0.062567286 0.04064499
000200 dd e9 94 3c 33 0b 0f be b9 83 80 bd 09 34 00 be
       0.018177921 -0.13969116 -0.06275124 -0.1251985
000210 a2 1f 18 3e 4e 46 21 3d 32 60 ff bd 85 16 98 3d
       0.14855817 0.03937369 -0.1246952 0.0742617
000220 28 95 e1 3d 22 e2 8c 3d 3b 56 96 bc 32 fd 8d 3d
       0.110147774 0.06879069 -0.018351665 0.06933059
000230 63 73 fa 3d 61 a5 2d bd f6 c8 2e be 98 5a 24 3e
       0.122290395 -0.042394046 -0.17068848 0.16050184
000240 82 94 9b 3d fa f6 d2 bd eb cd cc bd 3a 20 8c bc
       0.07596685 -0.10301013 -0.10000213 -0.01710521
000250 f8 e1 3e 3d fd 8c 83 be 02 d6 8b bd 19 b4 b0 bd
       0.04660222 -0.25693503 -0.06827928 -0.08628101
000260 cc 55 c5 3d 59 7a 02 be 8e a4 09 be 2c 7f c0 bd
       0.09635505 -0.12741984 -0.13441679 -0.09399256
000270 c8 eb 94 bc a5 f7 3e 3d e1 4c 34 be ea 66 1f 3e
       -0.018178836 0.04662289 -0.17607452 0.15566602
000280 1e 12 d0 3c a6 94 18 be 78 b3 43 3e 93 95 79 be
       0.025399264 -0.14900455 0.1911143 -0.24373464
000290 62 7c bc bd a2 75 39 be b9 47 36 3c 6c e6 87 3d
       -0.09203412 -0.1811128 0.011125498 0.06635746
0002a0 9f 49 1b be fa af ef 3d 3f ea 0b 3e 46 73 3a 3b
       -0.15164803 0.11703487 0.13663577 0.0028450056
0002b0 27 48 16 be f3 ec f6 bd 84 e2 36 3e 77 6d ef bd
       -0.14675961 -0.12056913 0.17859846 -0.11690801
0002c0 27 1e f4 3c 7c 72 18 be b4 36 af 3d 7b 7c da 3c
       0.029799534 -0.14887422 0.08555356 0.026670685
0002d0 bc 3e 55 be dd 70 00 be 88 ec 58 3e 6d 6c 8c 3a
       -0.20824713 -0.12543054 0.2118398 0.0010713466
0002e0 2d be 7a 3d ef 23 8e bd 47 27 32 be 76 a0 8a 3d
       0.061216522 -0.069404475 -0.17397796 0.06768887
0002f0 b9 ad b1 bd 60 ee b5 3c e8 7f 4d 3e 23 5b 02 be
       -0.08675713 0.022208393 0.20068324 -0.12730078
000300 09 0f e8 3d 01 07 92 3d 67 de 99 3e f4 57 60 3d
       0.11330993 0.07130242 0.30052492 0.05477138
000310 85 10 b8 bd 68 f0 56 3e d6 f8 32 3d 70 14 4d be
       -0.08987526 0.20990145 0.04369434 -0.20027328
000320 06 53 52 bc a5 b3 33 be b4 63 59 3e 0f 2b ee 3d
       -0.012837177 -0.17548998 0.2122944 0.116293065
000330 64 8d b3 bc 95 bb 9b 3d b1 57 04 be 46 16 9f bb
       -0.021918006 0.07604138 -0.12924077 -0.00485495
000340 86 22 82 3c 3f 89 ab bc da 60 15 be b3 36 7b 3d
       0.015885603 -0.020939467 -0.14587727 0.061331462
000350 9a f3 a1 bb d0 40 a5 bd ed e6 38 3e 18 c9 b7 3c
       -0.0049423696 -0.08069003 0.18056841 0.022434756
000360 c8 68 82 bd 5f b0 e7 3d ce 21 5b 3e c0 af 13 be
       -0.06367642 0.11312937 0.21399614 -0.14422512
000370 f2 bb 64 3d 58 e1 9a bc 58 31 4f 3e 1a 5b 1c be
       0.0558433 -0.01890628 0.20233667 -0.15269127
000380 8a b7 0d 3d 71 f4 18 3d c1 86 23 3d 5a af 39 3d
       0.034598865 0.037342492 0.039923433 0.045333244
000390 8c 68 37 be fd a5 ac bd 61 bf 4d 3e b1 20 3e be
       -0.17910975 -0.08430097 0.20092537 -0.18567158
0003a0 d3 3b 15 be ca 81 06 3d fa d2 58 bc ed 6c 49 3e
       -0.14573602 0.03283862 -0.0132338945 0.19670458
0003b0 07 a4 aa 3d 61 04 4b bd 72 9f 90 3d 03 1f 48 bd
       0.08332067 -0.049564723 0.07061662 -0.0488577
0003c0 ed e3 da bd b0 bb ff bc 22 02 4f 3e 42 59 c0 be
       -0.10688005 -0.031217426 0.20215657 -0.37568098
0003d0 9b 54 3f be 6c c0 1c be 19 df 8e bd 72 6d c4 bc
       -0.18684618 -0.15307778 -0.06976146 -0.023977969
0003e0 a5 7a d1 bd a4 5a 71 3e 7f a3 d8 3c b3 4f 15 bd
       -0.10228471 0.23569733 0.026445149 -0.03645296
0003f0 5f c2 3d be 2b cb e4 bd 78 36 9a bc 25 6e 73 be
       -0.18531178 -0.11171564 -0.0188248 -0.23772486

model.rnn.weight_hh_l1 f4 [160, 40]
000000 5f 71 92 3d 5b b8 f0 bc 09 46 ec bc bc c5 f5 bd
       0.0715053 -0.029384783 -0.02884199 -0.120006055
000010 ee 13 58 bd e2 fc fc bc 3f 86 f8 3d b5 2a bf 3b
       -0.05275338 -0.030882303 0.121349804 0.0058339485
000020 bf 78 0b 3d 51 66 69 bd b4 91 3d bc 18 ab 9f bd
       0.0340507 -0.056982342 -0.011570383 -0.077963054
000030 0d 7e 0d be e9 69 d3 3d 65 cd 4c 3d 96 d8 ef 3b
       -0.13817616 0.10322935 0.050000567 0.00731952
000040 55 66 18 3e 22 69 e2 bd 25 7b 7e bd f9 c6 15 bb
       0.14882787 -0.11055209 -0.06212916 -0.0022854193
000050 33 fc 24 be c0 4c 9a 3d 83 d9 6d 3d 8b cc db bc
       -0.16111831 0.0753417 0.058068763 -0.026830932
000060 f9 ff e0 3c 2e da 22 3e 94 a7 07 bd 8f 7a 0c bd
       0.027465807 0.15903541 -0.0331188 -0.03429657
000070 74 5d 3e 3e 4f 0d dc 3d cf 66 bb 3c a8 de 5e bd
       0.18590337 0.10744726 0.022876171 -0.05441156
000080 b0 de 58 3d 83 ae 7e bd 68 95 6c bd 17 f9 7a bd
       0.052946746 -0.062178146 -0.057759672 -0.061272707
000090 eb 7b 03 3e 0b 08 81 3c f9 af e2 bd a1 37 25 bc
       0.1284024 0.015750905 -0.1106872 -0.010084064
0000a0 ef fc 3f 3d 07 e2 c1 bd ab f8 9f bd 55 a0 b0 3d
       0.046872076 -0.094669394 -0.078111015 0.08624331
0000b0 8a 2b bc bd 64 d7 f5 bd 45 82 02 3e 3c f4 3f bd
       -0.09187992 -0.12003973 0.12745006 -0.04686378
0000c0 89 3b 03 3e 30 71 75 3d 76 ee 08 be 8c ff 6b 3d
       0.1281568 0.059922397 -0.13372216 0.057616755
0000d0 9b d9 1b bd 65 02 02 be 23 c1 18 bb f5 3e 49 bd
       -0.03804932 -0.12696226 -0.0023308478 -0.049132306
0000e0 25 c0 6f bd 43 63 33 3e 9a a0 e2 bc 90 7e 0b be
       -0.058532853 0.17518334 -0.027664471 -0.13622499
0000f0 37 62 ce 3c 44 6a a3 bd 47 3e 47 3c 21 e1 18 3c
       0.025193317 -0.07979253 0.012160844 0.009331019
000100 22 55 90 3d d0 c2 fc 3d 09 11 c0 bd 4a d6 4d be
       0.07047488 0.12341845 -0.09378249 -0.20101276
000110 df d9 bb 3d ad 8a 99 bd 54 5d f2 bc fc 26 44 3d
       0.09172415 -0.074971534 -0.029585518 0.04788874
000120 1d 89 dc 3c 75 90 56 3c d3 ba d9 3d 78 25 ff 3d
       0.02692085 0.013095965 0.10631337 0.124583185
000130 fc b6 99 3d 42 52 55 bd 64 37 29 be 79 31 1f 3d
       0.075056046 -0.0520804 -0.16525036 0.03886554
000140 f2 b4 9f 3c 67 17 27 be 62 9e b8 bd 4a b6 1c be
       0.019495461 -0.16317521 -0.09014584 -0.15303913
000150 99 0f 3b 3d 46 27 24 bc 67 29 09 3e 57 97 c2 3d
       0.045669172 -0.010019129 0.133947 0.09501522
000160 26 c2 34 be dc c1 ba 3d 0d 26 f5 3d 57 62 a2 bd
       -0.17652187 0.09119007 0.11970148 -0.07928913
000170 e0 14 55 bc f3 fa fe bd e2 7f bf 3d 49 5b 44 3d
       -0.013005465 -0.124502085 0.093505636 0.04793862
000180 3b 9b e6 bd ab ec f3 3c 66 7c 74 3d 26 99 b4 bd
       -0.112600766 0.029775938 0.059688948 -0.08818273
000190 80 d7 02 3e 4d 5f cc bd 81 d6 32 3e 6f 1e 58 3c
       0.12777519 -0.09979115 0.17464639 0.01319085
0001a0 60 83 86 bd 90 67 68 bb 2f f0 f3 bc 0d 00 e9 bd
       -0.065680265 -0.0035462119 -0.029777614 -0.11376963
0001b0 f1 88 89 3d d0 8d 83 3c 80 77 9d bd c5 42 e8 3d
       0.067155726 0.016058832 -0.076888084 0.1134086
0001c0 9c ec 2a 3e 31 61 67 bc c4 cd 3a bd 11 b6 3c bd
       0.16691822 -0.014122293 -0.04560639 -0.04607207
0001d0 94 a5 a9 3c 18 55 1e be 2c ab 33 be 53 d5 0d bc
       0.020708837 -0.15462148 -0.17545766 -0.0086568175
0001e0 41 a2 04 be 2d 83 24 3c 87 69 03 3e 20 44 e0 bd
       -0.1295252 0.01004104 0.12833224 -0.10950494
0001f0 1e d0 e8 bc 9d c8 42 3e b2 b3 d8 bd f1 01 33 3d
       -0.02841955 0.1902184 -0.10581149 0.043703023
000200 31 ea 34 3d 17 06 9d 3d eb dc fd 3d d4 70 55 bd
       0.044168655 0.07667177 0.123956524 -0.052109554
000210 60 3a 84 bd e4 b0 29 be fc a7 1f 3e f5 85 6a 3d
       -0.06456447 -0.16571385 0.15591425 0.057256658
000220 d1 ae ed 3d b0 ff d5 bd 9c a8 24 be b6 57 7d 3d
       0.11605609 -0.10449159 -0.16079944 0.061851226
000230 fa 4b 5d 3d 69 d8 b3 bd 34 c1 86 3d 5b 36 e2 3c
       0.054027535 -0.08781511 0.06579819 0.02761381
000240 7b 5c 14 3e a0 24 1b bd e4 f7 93 3c 4f f7 bc bc
       0.14488403 -0.037876725 0.01806254 -0.023067145
000250 5d 7b 95 3d de b1 ad 3d 6c a2 af 3d 5f 4a 1b 3d
       0.0729892 0.08481191 0.085759014 0.037912723
000260 fa be 74 3d fb ac dc bd 6b fe 09 be cc 5b dc 3d
       0.059752442 -0.10775181 -0.13475959 0.10759696
000270 9c a9 7e bc 10 e3 70 3d 5f 3e 26 be 3b 0f 30 3e
       -0.015543368 0.058810294 -0.1623473 0.1719331
000280 2a d6 de 3d 5e 57 26 bd 03 2b 74 3d 2d 21 1b bd
       0.10880692 -0.040610664 0.05961133 -0.037873436
000290 6d 57 f1 3d b6 76 03 bc fe e9 0a bd 03 2a 14 be
       0.11784253 -0.008023908 -0.03391456 -0.14469151
0002a0 ce 99 15 3d 84 16 52 bc c4 81 3b 3e 7d 82 89 3d
       0.036523633 -0.012822751 0.1831122 0.06714342
0002b0 77 45 1c be ac 2d 11 3e de 85 eb 3d af 9e 83 3d
       -0.15260874 0.14177579 0.115001425 0.06426751
0002c0 93 45 d7 3d 50 fa f4 3d 51 a0 01 be a9 7c f3 bd
       0.10511317 0.11961806 -0.12658812 -0.118890114
0002d0 47 6a 8c 3b 84 17 1f be 73 4e 00 be e4 5c 19 bd
       0.00428513 -0.15536314 -0.12529926 -0.037442103
0002e0 c3 7c e9 3d 91 fb 4f 3d 63 d5 4c 3e e9 71 95 bd
       0.114007495 0.05077702 0.20003276 -0.07297117
0002f0 5a 71 ff bd 21 36 af 3d 17 9e 01 3e 82 dd 2b 3e
       -0.12472792 0.08555246 0.12657963 0.16783717
000300 76 b3 84 3d 62 53 cc 3d 2e 67 6f bd e3 1b ab 3d
       0.06479542 0.099768415 -0.05844801 0.08354928
000310 6f 81 05 3e 2d e9 a7 3d 82 27 79 bd 82 8c 8b bd
       0.13037656 0.081987716 -0.060828693 -0.06813909
000320 9d e3 05 3d 62 e3 39 bd a6 98 04 3d d2 28 48 be
       0.032687772 -0.045382865 0.03237214 -0.19546822
000330 1c 7a 0b 3b 6e b5 54 3d d2 89 fa bc c8 3d a7 3d
       0.00212825 0.051930837 -0.030583296 0.08166081
000340 21 f8 0f 3d 36 45 1d 3e 28 18 61 3e bf f0 80 3d
       0.035148744 0.15358433 0.21981871 0.06295919
000350 fd a2 28 3d 7f 07 66 3d 3c 84 34 be 01 95 3f 3e
       0.041171063 0.056159493 -0.17628568 0.18709184
000360 fd 17 78 3e 60 ff 49 be b6 72 37 3c 24 b2 c0 bd
       0.24227901 -0.19726324 0.011196783 -0.09408978
000370 0b 99 5a be 04 f8 09 be 52 58 94 bd ff d1 9d bc
       -0.21347444 -0.13473517 -0.07243408 -0.019265173
000380 0a e7 04 be 15 f3 8d bd 16 ad b5 3b 69 85 9d 3d
       -0.1297876 -0.0693113 0.005544315 0.076914616
000390 9a 3e a8 bd 8e 6e 22 3d a2 02 f9 bd cb 85 4c bc
       -0.08215065 0.039656214 -0.12158705 -0.012483071
0003a0 23 0a 8c 3c 3b 57 56 3d 7a 2e 37 bd 50 ac 15 bd
       0.017094677 0.052329283 -0.044722058 -0.036541283
0003b0 c0 f6 4c 3d 79 58 7e 3d d0 12 99 bd 8a aa f8 bd
       0.050040007 0.062096093 -0.07474291 -0.12141903
0003c0 0d 88 85 3d 88 e2 1f 3c 9b 73 2b 3e 60 c6 3d 3c
       0.0652009 0.009758599 0.16743319 0.011582941
0003d0 86 1c 67 3d 74 67 45 3d 30 a2 07 3d 71 0a 8d 3d
       0.056423686 0.048194364 0.03311366 0.06886757
0003e0 4a ce 4a be 75 96 a6 bd 03 73 8e bc c0 9b 05 be
       -0.19805256 -0.08134166 -0.017388826 -0.13047695
0003f0 4a b8 14 be ff 08 14 3e 1d 98 a4 3d e2 48 71 bd
       -0.14523426 0.14456557 0.08036826 -0.058907397

model.rnn.bias_ih_l1 f4 [160]
000000 17 a3 ce 3d 20 bd 04 be 72 2d b8 3d d6 4f 9c 3d
       0.10089701 -0.1296277 0.08993043 0.07632415
000010 3e bc 4f 3e 0a 56 a2 3d ae b1 21 3e e0 95 cc bd
       0.20286652 0.07926567 0.15790436 -0.09989524
000020 5c 82 6c 3e 5e 48 a4 3c ec 84 43 3e 31 b7 eb 3d
       0.23096603 0.020054039 0.19093674 0.1150955
000030 0d fa 9b 3d 33 30 03 3e 65 03 bc bd 45 d3 9e bd
       0.07616053 0.12811355 -0.09180335 -0.0775514
000040 b6 66 b8 bd ed d3 bd 3d e0 b4 8c 3d 1e a1 73 3d
       -0.090039656 0.09268937 0.06870437 0.059479825
000050 b6 99 18 3e 5d ca 06 3d c2 30 a7 bc 1f cc 4e 3e
       0.14902386 0.032907832 -0.020408992 0.20195054
000060 ca c4 31 3e b6 55 ea 3d 35 62 61 3e 3b bb f5 3d
       0.17360225 0.11442129 0.2201012 0.11998602
000070 cb b4 6f 3d 69 82 05 bd ba 42 29 bc c0 41 26 3e
       0.058522027 -0.032595072 -0.01033085 0.16236019
000080 d8 94 a7 3d 51 4e 38 bd 2f 45 1b be 46 b9 07 bc
       0.081826866 -0.044996563 -0.1516311 -0.008283919
000090 73 fd 9e 3d 5b 0e 1f 3d ca 88 de bd 62 ea 7e bc
       0.07763185 0.03883205 -0.10865934 -0.015558811
0000a0 e4 2b c3 bd 5f 36 c3 3d 66 34 59 bc 46 70 92 bd
       -0.09529856 0.09531855 -0.013257122 -0.07150321
0000b0 a8 23 96 bd e7 9d 59 bd a3 08 02 3e b7 96 c6 bc
       -0.0733102 -0.053129103 0.12698607 -0.024241788
0000c0 2b 50 b8 3d a4 72 cf bd 95 c1 e9 bb 49 de 67 be
       0.08999666 -0.10129288 -0.0071336725 -0.22643389
0000d0 d6 bd 07 3e c1 da 08 be 16 2c 35 3e 7b 84 a5 bc
       0.1325601 -0.13364698 0.17692599 -0.020204773
0000e0 28 4e 9c bd 62 2f f7 3c d5 4c 1f be 19 20 f3 bd
       -0.076320946 0.030173961 -0.15556653 -0.118713565
0000f0 a8 7c 99 3d ce d0 e8 bd 6c cb 2e 3c 2e 04 f7 bd
       0.074944794 -0.11367951 0.010668617 -0.12061344
000100 1f 72 da bd 51 85 6d 3d 18 85 93 bd 31 d2 26 be
       -0.10666298 0.05798847 -0.0720312 -0.16291119
000110 a6 06 31 bc e7 cd 44 bd f4 95 91 bd 4f 55 ef bd
       -0.010804808 -0.048047926 -0.071086794 -0.11686193
000120 7f a9 16 3e 07 23 44 bd d2 0b 29 be 93 95 50 3e
       0.14713095 -0.047884967 -0.16508415 0.20369558
000130 cb 1d 9d 3d 4e b8 20 3e 1f 02 fc 3c 60 ae 49 bd
       0.07671698 0.15695307 0.03076273 -0.049238563
000140 ed ab 65 3d aa 4b 1c be d9 63 3c 3e 17 98 82 bd
       0.056072164 -0.15263239 0.18397464 -0.06376665
000150 5b ab b7 bd 1e be 96 bd fa dd f8 bd f3 99 ca 3d
       -0.0896823 -0.07360481 -0.12151714 0.09892645
000160 0d d7 1b be 77 49 b4 bd f0 f9 19 3e 4c a2 13 3e
       -0.15218754 -0.08803075 0.1503675 0.1441738
000170 22 df 21 be 3b 75 35 3e 87 d2 11 3b 11 8d 1d 3d
       -0.15807775 0.17720501 0.0022250728 0.03846461
000180 ae 37 7d 3c 47 b2 6a bc 4a 08 2f be dc d0 c8 bb
       0.01545517 -0.014324731 -0.17093006 -0.0061284136
000190 e6 da 51 bd 31 07 07 be 97 90 f9 3b 47 32 31 bd
       -0.05123415 -0.13186337 0.0076161134 -0.04326084
0001a0 3a ce 9a 3d 55 cd 1d be fd ef ab 3d a4 ea 07 3d
       0.07558866 -0.15410359 0.083953835 0.033182755
0001b0 b3 18 d0 bd 6c 29 24 be 5f 09 87 bd b3 a7 35 bd
       -0.10160961 -0.16031426 -0.06593584 -0.044349384
0001c0 6a 13 ca 3d 2b 88 b7 bd 2e ed ea 3d df 61 a0 3b
       0.09866984 -0.08961519 0.1147102 0.0048944796
0001d0 70 f1 5a 3d a3 c5 c1 bd 23 22 cb bd 4d be 93 bc
       0.05345291 -0.09461524 -0.099186204 -0.018035078
0001e0 b6 70 57 bd 62 74 ec bd fb 29 14 bd d8 70 73 3d
       -0.052597724 -0.11545636 -0.03617285 0.059433788
0001f0 59 84 9a 3d b4 2f 9e bc dc 69 8a bd d4 8d 14 bd
       0.075447746 -0.019309856 -0.06758472 -0.03626807
000200 7d 42 4c 3e 59 c4 9e 3d 1a 65 8e bd b1 23 85 3d
       0.19947238 0.07752294 -0.06952877 0.06500948
000210 48 50 c4 bd b0 50 0e 3e 66 d4 de bd 49 c7 0f be
       -0.09585625 0.13897967 -0.108803555 -0.14040865
000220 80 07 e9 bd 2b 6d 8a 3d 05 e0 e6 bc 55 6d 20 3d
       -0.11378384 0.067591034 -0.028182993 0.039166767
000230 25 7c 9c bd e3 37 11 bc b1 28 f0 bc f6 5e 60 3e
       -0.07640866 -0.008863422 -0.029316278 0.21911225
000240 22 cf 71 bd f1 0b eb bc 85 b4 5c 3c d6 e2 9a 3d
       -0.059035428 -0.028692218 0.013470774 0.07562797
000250 8a 3f ed 3d 90 56 58 3e 23 83 00 be 74 68 96 bd
       0.11584385 0.21126771 -0.12550025 -0.073441416
000260 ff bc e8 bc 5b b1 8b 3c 73 37 1d be 3d 06 da bd
       -0.028410433 0.017052343 -0.15353183 -0.10645721
000270 fc 25 59 3d 4c fc b8 3c 9a 55 c1 bd 00 07 4e bc
       0.05301474 0.022581242 -0.09440155 -0.012574911

model.rnn.bias_hh_l1 f4 [160]
000000 8e c7 00 3e 48 22 2f 3e 74 e8 26 3d d0 b6 5b 3d
       0.12576124 0.17102921 0.04074903 0.05364114
000010 9c 5d 45 3d ea c4 d4 3d a8 35 54 3e 39 45 60 3d
       0.048184976 0.10389121 0.20723593 0.054753516
000020 fc 7d 42 3e 53 9a 86 bd 03 da 74 3e d9 76 81 3e
       0.18993372 -0.06572404 0.2391129 0.25285986
000030 3d b3 27 3e f1 e5 e1 3d 15 17 b6 bd 65 52 2e 3e
       0.16376968 0.11030186 -0.08891121 0.17023619
000040 ba a6 90 3d a5 b4 f1 3d 7b 3a 9f 3d ca 28 f7 bd
       0.070630506 0.11802033 0.07774826 -0.12068327
000050 d1 83 17 3c 23 65 a4 bd e4 7f fc 3d ec 64 e7 bb
       0.009247736 -0.08027103 0.12329081 -0.0070615914
000060 6a 76 4a bd 7d df f1 3d 3a 34 66 3d 0b 83 61 bd
       -0.049429335 0.11810205 0.05620215 -0.055056613
000070 09 f3 25 3e c5 59 d9 3d 48 3f 88 3d 94 90 4c 3e
       0.16205992 0.10612825 0.06652695 0.19977027
000080 20 21 25 3e d3 9f 02 3e 73 f8 0c 3e bc 71 34 3d
       0.16125917 0.1275628 0.13766651 0.044053778
000090 77 d4 07 3d 77 26 90 3d 9e dd 36 3e a2 05 a5 3d
       0.033161607 0.070385866 0.17857978 0.08057715
0000a0 32 1e 09 be 90 fe c1 bd ae a0 19 3e ac e0 7b bd
       -0.13390425 -0.09472382 0.150027 -0.06149356
0000b0 d2 b9 c5 bd f8 29 c5 bd f8 38 dc 3d f6 59 e9 3d
       -0.09654583 -0.096271455 0.107530534 0.11394112
0000c0 e1 96 ca bd 41 1b 82 bc 83 d2 de 3d f1 ce e3 bd
       -0.09892059 -0.015882136 0.10879996 -0.11123455
0000d0 f1 7f df bd 64 dc 54 bd 8f 8a 9a 3c 83 27 10 3e
       -0.10913075 -0.051967993 0.018864898 0.14077573
0000e0 b8 e5 a7 3d ab 89 2d 3b cf 00 8e bd b0 59 29 bc
       0.08198112 0.0026479762 -0.06933748 -0.010336325
0000f0 c2 1a e3 bd 6d 85 0a 3e c8 a2 ea bc 35 34 86 3d
       -0.11089088 0.1352746 -0.028642073 0.065529265
000100 6d 45 27 3e b9 5b 54 bd 4c a4 35 3e 48 e3 ba 3d
       0.16335078 -0.051845286 0.17738456 0.09125382
000110 9f 6c 4c bb f6 b3 56 3d 65 a4 9c bd 51 27 6e bd
       -0.0031192673 0.052417718 -0.07648543 -0.058142964
000120 8a a9 a1 bd 7d e1 7d 3d b9 4c 68 bd 8d 9b 81 3d
       -0.07893665 0.06198262 -0.056713793 0.06328497
000130 4c 27 6f bd 7b 90 ce bd 3d c6 f6 bc 19 e1 47 bd
       -0.058387086 -0.10086151 -0.030123824 -0.048798654
000140 93 06 b5 bc f8 d1 97 bd 9f c9 de bd 89 fb 01 be
       -0.022097861 -0.07413095 -0.108783 -0.1269361
000150 61 2d 3f 3e 35 9e e9 3d 5a 8b f6 bd ed 40 88 bc
       0.18669654 0.11407129 -0.12038298 -0.016632522
000160 47 3e 1b be 18 9f 3b 3d 8f f1 18 bc 1d 43 22 3e
       -0.15160476 0.04580602 -0.009334936 0.15845914
000170 ea 0d 4d be 6a 74 df bd ab ef b5 3d 2b d1 00 3e
       -0.20024839 -0.10910876 0.08883604 0.12579791
000180 25 cb 30 bd ed ff aa bd dc 06 2a 3c f5 37 02 3d
       -0.043162484 -0.08349595 0.010377612 0.031791646
000190 89 d2 d6 bb 62 f0 d4 3d ce c9 e6 3d 68 c6 1a bd
       -0.0065558595 0.10397412 0.1126896 -0.03778687
0001a0 09 94 6d be 66 47 15 3d 68 77 85 3d 5c 4f 22 bd
       -0.23201002 0.036445044 0.065169156 -0.039626464
0001b0 6a 5d b6 3d f9 2b af bc 2a 85 f6 bd 23 d7 91 3a
       0.08904536 -0.021383272 -0.12037118 0.0011126738
0001c0 80 3d 05 bd 14 11 41 bd 5e f8 9d 3d 25 7c 2c 3d
       -0.032529354 -0.047135428 0.07713388 0.04211058
0001d0 9c a4 16 3e f1 b3 17 bd 36 4f 1e bc 33 72 08 3e
       0.14711231 -0.03703684 -0.00966244 0.13324814
0001e0 9b ed 97 bd a1 df 41 bd fd 6a 13 3e 74 28 04 be
       -0.074183665 -0.04733241 0.14396282 -0.12906057
0001f0 03 9d 76 3d 0b 9c 66 3d ff f8 38 3e bd e3 f5 bd
       0.06020833 0.056301158 0.18063734 -0.12006328
000200 e0 3b ca bd ca 55 a0 3d 16 e2 4b 3e f3 e0 2b 3e
       -0.098747015 0.07828863 0.19910464 0.1678503
000210 2b 51 34 3e 33 d3 39 3e a8 4b 06 bc f2 60 71 3d
       0.17609088 0.18146972 -0.008196749 0.058930345
000220 e0 14 e6 3d f0 b9 2c 3e 98 05 2a 3e 90 df e0 bd
       0.1123445 0.16867805 0.16603696 -0.10980141
000230 31 2a 34 bd 09 20 de 3a 59 13 c2 3d 16 07 bb bd
       -0.04398555 0.0016946803 0.094763465 -0.09132211
000240 d3 c8 a2 3d 5e 41 70 3d e3 b6 3e 3e 58 0f 33 bd
       0.079484604 0.05865609 0.18624453 -0.043715805
000250 e3 b3 00 be 61 5b ff bc df 57 0e 3e 29 55 6d 3d
       -0.12568621 -0.031171503 0.13900708 0.057942543
000260 76 a4 16 3e 38 34 19 bd f0 54 35 3c 44 db 61 bc
       0.14711174 -0.037403315 0.011067614 -0.013785187
000270 57 8c 95 bd ad 3d 74 3d cf 35 bd 3d ee dd 11 be
       -0.07302158 0.05962913 0.09238779 -0.14244816
