DeepAR/W0/gluon_ts/prediction-net-state.pt (torch, 98912 bytes, 11 tensors)

model.param_proj.proj.0.weight f4 [1, 40]
000000 32 ae 42 3e d4 48 c9 3c a9 a4 69 3d cb db e0 bd
       0.19011763 0.02457086 0.057041798 -0.10979422
000010 a2 ed f4 3d f0 83 00 be 0b eb a8 3c 42 12 f2 3b
       0.11959387 -0.1255033 0.02061989 0.0073874304
000020 ae 76 b7 3c 20 95 16 3e 4f f1 94 3e 4f 6a 17 bd
       0.022395458 0.14705324 0.29090354 -0.03696662
000030 83 80 90 3e 4e eb 55 3e b2 fd cb bd 4e db 5a bb
       0.28223047 0.20890543 -0.09960498 -0.0033394876
000040 aa a3 c0 bc 77 cd 81 3e 05 7c e5 3d f1 89 8d 3e
       -0.023515541 0.2535207 0.112052955 0.27644303
000050 cf 34 75 be ac df 9a be 23 4e 41 be d8 13 6a 3e
       -0.23945926 -0.30248773 -0.18877463 0.22859132
000060 60 32 44 bd f4 46 5f 3e 5f 33 01 be 78 0e e8 bd
       -0.047899604 0.2180441 -0.12617253 -0.11330885
000070 e1 1f 63 bc bf 1f 38 3e f8 f0 74 3e 1e 96 fc 3d
       -0.013862581 0.1798086 0.23920047 0.1233332
000080 ea b8 0c 3e ca 3e 76 3e 81 35 2e 3d 3c d8 f9 3e
       0.13742414 0.2404739 0.042531494 0.48797786
000090 ac b6 04 be d7 c0 f1 3d 92 8b 4d bc fd b3 7f be
       -0.12960309 0.118043594 -0.012545483 -0.24971004

model.param_proj.proj.1.weight f4 [1, 40]
000000 44 fa a9 bd ba 2a 08 be 8e 07 49 3d 74 b4 8f bd
       -0.082996875 -0.13297549 0.04907947 -0.070168406
000010 c6 92 d0 bd 2d 57 2b 3e b3 ed fc 3d 52 9e 25 3e
       -0.10184245 0.16732474 0.12350025 0.16173676
000020 31 76 11 bd d4 8b 92 3d c5 ac b6 3c 03 b9 eb 3b
       -0.035513107 0.07155576 0.02229918 0.007193686
000030 44 9e c0 3c b2 23 08 3e 41 ba 25 3e 85 dc f1 3d
       0.023512967 0.13294867 0.16184331 0.11809639
000040 12 56 88 bd 13 36 9a 3c 8b 50 48 3e 0b be fa 3a
       -0.066570416 0.018824613 0.19561975 0.0019130124
000050 38 90 c6 bd c7 f2 7f bd 71 c5 f5 ba 09 4b 10 3e
       -0.09695476 -0.06248739 -0.0018750859 0.14091124
000060 bc 40 84 3d 22 e9 de 3d 09 7a bf bd 50 36 3c be
       0.064576596 0.1088431 -0.09349448 -0.18380094
000070 5a b5 8d 3d 12 bb 2e 3e bf 86 1e 3e 0a 7a 22 3e
       0.06919356 0.17063549 0.15481089 0.15866867
000080 17 47 43 bd fc 96 03 3e 78 8c 0d 3e 34 f4 4f bd
       -0.04767522 0.12850565 0.13823116 -0.05077
000090 13 29 cd bd 7f cb 77 bd 25 65 ce 3d 39 c4 60 bc
       -0.100176 -0.060496803 0.100778855 -0.013718658

model.param_proj.proj.2.weight f4 [1, 40]
000000 b4 90 90 be 9c 57 8e bb 14 b9 cc bd bc 4c 44 3e
       -0.282354 -0.00434394 -0.09996238 0.19169897
000010 5b e2 2c be 0d 00 da 3d d2 13 22 bd b4 fb 31 3d
       -0.16883223 0.10644541 -0.039569683 0.043452933
000020 37 09 af 3d 8a 5c 5a be ad 67 4b be 28 06 5c 3e
       0.085466795 -0.21324363 -0.19863768 0.21486723
000030 d3 3d 16 bd 90 00 f0 3c 1d b5 eb 3d 6b ab c8 bd
       -0.036680054 0.029297143 0.11509154 -0.097983204
000040 f5 f9 73 3e 74 93 4f bd 44 87 09 be 73 f1 5d be
       0.2382582 -0.05067773 -0.13430506 -0.21674137
000050 34 c2 1c 3e b0 a8 1b 3e 67 f9 e3 3d 71 b4 6e be
       0.15308458 0.15201068 0.11131554 -0.2331102
000060 85 5f 1f 3e 2e 25 25 bd 56 9f c0 3d b9 e7 48 bd
       0.15563782 -0.04031866 0.09405391 -0.049049113
000070 a1 e6 00 3e ed 03 35 3b c6 09 8e bc f6 37 83 3d
       0.12587978 0.0027620748 -0.017338645 0.06407158
000080 50 91 22 be f5 b7 bb bc ae 98 0e bd 58 f7 bc be
       -0.15875745 -0.022914866 -0.034813575 -0.36907458
000090 9b 33 62 bd 4d f6 79 be ff 3b 01 be 1a c8 01 3e
       -0.055224996 -0.24410363 -0.12620543 0.12673989

model.rnn.weight_ih_l0 f4 [160, 21]
000000 f2 25 b5 bd bd d8 e0 bd 92 48 1d 3e 55 5c af 3d
       -0.08845128 -0.109788395 0.15359715 0.08562533
000010 c5 11 6e bd fa 36 09 3e db cf 65 3d a6 95 f8 bc
       -0.058122415 0.13399878 0.05610643 -0.030344795
000020 2e 9d 90 3e 5a 1d e2 bc a9 c5 f0 3c 56 bf 78 3e
       0.2824492 -0.027601887 0.029391127 0.24291739
000030 52 6c 55 be 87 49 c8 3d c4 a7 86 3c 12 7f b0 bd
       -0.20842102 0.09779649 0.016437419 -0.08617987
000040 78 c1 0b be 23 80 4e bd f7 4a 91 3d ef 35 0b bd
       -0.13648021 -0.05041517 0.070943765 -0.033986982
000050 af d7 83 3d cf c5 54 3e 5c a3 8a 3e f8 a7 46 3e
       0.06437623 0.20778583 0.27077758 0.19400012
000060 d4 0d 6c 3e 2f e0 23 3d 05 07 6d 3e 59 20 3e 3d
       0.2305215 0.04000872 0.23147209 0.046417568
000070 95 ef 58 3e 76 fd b9 3c 44 35 8d 3e d7 70 05 bc
       0.21185143 0.022703867 0.275797 -0.008144579
000080 6e 14 84 3e db 61 57 3e 57 82 07 3d 80 71 08 3b
       0.25796837 0.21033423 0.033083286 0.0020819604
000090 f9 13 d4 3d 6d a3 ac bd 5e 16 40 3d 04 59 ac 3d
       0.10355372 -0.084296085 0.04689633 0.08415416
0000a0 b9 02 7b bd 85 83 78 3e 40 55 c5 bd 63 2d 42 3d
       -0.061281893 0.2426892 -0.09635401 0.047406565
0000b0 a4 00 50 3c 38 3b 1a 3d bc 45 ad 3d 15 17 8d 3d
       0.012695465 0.03765413 0.084605664 0.06889168
0000c0 4e 61 8b 3c a3 10 42 3e e0 65 75 3d ba 93 a7 3e
       0.017014172 0.18951659 0.05991161 0.32729894
0000d0 9c f7 1c 3e 9d 00 ec 3b 28 b6 89 3e 6a 24 5c 3e
       0.1532883 0.0072022215 0.26896787 0.21498266
0000e0 e8 7b 03 3e ae 59 05 3e c4 b2 bb 3d 7c ef 8e bd
       0.12840235 0.13022491 0.09164956 -0.06979272
0000f0 f3 68 c7 3d 1d 49 89 be ec 87 4f 3e 30 d7 8e 3e
       0.09736814 -0.26813594 0.20266694 0.2789855
000100 5b 89 2e 3e f1 69 a8 3d b4 e2 02 3e 04 1e 96 bc
       0.17044584 0.08223332 0.12781793 -0.01832486
000110 82 de 84 bd a9 36 36 3e 5d 7c 9c 3d 46 69 55 3d
       -0.064877525 0.17794289 0.07640908 0.05210235
000120 e6 eb 6c 3c 77 e7 16 3e f8 86 46 3e 84 e6 33 3e
       0.014460539 0.14736734 0.19387424 0.17568403
000130 f7 c2 1e 3e d5 99 49 3d bc 1d c6 bd 3a c0 03 be
       0.1550406 0.04921897 -0.0967364 -0.12866297
000140 2a 57 55 bc e6 dd 87 3e 7e 7f d2 3d e9 5f 82 bd
       -0.01302127 0.26536483 0.102782235 -0.0636595
000150 0b a6 b8 bd d2 f8 48 3e a4 97 4a 3e 90 f8 36 3e
       -0.09016045 0.19626167 0.19784409 0.17868257
000160 fb 20 3e 3e f2 bc ff 3d 2f fe 1a 3e 34 29 43 3d
       0.18567269 0.1248721 0.15136026 0.047646716
000170 f9 0c 53 bc 14 34 f2 3c fc a9 bb 3d 82 e7 41 3e
       -0.012881511 0.029565848 0.09163281 0.1893597
000180 6b 94 0a 3e 1d bc 91 bd 54 7b 4b bd ea 78 87 bd
       0.1353318 -0.07115958 -0.04967816 -0.066148594
000190 b1 b4 fc bd e6 57 cd bd a2 6d b7 bc 63 d2 57 be
       -0.12339152 -0.10026531 -0.022391144 -0.2107635
0001a0 ef 98 92 bd 7f 3f f9 3d 1e 04 d1 3d 24 08 a7 3d
       -0.07158076 0.12170314 0.102058634 0.081558496
0001b0 b1 0f 2b 3e 44 d7 8c 3e 16 8e 4d 3e 4a 1b 9c 3d
       0.16705205 0.27507985 0.20073733 0.076223925
0001c0 ca 4b 01 3e 83 2b 0d 3e 35 fe a4 3d b9 71 5c 3e
       0.12626567 0.1378613 0.08056299 0.21527757
0001d0 df 6f 41 3e f1 13 25 3e e2 3a c1 3d 28 c9 f9 3d
       0.18890332 0.16120888 0.09435059 0.12196571
0001e0 0c c1 13 3c 5b 86 3d be 12 48 f4 3c 20 71 0a bd
       0.009018194 -0.18508284 0.029819522 -0.03379929
0001f0 4a 12 8f 3d fe 5b 22 3e 0e b2 6b 3e 45 c9 21 3e
       0.0698591 0.15855405 0.23017141 0.15799434
000200 87 1d 08 bd 70 43 76 3c d4 6c 04 bd 43 ac 6c 3e
       -0.033231284 0.015030727 -0.03233035 0.23112588
000210 b9 95 4f bd 05 fe af 3d 77 3d 14 3c 74 d4 e7 3d
       -0.050679896 0.08593372 0.0090478575 0.11319819
000220 13 30 9e 3d db c6 e6 3d e7 fe 59 3e ab a7 ab bc
       0.07724013 0.112683974 0.21288644 -0.020953974
000230 d8 84 b0 3c f7 b5 64 3d 97 1b f3 bd 16 0f cb 3d
       0.02154772 0.055837598 -0.11870497 0.09914987
000240 ed c2 4e 3e 8b 90 30 3d fb 26 71 bd d5 d7 99 3e
       0.20191546 0.043106597 -0.058875065 0.3004748
000250 88 54 24 3e 16 de 35 3e bd cb 9f 3c 10 5c 20 bd
       0.16047871 0.177605 0.01950633 -0.039150298
000260 a6 88 94 3c a7 cb 41 bc ef 7c ed 3d 46 b1 4d 3d
       0.018131565 -0.01182834 0.11596095 0.05021789
000270 db c5 89 3c 58 01 19 bd 52 8f 1a 3d 32 66 f4 bb
       0.016817978 -0.037354797 0.037734337 -0.0074584717
000280 a5 28 fa 3d 58 65 08 3e ad 32 4d 3e ed 8c 05 bc
       0.122147836 0.1331991 0.20038863 -0.008151275
000290 fa 08 80 bc 4f 47 67 3e 65 a7 eb 3d 94 5a 65 3e
       -0.01562928 0.22585796 0.11506537 0.22397834
0002a0 af fe 15 3c 62 b9 4c 3e f0 7a 3f 3e 56 9a e9 3d
       0.00915496 0.19992593 0.1869924 0.1140639
0002b0 b3 7e 98 3d 02 c5 91 bd d7 e7 1f 3e 19 b1 15 3e
       0.07446041 -0.071176544 0.15615784 0.14618339
0002c0 5e 2c 14 bd 8a aa 65 3e 33 14 fd 3c 4b c9 57 3e
       -0.036175124 0.22428337 0.03089342 0.21072881
0002d0 4f 8a fc 3d 94 eb 50 bd cf 96 93 bd 8f 84 05 3e
       0.12331068 -0.051005915 -0.07206499 0.13038848
0002e0 e7 07 73 3d 51 c0 c8 ba d3 b3 61 3e 9d ff 5c 3e
       0.059333708 -0.0015316104 0.22041254 0.21581884
0002f0 ab d6 e8 3d df ef 2a bd 52 8a 25 3e 07 53 18 3e
       0.1136907 -0.041732665 0.16166046 0.14875422
000300 dd ba e0 bb 86 75 35 3e e5 87 55 3e 0c 31 b1 3c
       -0.0068582133 0.17720613 0.20852621 0.021629833
000310 e4 58 6c 3e 69 ce fe 3b 4d 2e e9 bc 54 8f 08 3c
       0.23080784 0.007776071 -0.02846446 0.008334953
000320 88 cc ae 3d 0b b5 90 bd a0 cc 58 bd c1 ad 7c 3e
       0.08535105 -0.07065781 -0.05292952 0.24675657
000330 1d 95 49 3e 1f 57 5c bd b6 e7 e0 3d 01 5d d8 3d
       0.19685788 -0.053794023 0.10981695 0.10564614
000340 8f 0e a5 3d 31 0a 5d 3e 90 8b df 3c 42 8d 4a 3e
       0.080594175 0.21585919 0.027288228 0.19780448
000350 0c 9b 61 3e 8f 10 3b 3d c1 c1 3e 3e 40 df 8f 3e
       0.22031802 0.04567009 0.18628599 0.28100014
000360 5d 7f 8c 3d 21 ac f7 3d 64 b1 b2 3d 51 86 05 3e
       0.0686023 0.12093378 0.08725241 0.13039519
000370 3b e0 7f bc e9 88 26 3e c5 fd b5 3b 64 1f 30 3b
       -0.015617426 0.16263165 0.0055539333 0.002687418
000380 b9 78 35 3d bd 00 a9 bc 6e d0 34 be af 15 2f bc
       0.044304583 -0.020630235 -0.17657635 -0.010686322
000390 06 1a b1 bc 5a 42 e8 3d b9 e5 65 3d 7b 6e 88 b9
       -0.021618854 0.113407806 0.056127284 -0.00026022256
0003a0 8a aa c2 bb 43 a0 98 3c 67 c1 5c bc d8 4e 3b 3e
       -0.00594074 0.018631106 -0.013473845 0.18291795
0003b0 4f 21 a3 3d 70 f6 2e 3e 0c c5 3d bd 8f 05 5c 3e
       0.079653375 0.17086196 -0.046330497 0.21486495
0003c0 a9 94 20 3e 7a ce 15 bc 5b a6 18 3e 12 a7 46 bd
       0.1568171 -0.009143466 0.1490721 -0.048499174
0003d0 2c cd 7d bc bd 06 9e 3d f6 51 02 bd 66 d1 46 be
       -0.015490811 0.07716129 -0.031816445 -0.19415817
0003e0 01 42 91 3d 96 5e 54 3e 7d d2 b5 bd 08 9c 59 3d
       0.07092667 0.20739207 -0.08878038 0.05312732
0003f0 ee 85 80 3d fe 9c b0 bd 45 ae f8 3c 49 69 bf bd
       0.06275545 -0.08623694 0.030356536 -0.093462534

model.rnn.weight_hh_l0 f4 [160, 40]
000000 00 ce 98 3d 13 70 11 be 9e ed d9 bc 25 ff d6 3d
       0.074611664 -0.14202909 -0.026602563 0.10497884
000010 6f fd 0d be cd 92 be bd 53 f1 01 bd c9 ef 1e 3e
       -0.13866208 -0.09305344 -0.031724285 0.15521158
000020 4c 97 14 3e 88 63 b3 3c 99 63 1e be 11 f2 40 bd
       0.1451084 0.021898046 -0.15467681 -0.047105853
000030 bc 42 6b 3e 87 b1 e4 bd 23 29 52 3c 59 8d 76 3c
       0.22974676 -0.11166673 0.012827191 0.015048348
000040 a5 bb b7 bd 42 72 8c 3d 55 42 a8 bd 4a 83 94 bc
       -0.08971337 0.068577304 -0.08215777 -0.01812901
000050 50 21 09 3d 80 8e 38 3d 9d b1 0f 3e 15 b2 ca 3c
       0.033479035 0.045057774 0.14032598 0.02474312
000060 d1 0c 90 3e e8 5b c7 bd 04 49 af 3b b1 c0 4a 3e
       0.28134778 -0.097343266 0.0053492803 0.19800068
000070 6f 55 37 3e d8 d9 82 3d d6 86 42 be 07 97 63 3d
       0.17903684 0.06389207 -0.18996748 0.055563953
000080 e2 c7 2f 3e 18 30 a0 3e 95 42 1e 3d 2e 35 0b 3e
       0.17166093 0.31286693 0.038637716 0.13594505
000090 f4 51 f1 bd 6e cf 01 ba 78 b7 ad 3d 83 f4 4e bd
       -0.117832094 -0.0004951869 0.084822595 -0.050526153
0000a0 61 99 b6 3d 34 ff 6f 3e d8 41 a7 3e d5 52 a0 3d
       0.089159735 0.23437196 0.32667422 0.07828299
0000b0 7a e3 10 be 2d fd d5 3d d0 6a 1a 3d 8d b6 9c bd
       -0.14149275 0.1044868 0.03769952 -0.07652006
0000c0 f2 be 29 be 61 97 99 ba 7b 0f 80 3d 35 8f 0d 3e
       -0.16576746 -0.0011718088 0.06252953 0.1382416
0000d0 b1 1d 97 3e 04 3f aa 3e 63 8e ff 3d 7a 4d 34 bd
       0.2951484 0.33251202 0.1247833 -0.0440192
0000e0 0f fe f5 bc 9f e2 84 3c 2d 78 00 bc f8 0b 02 3e
       -0.030028371 0.016221343 -0.007841152 0.12699878
0000f0 48 40 bc 3e 76 1a b8 bd 0f 9a ac be ab e5 3d 3e
       0.36767793 -0.08989422 -0.33711287 0.18544643
000100 e5 e0 2c 3d f0 bf 82 3e 6f 98 75 3e 95 bf 3b bd
       0.042206664 0.25537062 0.2398393 -0.045837004
000110 31 7e b8 bd e7 d5 7c bd 88 d4 26 3e 8e f2 b3 bd
       -0.09008444 -0.06172743 0.16292012 -0.08786498
000120 5f 10 d2 bb 84 dc d5 bd 2f c5 08 bd ca 2e 09 be
       -0.006410643 -0.10442451 -0.033391174 -0.13396755
000130 aa f2 e5 bd 67 3c 51 3d 90 42 76 be b5 70 6b be
       -0.11227925 0.051082995 -0.24048829 -0.22992213
000140 11 ac 33 bd c7 cb 17 3e 25 e4 61 bd fe 83 d6 bd
       -0.043865267 0.14823829 -0.055149216 -0.10474394
000150 c8 86 f3 bd 33 22 b7 bd c7 ce 47 3d 10 2f a5 bd
       -0.11890942 -0.0894207 0.048781183 -0.08065617
000160 02 12 40 be b9 09 13 3e 7e 9b 87 3e 80 35 54 3e
       -0.1875687 0.14359178 0.2648582 0.20723534
000170 47 2f bf bc 3b 70 cf 3d 7b 8c 84 3e 2b 3a 77 bc
       -0.023337973 0.10128828 0.25888428 -0.015089552
000180 50 67 19 3e 97 73 62 be fc 3c 63 be e5 86 29 3e
       0.14980817 -0.22114407 -0.22191232 0.16555364
000190 31 80 a9 3d 0e a5 4d 3d 50 40 86 3e bd c9 82 3e
       0.08276404 0.050206237 0.26220942 0.2554454
0001a0 b0 ea d8 bd 78 9f 7b 3e 58 19 0f 3e e3 75 82 be
       -0.10591638 0.24572551 0.13974512 -0.25480565
0001b0 39 ba 67 be 55 76 42 bd 20 c5 34 3e d1 cc 8d bd
       -0.22629632 -0.04747613 0.17653322 -0.06923831
0001c0 9d b4 04 be 10 7b 9c bd 6a 4d db bd 73 bc b7 bd
       -0.12959523 -0.0764066 -0.10708125 -0.08971491
0001d0 23 fd 1b bd 7c fb 44 3c 59 a8 0f 3d d0 50 45 bd
       -0.038083207 0.012022849 0.03507266 -0.048172772
0001e0 67 72 24 3e 5b 0d d1 3d c0 a3 45 3e ce cd 49 be
       0.16059266 0.102076255 0.19300747 -0.19707415
0001f0 2a a8 55 be 6a 61 09 be 62 6f 4c 3d 59 98 65 be
       -0.20864931 -0.13416067 0.04991091 -0.22421397
000200 e6 46 22 bd bc 5c 86 bc 2c 77 bd 3d 45 db 63 3e
       -0.039618395 -0.016401641 0.09251246 0.22251613
000210 81 8a b6 3e 88 b2 ab 3e 5d 50 e0 bc b9 bc 4c be
       0.35652545 0.33534646 -0.02738207 -0.19993867
000220 77 d7 1b 3e 39 7a 89 bd b0 fd 92 bd ee 15 1c 3e
       0.15218912 -0.06712765 -0.07177293 0.1524274
000230 4f 94 22 3e e6 bb 18 be 2a 41 9f be 78 70 28 3e
       0.15876888 -0.14915428 -0.31104404 0.16449153
000240 e7 4c 14 3d 32 84 e7 3c e5 74 8f 3d e1 96 f1 bd
       0.036206152 0.028261278 0.07004718 -0.11796356
000250 7e 53 fa bd 20 17 89 be f1 cc 5e 3e 46 4b 09 3d
       -0.12222956 -0.26775455 0.21757866 0.033519052
000260 e7 4c 0d be 9a da 94 3d 0f 3e 24 be 06 05 ec bd
       -0.13798867 0.072682574 -0.16039298 -0.11524396
000270 d3 80 69 3d 71 80 68 be 77 f3 20 be 82 61 2f be
       0.057007622 -0.22705247 -0.15717874 -0.1712704
000280 33 aa e4 3c 32 e3 07 3e b7 c5 06 3c 47 df 3c 3d
       0.027913189 0.13270262 0.00822585 0.04611137
000290 27 7b 2b bb 02 e9 fc 3d a5 ca 07 bd 10 72 cd 3d
       -0.0026165934 0.1234913 -0.03315224 0.10031521
0002a0 17 a2 2b 3d 2e 52 fb 3d ba 5a f9 3d cd 7e ed bd
       0.041902628 0.12271534 0.12175508 -0.11596451
0002b0 d1 5f e1 3d 9a a7 c1 3d 34 82 0e 3e 0c 52 8d 3d
       0.11004604 0.094557956 0.13916856 0.06900415
0002c0 82 6e 95 bd 10 f2 89 bd 8b 42 1a be f8 24 fb bd
       -0.07296468 -0.06735623 -0.15064447 -0.122629106
0002d0 ad a3 cc bd 7b 17 fe bd c3 c7 40 3d 05 07 09 3e
       -0.09992156 -0.12406822 0.047065508 0.13381584
0002e0 30 93 a4 bc fb 50 f9 bd bc b4 96 bd b7 92 d5 bd
       -0.020089716 -0.12173649 -0.07358691 -0.10428374
0002f0 e0 fa a0 3d 95 c0 b4 bd ef 46 04 bc ba 3a 93 3d
       0.078603506 -0.088257946 -0.0080735525 0.071889356
000300 75 f3 f7 3d db b2 2a bb 8f ec de 3d 3c e6 66 3d
       0.121069826 -0.0026046548 0.10884964 0.056371912
000310 88 b9 64 3c b4 89 1e be c4 42 de bd de ab ac bd
       0.01396025 -0.15482217 -0.10852578 -0.084312186
000320 9e 12 f9 3d 36 15 ef 3c c8 cd e1 3c fc 03 2f be
       0.12161754 0.029184919 0.027563944 -0.17091364
000330 27 36 08 3c 90 c7 2c be df 55 a8 3d ed c5 8b bd
       0.008313692 -0.16873002 0.082195036 -0.06824861
000340 35 54 45 be b8 8f 64 3e 58 91 14 3e 2d 39 12 3e
       -0.19270404 0.2232045 0.14508569 0.14279623
000350 70 f1 0c 3e 5b bb 27 bd b0 93 81 3e 40 02 67 3d
       0.13763976 -0.04095016 0.2530799 0.05639863
000360 ce 19 3d 3d dc d5 88 be 90 7e b2 bd cb 8e 1b bb
       0.046167187 -0.26725662 -0.08715546 -0.0023736234
000370 e6 91 4c 3e 54 ba ec bd 3b e5 8c bd 59 0d e4 3c
       0.19977531 -0.11558977 -0.0687966 0.027838396
000380 1e 32 8a be ee 99 41 3e f7 1e 00 3e 31 c5 92 bd
       -0.2699136 0.18906376 0.12511812 -0.071665175
000390 05 e1 61 be 67 17 25 be 45 dd cb 3d 56 69 b2 3d
       -0.22058494 -0.16122209 0.09954313 0.087114975
0003a0 d8 f4 61 be 29 58 6d 3c e7 5f 93 bd 23 d6 41 be
       -0.22066057 0.014486351 -0.07196026 -0.18929343
0003b0 3f 59 87 bd 48 af 0d be a8 d3 16 3b 91 f5 33 be
       -0.06608819 -0.13836396 0.002301434 -0.17574145
0003c0 a3 e4 0e 3e 09 8a 08 3e 17 09 07 3e c1 60 18 3c
       0.13954405 0.13333906 0.13187061 0.009300412
0003d0 e8 31 6e bd 31 dd 2e bd 14 30 90 3d 05 71 b4 bd
       -0.058153063 -0.042691413 0.0704042 -0.08810619
0003e0 79 cb a8 3d 86 22 41 3d fd 38 d1 3d 9d 8b a6 3d
       0.08241934 0.047152065 0.10215948 0.08132098
0003f0 70 13 09 b9 7f 18 c9 bd 17 27 b3 3d 94 57 0e 3e
       -0.00013072579 -0.098191254 0.0874769 0.13900596

model.rnn.bias_ih_l0 f4 [160]
000000 b1 1f 99 3d 31 f2 95 3e e1 b8 63 3e 85 5e 78 3e
       0.07476748 0.2928634 0.22238494 0.24254806
000010 f1 95 3a 3e 6d 1e da bb 63 08 1e 3e 8f 48 14 3e
       0.1822126 -0.006656459 0.15432887 0.14480804
000020 dd 47 54 3e 8c 12 da 3c 6e da 21 3e 68 36 05 3e
       0.20730539 0.026620172 0.1580598 0.13009036
000030 3f 71 29 bd 1c 40 b1 3d 62 7b 39 3d 7a 08 3d 3e
       -0.041367766 0.08654806 0.045283683 0.18460265
000040 03 de 48 3e 1c be ba 3b 82 28 68 bc d2 fc 37 3e
       0.19615941 0.0056989323 -0.014169814 0.17967537
000050 d5 ec ad 3d 6a a9 01 bd 0d be 19 3e 3e 86 1e bd
       0.08492438 -0.031655706 0.15013905 -0.038702242
000060 e5 1f ee 3d 28 9c d2 3d e3 78 28 3e ff 64 32 bd
       0.11627177 0.10283691 0.16452365 -0.04355335
000070 4f ab 1c 3e ba 3c 0b 3e 30 53 aa 3c 58 ec 03 3e
       0.15299724 0.13597384 0.02079162 0.12883127
000080 03 72 28 3e 04 84 09 bd 64 2d de bc 0d 14 1c 3d
       0.16449742 -0.033573166 -0.027121253 0.03810506
000090 3b 33 28 3e bb ab e8 3d cf ee 7d 3d 4e 8e 82 3d
       0.16425793 0.1136088 0.061995324 0.06374799
0000a0 20 87 a0 bd bf c0 e9 3d c0 5c ab 3d 54 b7 e2 bc
       -0.07838273 0.114137165 0.083673 -0.027675308
0000b0 1f dc aa 3d cc 22 9f 3d 73 b4 d5 3d 1b 93 f0 bb
       0.08342766 0.07770309 0.104348086 -0.007341755
0000c0 de 10 c0 3d 32 9f 89 3c dc c0 85 3d ef e7 08 be
       0.09378217 0.016799543 0.06530926 -0.13369726
0000d0 57 ae 3a 3c 82 b7 0c be 51 c9 3d 3d 21 eb d0 3d
       0.011394105 -0.13741878 0.04633457 0.10201097
0000e0 41 31 ff 3c 8b 77 93 bd d4 4b 93 3c f6 c5 c7 3d
       0.031151416 -0.072005354 0.017980494 0.09754555
0000f0 a4 b3 b6 3d 08 a3 23 3d 39 c8 4d bd 2d 8e 0a 3e
       0.089209825 0.0399504 -0.050239775 0.13530798
000100 ea f2 82 3c 92 4d 80 bb e7 04 87 bd ff 6c 57 bd
       0.015984971 -0.003915497 -0.06592732 -0.05259418
000110 c3 09 a6 3d b7 5c 84 bd f6 4c f3 bc bd c3 2a bd
       0.08107331 -0.064629965 -0.029699784 -0.041690577
000120 7e 4b e7 3d 63 b0 3b 3e 62 21 eb 3c 45 dc f5 3d
       0.11293696 0.18329005 0.028702442 0.12004904
000130 19 5c 57 3d b4 f0 9b bb be 90 e0 3d 2f 9c f9 bd
       0.052578066 -0.0047589187 0.109651074 -0.12187993
000140 03 4f b7 3c 9e bc 93 3d 53 53 ec 3c 51 a7 00 bd
       0.022376543 0.0721371 0.028848326 -0.031409565
000150 c7 7d 04 be 45 c5 1a bd 49 c2 13 3e 31 58 19 3e
       -0.12938605 -0.037785787 0.14429583 0.14975049
000160 70 29 ae 3d db 2f 52 bc b7 95 55 3e 69 2e 99 3b
       0.08503997 -0.012828792 0.20857893 0.004674722
000170 47 c3 9c bd 40 d8 9a bd 05 85 26 bd bb ca bf bc
       -0.07654434 -0.07560778 -0.0406542 -0.0234121
000180 79 db c2 3b f4 f2 fe bd 9b 49 04 be cb 69 13 3e
       0.0059465733 -0.124486834 -0.12918703 0.14395826
000190 29 a3 db bd 5c bd 9c bd c9 ae 93 bd 44 0a 8b bc
       -0.1072448 -0.07653305 -0.07211072 -0.016972668
0001a0 37 2e 71 3d 82 77 60 bd 85 ae 42 3d 2b 01 12 3d
       0.058881965 -0.05480147 0.047529716 0.035645645
0001b0 0e 2c df bd 76 5a 72 bc a3 d9 24 3e cd ce d9 bd
       -0.10897075 -0.014792075 0.16098647 -0.10635147
0001c0 0c 4a 99 bc c0 d8 80 bb c0 91 bc 3d 96 b8 0b be
       -0.018712066 -0.0039320886 0.09207487 -0.13644633
0001d0 d6 9a b1 bd 2b c4 ab bc 1f fc b3 3c 4e 0e 80 3d
       -0.08672111 -0.020967564 0.021970807 0.062527284
0001e0 08 9c 8b bd 51 76 82 3d 4c df ab 3d 05 ed 03 3d
       -0.0681687 0.06370223 0.083922 0.03220846
0001f0 83 7a c5 bd 4a ad 8a bd 13 c0 2d 3e fb ac 45 3e
       -0.09642508 -0.067713335 0.16967802 0.19304268
000200 32 ac 6c 3c 1c cd c7 3c 9a dd 95 3d 91 86 08 bc
       0.014445351 0.024389796 0.07317658 -0.008332864
000210 a1 4b 63 bd aa 5c 96 3d b2 35 15 3e 84 a3 5b bc
       -0.055492047 0.07341893 0.14571264 -0.013405684
000220 18 7f 90 bd 3a cc 9c bb 73 3c bd bd d4 41 7a 3d
       -0.07055491 -0.004785088 -0.092400454 0.061097935
000230 71 d1 bf bd 27 56 16 bd 8a 6c f1 3d d5 79 f1 3c
       -0.0936612 -0.036703255 0.1178828 0.02947704
000240 8c 2b 94 3e de 91 08 3e 16 ea 57 3d a0 5b 5d bd
       0.28939474 0.13336894 0.052713476 -0.05404246
000250 f5 ba 92 bd 96 d2 e4 3d 4a 4b 89 3d 22 2b 73 3e
       -0.071645655 0.111729786 0.067038134 0.23746923
000260 ab 5f 79 3c 60 91 24 3e 7b 87 04 3e 3a 0e 8a bd
       0.015220563 0.16071081 0.12942307 -0.06740995
000270 46 44 f8 3d bb 33 03 3e 70 af 07 3e 54 ea b4 3d
       0.12122397 0.12812702 0.13250518 0.08833757

model.rnn.bias_hh_l0 f4 [160]
000000 a8 80 5f 3d ed c3 8d 3e fb 57 56 3e 14 5a 58 3e
       0.054566056 0.27688542 0.20932 0.21128112
000010 8a c9 96 bd 50 f8 7a bc 73 60 ff 3d b1 6c 89 3e
       -0.07362659 -0.015317991 0.12469568 0.26840737
000020 9b 45 d1 3d 4e fa 19 3e 23 35 0a 3e 4f 8f 3d bd
       0.10218354 0.1503689 0.13496833 -0.046279248
000030 39 0a 20 3e b4 95 e6 3d d9 e9 66 3e f9 79 04 3b
       0.156289 0.11259022 0.22550143 0.0020214303
000040 64 11 3f 3d c3 c2 45 3e 56 87 d2 3d f5 e3 26 3e
       0.046647444 0.19312577 0.102797195 0.16297896
000050 0b e1 30 3e be c3 84 3e 1a 53 41 3d e9 70 18 3e
       0.17273347 0.2593059 0.047198392 0.14886822
000060 32 13 47 3e c2 84 f5 3c 1b 44 f6 3d 8f b2 71 3e
       0.19440916 0.02997053 0.12024709 0.23603271
000070 12 42 bf 3d db 9f 42 3e 24 e0 77 3d 89 fe 37 3e
       0.09338774 0.19006293 0.06051649 0.17968191
000080 5d b3 48 3e cc 7c 5a 3e e0 86 18 3e d8 93 48 3d
       0.19599672 0.21336669 0.148952 0.04896912
000090 ff 67 7f 3e b3 0e 14 3e 73 e4 68 3e 9e f0 08 3e
       0.24942015 0.14458732 0.22743396 0.13373038
0000a0 2c 2a 87 bd dd e7 a6 3c 2a 58 0d be 72 ab d0 bd
       -0.065998405 0.020374233 -0.13803163 -0.101889506
0000b0 6f 04 f6 3d 83 0a db bd ec 95 a6 3d d1 fe 3e 3c
       0.120125644 -0.10695364 0.08134064 0.011657433
0000c0 a7 1e 8c 3d 66 1e 8c bc cb 4c c9 3d 76 40 cc 3d
       0.06841784 -0.017104339 0.098291 0.099732324
0000d0 3b 26 05 3e 9c 33 0c be e6 59 fe bd 31 87 c6 bd
       0.13002865 -0.13691562 -0.124194905 -0.096937545
0000e0 f6 b2 1e 3e 07 42 00 bd 4c 7e 47 3e 78 6a 86 bd
       0.15497956 -0.03131297 0.19481772 -0.06563276
0000f0 7c 28 03 be ee 2f 0c be e6 93 6f 3d 6a db a3 bd
       -0.12808412 -0.13690159 0.058490656 -0.08000834
000100 cb 0d 01 be f7 6c a5 3d 47 ad 14 3e 7a 87 c5 bd
       -0.12602918 0.08077424 0.14519225 -0.09644981
000110 07 ef 93 bd 1b 29 70 3c 7f 14 df 3b 26 ad 2c 3b
       -0.07223325 0.014658238 0.0068078632 0.0026348322
000120 20 69 01 3e 37 27 ac bd af c9 a9 3d 91 04 25 3e
       0.12637758 -0.08405917 0.08290421 0.16115023
000130 26 f2 38 be 25 f6 35 be 5a ea 13 3d 0f 8f 77 3c
       -0.18061122 -0.17769678 0.036112167 0.015109791
000140 94 9b 3e 3c 5b 32 5a 3d 61 de 20 3d 62 3e 4a 3d
       0.011633772 0.05327068 0.039274577 0.0493759
000150 39 e8 d3 bd 4c 2a 36 3e cb 10 98 bd 2b a8 c0 3d
       -0.10347027 0.17789572 -0.07425078 0.094070755
000160 76 60 0d be 52 1e a7 3c c8 71 69 3d 47 85 ac bd
       -0.13806328 0.0204002 0.056993276 -0.08423858
000170 29 7f bf 3d 1b 9b 5e 3d 61 e4 1b bd d2 a7 dc 3c
       0.09350426 0.05434714 -0.038059596 0.026935492
000180 be bf d0 bc 3f 4c 99 bd dd 3a a0 bc 36 9f f8 3d
       -0.025482055 -0.07485246 -0.019559318 0.12139742
000190 49 a2 b9 ba e5 ae 5e 3d bc 77 ee bd 54 e0 0a 3d
       -0.0014162745 0.05436601 -0.11643931 0.033905342
0001a0 9a 76 31 bd 60 8c ff 3d c6 e2 a8 3d 23 67 63 3c
       -0.043325998 0.12477946 0.082463786 0.01387957
0001b0 c0 c4 36 be 41 d6 52 be c9 af 23 3b 45 df a7 3d
       -0.17848492 -0.20589544 0.0024976602 0.08196882
0001c0 81 be df bd 1b 3c 07 3e 50 ff 42 3c e7 db ad bd
       -0.109250076 0.13206522 0.011901692 -0.08489209
0001d0 ea ce 2e be bd 5e 25 3d 9a 52 56 be ab 7e 04 be
       -0.17071119 0.040373553 -0.20929947 -0.12938945
0001e0 8e d9 d2 3d d7 fb 5f 3e 4c 3c 23 3e e5 55 06 3d
       0.102954015 0.21873413 0.1594097 0.03279676
0001f0 2c ac 13 be 2c 54 d5 3d 2b e3 4b 3e 04 ed 69 3e
       -0.14421147 0.10416445 0.19910876 0.2284432
000200 8b 4a 59 3d 81 03 ba 3d 03 98 90 bd d3 d0 51 3d
       0.053049605 0.090826996 -0.07060244 0.05122454
000210 64 82 b2 bc 23 89 01 bd 52 de 89 3e 0a d0 10 3e
       -0.02179069 -0.031624924 0.2692743 0.1414186
000220 84 3b 2c 3d 86 84 ff 3c c0 01 50 3d 1d fd 1e 3e
       0.042048946 0.031191122 0.05078292 0.15526243
000230 c0 97 0a 3e ec 99 cb bd 4b 52 64 bd 8b ec c3 3d
       0.1353445 -0.09941468 -0.055742543 0.09566601
000240 c2 c4 48 3e 7b b1 cb 3c 05 9e 26 3e 78 e3 4b 3e
       0.19606307 0.024864903 0.16271217 0.19910991
000250 8a 99 6b 3d a6 30 36 bd e3 0b 38 3e 6a da c4 3c
       0.057519473 -0.04447999 0.17973284 0.02402993
000260 f0 10 e5 bd 71 52 80 3e 43 a9 41 bd 0a 61 88 bd
       -0.11184871 0.25062898 -0.04728056 -0.06659134
000270 d0 dc 49 3e a7 b3 0f bd 1d 66 25 be 1e 9c 1e 3e
       0.1971314 -0.03508344 -0.16152234 0.15489241

model.rnn.weight_ih_l1 f4 [160, 40]
000000 91 34 f3 bd 3f 6f 96 be 75 26 aa 3e 63 ce 8f 3d
       -0.118752606 -0.2938175 0.33232465 0.07021787
000010 52 a9 25 be ae 3c 02 3d 43 8a a9 3d 11 36 ae bd
       -0.16177872 0.03179615 0.082783245 -0.08506406
000020 51 c5 c0 bd 62 5c 6d bc 56 1d 55 3d 03 df 11 3e
       -0.09412635 -0.014487358 0.05202993 0.14245228
000030 4c da 0c 3e e9 84 4d bd 47 eb a8 3c 4b f2 68 3d
       0.13755149 -0.05017558 0.020620001 0.056871694
000040 c0 75 ea 3c 2b fa 55 bd df 0e e5 bd 97 59 14 be
       0.0286206 -0.052240532 -0.11184477 -0.14487301
000050 6c 35 39 be c7 f6 85 3e 88 8d 73 3d de 69 25 3e
       -0.18086785 0.2616484 0.059461147 0.16153666
000060 84 89 99 3e 38 c6 d7 bd 83 05 2a bd 30 bb 3d bc
       0.2998773 -0.10535854 -0.041509163 -0.0115802735
000070 08 53 9e 3d e7 24 b6 3d c0 76 6d 3d 8e 49 6b 3e
       0.07730681 0.08893757 0.057974577 0.22977278
000080 36 e9 67 3d 8e cb 60 be b4 5c 85 bb b7 ce cb 3d
       0.05661889 -0.2195265 -0.004069889 0.09951537
000090 8d b0 24 3e f5 f4 4f bd 64 18 0f bd d4 db cd 3d
       0.16082974 -0.05077072 -0.03493537 0.100516945
0000a0 a1 a9 30 3d 54 71 87 3e 0f 65 0a 3e 7f f6 9b 3b
       0.04313052 0.2645365 0.13515113 0.0047596092
0000b0 5f 85 95 bd 7a fb 51 bd 73 83 bf 3b 37 42 cd bc
       -0.07300829 -0.051265217 0.0058445274 -0.025055988
0000c0 26 7b de bd bd 14 dc bc 81 b0 0b 3e ad b7 1e 3c
       -0.108633325 -0.026865358 0.1364155 0.009687346
0000d0 a3 3d 4e 3e 65 3b 16 3e 35 63 23 3e e9 ef 54 3d
       0.201407 0.14671095 0.15955813 0.05198661
0000e0 f4 91 bf 3d 68 2b 54 bd a8 9e 0c be 33 88 45 3e
       0.0935401 -0.051799208 -0.13732398 0.19290237
0000f0 6f 4e e8 3d 27 1f 0c be 44 23 b1 bc bf d2 1f 3d
       0.11343085 -0.13683759 -0.021623261 0.039019343
000100 b0 f3 68 bc ed 16 69 3e 96 1e 57 3e c8 23 ee bd
       -0.014218256 0.22762652 0.21007761 -0.116279185
000110 e5 f8 6a bd bd dd 15 3c de 8c 54 bd c4 e6 b0 bb
       -0.05736627 0.009147105 -0.051892154 -0.005398603
000120 d4 97 88 3d 28 5a 13 3e 48 ee db bc e7 16 88 bd
       0.06669584 0.1438986 -0.02684702 -0.06644993
000130 6c 9f 52 be d2 08 f2 bd 34 e4 32 be d1 9d 04 bd
       -0.20568627 -0.118180886 -0.17469865 -0.032377068
000140 0f 05 e5 3d 4a 60 9f 3e c7 f3 c3 3c 52 78 08 be
       0.111826055 0.3112815 0.023919953 -0.13327149
000150 c0 8e 35 bd 63 59 db bd 0f 47 f3 3c 0b d2 54 be
       -0.04432559 -0.107104085 0.02969697 -0.2078325
000160 76 93 d8 bd d6 a4 20 3e 3d e2 d6 3d b6 21 f7 3d
       -0.10575001 0.1568788 0.1049237 0.12066977
000170 84 30 13 3e f3 6c 90 3e 32 a8 1a 3d d5 df f1 bd
       0.14373976 0.28208122 0.03775806 -0.11810271
000180 bc eb f9 3d c7 c2 7c 3b 22 5e ea bd af 54 37 3e
       0.12203166 0.0038568245 -0.11443736 0.17903398
000190 04 e0 45 3d 67 b3 67 3a 35 fe 51 be f7 8f 55 3e
       0.04830934 0.0008838684 -0.20507129 0.208557
0001a0 2c 7e 9a 3c 2e fd 8b 3e 09 f9 25 3e 6d fe e7 3c
       0.018858992 0.27341598 0.1620828 0.028319562
0001b0 9b 71 12 be bb 2e 5c be 71 81 b2 3c bb b6 43 be
       -0.1430115 -0.21502201 0.021790238 -0.19112675
0001c0 90 35 0c bd d0 62 fa bd 7d ae f3 3c 5e a8 c4 bd
       -0.03423077 -0.12225878 0.029746288 -0.09602426
0001d0 c5 fa 2c be 8b 7b 28 bb 47 70 8c bd 92 ad 2b be
       -0.16892536 -0.0025708403 -0.06857353 -0.1676543
0001e0 80 b0 c7 3d 2e 4e 6c 3e 24 68 20 bc ee 5b 99 3c
       0.097504616 0.23076698 -0.009790454 0.018720593
0001f0 37 6f ff bd 1c 60 0d bd 50 64 cb 3c 03 96 b4 3c
       -0.124723844 -0.034515485 0.024828106 0.022044187
000200 30 f7 3e be d8 2b 0a 3e 5d fc ae 3d 19 2d cf 3c
       -0.18648982 0.13493288 0.08544228 0.025290059
000210 de 1a 7f bd d2 61 e8 3d 56 e9 58 3e ca e1 52 be
       -0.062281482 0.11346783 0.2118276 -0.20593944
000220 66 c3 5f 3e 78 a9 91 bd 2f ae 2b 3d 19 d2 32 3d
       0.21851882 -0.07112402 0.04191416 0.043657396
000230 8e 28 e3 3c eb 8b c1 bd 36 24 46 be e4 1d 12 bd
       0.027729299 -0.09450515 -0.19349751 -0.035673037
000240 c4 c3 c4 3d 12 ee de 3d c0 82 4b 3e ca 84 43 be
       0.09607652 0.10885252 0.19874096 -0.19093624
000250 94 44 75 be 7a 4b 7a 3c f2 95 ff bc 98 f6 13 be
       -0.23951942 0.015276784 -0.03119943 -0.14449537
000260 a2 23 ab bd 18 57 91 ba e7 1e 54 3d 08 d5 45 3d
       -0.08356406 -0.0011088578 0.051787283 0.048298866
000270 8e bc 28 be 92 4a 13 be d8 f6 7d be 45 af 5c be
       -0.16478178 -0.14383915 -0.24801195 -0.21551235
000280 b8 c3 88 3e 4b ec a2 3c f4 e9 31 3e aa 4c 40 3d
       0.26711822 0.019888064 0.17374402 0.046948113
000290 11 83 c7 bd 0b 62 22 3d 5b 46 86 3d 13 c5 68 bd
       -0.09741796 0.039644282 0.06556388 -0.05682857
0002a0 90 1e b4 bd bb 84 16 3d 8f 80 40 3e bb 53 0d 3e
       -0.08794892 0.036747675 0.18799041 0.13801472
0002b0 1b 1b 13 3e 8a a7 3e be 90 c0 65 3d e5 07 99 bd
       0.14365809 -0.18618599 0.056091845 -0.07472209
0002c0 4c 66 4b 3e f7 bd 2e be c2 e5 ae 3d ac d1 65 bb
       0.19863242 -0.17064653 0.085399166 -0.00350676
0002d0 5f b6 1a 3e 32 cc 60 3e 42 84 cc bc ee a1 fa 3d
       0.15108632 0.21952894 -0.02496541 0.12237917
0002e0 7d b6 81 3e 18 8c 0a 3e 7b b6 1d 3e 55 07 05 3c
       0.2533454 0.13530004 0.15401642 0.008119424
0002f0 f2 e8 5a be 6d f4 06 be e8 6b a1 bd 2b 7c 3c bc
       -0.21377924 -0.13179179 -0.078819096 -0.011504213
000300 90 ff 52 be 9a 6d 59 bc e4 c7 2f be 10 3b 5f bd
       -0.20605302 -0.01327076 -0.17166096 -0.054499686
000310 bb 39 a9 3d 9e 95 2f be 8a 3a ec bc ee e3 29 be
       0.08262964 -0.17146918 -0.028836507 -0.16590855
000320 6a ec 61 3e 02 4b 8c bb ad 5e 91 3d 9a ec 34 bd
       0.22062841 -0.0042814026 0.07098136 -0.044170953
000330 88 18 31 be 99 98 c0 3d ab 4a ff 3d 0a 66 16 be
       -0.17294514 0.09404106 0.12465414 -0.14687362
000340 d8 87 1e be 79 9b 3b 3e 2d 8f b0 3d fd 53 83 3e
       -0.15481508 0.18321027 0.086210586 0.25650015
000350 31 2c 8b 3e 22 41 f7 bd d4 23 45 3d e6 50 dd 3c
       0.27182153 -0.1207297 0.04812987 0.027016114
000360 fd fb 46 3d 73 0f 1b be f5 a1 6e be 77 36 a9 3b
       0.04858016 -0.15142612 -0.23303969 0.0051639634
000370 30 51 15 be 44 d4 00 be 24 f0 0a 3e 3a f5 aa 3d
       -0.14581752 -0.12580973 0.13568169 0.083475545
000380 e0 38 5c 3e 35 76 5d 3e f5 7f cd 3d b0 3d 72 bc
       0.21506071 0.21627124 0.100341715 -0.014785215
000390 54 fa 7b be ec c6 9b bd d9 03 2c 3e 10 67 8b bc
       -0.24607211 -0.07606301 0.16798343 -0.017016917
0003a0 5d 5e a9 3c 54 30 a6 bd ab 52 9e 3d 6e 88 47 3d
       0.020674879 -0.081146866 0.077306114 0.048714094
0003b0 2c d5 9c bd e6 06 a1 bd c3 5a 7d bd 71 2f ad 3c
       -0.07657847 -0.07862644 -0.061854135 0.021140786
0003c0 85 cd 2f be 41 5a b8 bd 3c aa 58 bc 7b 64 72 3d
       -0.17168243 -0.090015896 -0.013224181 0.059177857
0003d0 b7 b4 85 bd 4a 92 69 bd 56 3f 72 3d 2f ff 3f 3e
       -0.06528609 -0.057024278 0.059142433 0.18749689
0003e0 44 2b 63 3d 75 3e d0 bd 46 64 40 bd 63 08 e8 3c
       0.055461183 -0.10168163 -0.04697063 0.028324312
0003f0 68 4d 26 3e 85 39 bb 3d b4 30 45 be 43 ef 4c 3c
       0.16240466 0.0914183 -0.1925686 0.012508216

model.rnn.weight_hh_l1 f4 [160, 40]
000000 5d 46 8f bc fe 1f 85 3d c5 01 50 3d 90 69 1a 3c
       -0.017489607 0.06500243 0.050782938 0.009424582
000010 c3 64 47 bd aa 1b 33 3e ae f4 d5 3d f3 4c 91 bb
       -0.04868008 0.17491022 0.104470596 -0.004434222
000020 3b f2 ad bd 25 fb a6 3d 31 ec 6b bd 8c f2 eb bc
       -0.084934674 0.08153371 -0.057598297 -0.028802179
000030 bb 7b d2 3d 00 27 d5 3d 16 df a4 3d 7c 20 42 3d
       0.10277506 0.10407829 0.08050363 0.04739426
000040 5a 08 9e bd cc 7f 00 bc 51 80 50 bd c1 ed f9 3d
       -0.07716437 -0.007842969 -0.050903622 0.12203551
000050 8c 81 77 3d 40 74 b2 bd b0 56 fa bd 65 d2 05 3e
       0.06042628 -0.08713579 -0.122235656 0.1306854
000060 6a fa 40 be 0a a9 10 3a a2 0a d9 bd 5c b7 a1 bd
       -0.18845525 0.0005518353 -0.10597731 -0.07896301
000070 6e 46 02 bd ff 57 17 3e 7a e3 85 bc 9e 8d 87 ba
       -0.03180545 0.14779662 -0.01634382 -0.0010341888
000080 c7 28 0b 3d 1b 7b 08 3e 78 0c 13 be 94 3e 83 be
       0.033974435 0.13328211 -0.14360225 -0.2563368
000090 e3 d2 70 3d 19 6d eb 3d 04 c2 a9 3d 28 5c 20 be
       0.058794867 0.11495418 0.08288959 -0.15660155
0000a0 fc 3c 92 bd 90 c6 9a bd e1 42 34 3e 0f e1 83 bd
       -0.07140538 -0.07557404 0.17603637 -0.06439411
0000b0 a0 b5 50 3e 1e 65 4f bc 82 a9 83 3d db 65 91 bd
       0.20381784 -0.012658386 0.064288154 -0.070995055
0000c0 0f 20 15 3e 82 ae b1 bd f7 47 d0 bd 37 28 f8 3d
       0.1456301 -0.08675863 -0.10169976 0.121170454
0000d0 d7 e0 81 3c 63 e4 d4 3d 99 24 a6 3b 97 db 0d bd
       0.015854282 0.10395124 0.0050702807 -0.034633245
0000e0 e8 5d 3d bd ca 89 8c 3c 99 f7 12 bc 61 9d 57 bd
       -0.046232134 0.017155547 -0.008970165 -0.052640323
0000f0 e7 6f 94 3d 2d 44 24 be 99 72 a9 bd 19 ff d7 3d
       0.07247906 -0.16041632 -0.08273811 0.10546703
000100 f3 da e8 bd 09 dc 56 ba d2 44 14 be 44 e1 13 be
       -0.11369886 -0.000819624 -0.14479378 -0.14441401
000110 80 ce db bd 94 2d b9 3d 9e 5f 0b 3e 6f 7b 8b 3d
       -0.10732746 0.090418965 0.13610694 0.068106525
000120 22 1c 91 bd c8 f5 8f bd 7f 8e a0 3c d6 75 47 3e
       -0.07085444 -0.07029301 0.019599197 0.19478545
000130 78 81 74 bc ac e1 79 3d 6d e0 4d 3e 94 81 1a 3d
       -0.014923446 0.061006233 0.20105143 0.03772123
000140 94 1c 53 3b 69 67 ac 3d 6e 7e 2a 3e c9 3c f0 3d
       0.0032213079 0.084181614 0.16649792 0.11730344
000150 e0 67 7e bd c8 f1 55 be fd 49 f8 bd 43 43 dc 3d
       -0.06211078 -0.20893013 -0.12123487 0.10755017
000160 64 b1 20 3e 60 8d ae 3d b4 67 e1 3c df 5f 8d bd
       0.15692669 0.08523059 0.02751527 -0.069030516
000170 12 3e 03 3d 8a d9 04 3e 1e ed b2 3d 44 9b 84 bb
       0.032041617 0.1297361 0.08736633 -0.0040468294
000180 90 10 b8 3d e7 86 c2 bc 2e b9 ff 3d 9f c5 c2 3d
       0.08987534 -0.023745967 0.12486492 0.095103495
000190 2f b8 3a 3d 56 28 f1 3c fd b5 84 3d 18 38 e3 bd
       0.045585807 0.029438179 0.06480024 -0.110946834
0001a0 8e 9a b7 3d 45 af 50 bb 12 1a 4c be 8c 72 17 bc
       0.08965026 -0.003184275 -0.1993182 -0.009243619
0001b0 cb 67 8f bd a1 8e 42 3e 6c 65 be bd 08 bd 95 3c
       -0.07002219 0.18999721 -0.092966884 0.018278614
0001c0 8e 5d c0 3d de d7 fa 3d 64 9e 10 bd 05 9d 62 3d
       0.09392844 0.12248205 -0.035307303 0.055325527
0001d0 8b 1c 52 bd d3 ac 01 3d bf 93 61 bc 81 57 7a 3d
       -0.051296752 0.03165896 -0.013768136 0.061118606
0001e0 69 c0 83 3d bd e6 ea bd 71 2b cc bd 54 79 45 be
       0.06433184 -0.11469791 -0.09969223 -0.19284564
0001f0 f3 ee 26 3e 29 c9 30 3c 47 1e 40 3e 54 ae 13 3e
       0.1630209 0.010790148 0.1876155 0.1442197
000200 98 47 9b 3d c9 69 b6 3d ca b1 35 3e a5 3c 44 be
       0.07582015 0.08906896 0.17743602 -0.19163759
000210 fa 07 00 3d e3 3e 12 3e 51 82 00 3e 8b f1 1f 3e
       0.031257607 0.14281802 0.12549712 0.15619485
000220 24 1e 75 bd 99 c6 81 bc 13 22 c4 bc ce 4c 66 bd
       -0.059843197 -0.015841769 -0.02394203 -0.05622559
000230 3d df 02 3d 4e 58 da bd a5 d8 16 be fd 1f e0 3d
       0.031951178 -0.10661374 -0.14731081 0.10943601
000240 af 9e b2 3c d3 93 da 3d 0d 0e c6 bc 05 72 fd 3c
       0.021804182 0.106727265 -0.024176622 0.030938158
000250 b6 dc 21 3e 2b 1f e5 3a f6 54 1e 3b 1a 68 ee bd
       0.15806851 0.0017480602 0.0024159527 -0.116409495
000260 1e 14 02 bc f3 d1 91 bd 15 ab 24 bc 3a 7a aa bd
       -0.007939367 -0.07120123 -0.010050555 -0.08324094
000270 71 f1 d1 bd 51 f8 ea 3d b9 dc 2a bd 71 09 34 be
       -0.102511294 0.11473144 -0.041714404 -0.17581727
000280 80 c9 70 bd 93 0b 89 bd 73 64 9a 3d 74 0a ff bb
       -0.058785915 -0.06691661 0.075386904 -0.0077832285
000290 44 03 c8 bd ce f4 e2 3d d9 b9 de bc 47 4f 77 3e
       -0.09766248 0.11081849 -0.027188228 0.24151336
0002a0 de b1 53 3d ec d3 3d 3e ce 79 8f 3d c3 b7 34 be
       0.0516833 0.18537873 0.07005654 -0.17648225
0002b0 21 44 b8 3d 46 6c b3 3d 3d 49 9d bd d9 5e b2 3d
       0.089973696 0.08760886 -0.07679985 0.08709497
0002c0 11 26 d8 bc 9d b1 6b bb a3 b3 30 3e 5c 32 08 bc
       -0.026385339 -0.003596402 0.17256026 -0.008312788
0002d0 37 7d 0f 38 71 27 bb bd 86 cc 92 bd 4f f8 4e bd
       3.4210472e-05 -0.09138382 -0.07167916 -0.050529774
0002e0 08 d4 9c bd fd 03 d2 3d a1 e5 d7 bd 35 20 00 be
       -0.07657629 0.10254667 -0.10541845 -0.12512286
0002f0 98 43 5f bd c9 a1 64 3e 06 df 48 3e ad d7 7f 3d
       -0.05450782 0.22327341 0.19616327 0.062461544
000300 a9 8d b8 bd 8b 5a ea 3c 60 50 27 3e 75 c9 2e bd
       -0.090113945 0.028607627 0.16339254 -0.042672593
000310 a1 c3 4b be fd d3 12 3e 08 e4 c6 3d b0 90 41 be
       -0.19898845 0.1433868 0.09711462 -0.1890285
000320 59 07 9e bd 11 1b db 3c 39 5f cb bc 57 de 77 be
       -0.07716245 0.026746305 -0.02482568 -0.2420591
000330 90 88 12 3e 14 1a 8e bd 2f 5f 39 3e 22 6f d0 3d
       0.14309907 -0.06938568 0.18102716 0.10177447
000340 49 13 26 bd 7e 6c 91 3d b1 57 5b 3e 01 5c 8b bc
       -0.040545736 0.07100771 0.2142017 -0.017011644
000350 33 ea 91 3c ee 92 3b 3d 8e a0 f2 bc 35 36 2b bd
       0.01781187 0.04579442 -0.029617574 -0.041799743
000360 aa 69 9c bd e8 11 06 3d de 20 c4 3c fc ad 29 3e
       -0.07637341 0.03273192 0.023941454 0.16570276
000370 22 04 89 bd fe 57 f9 bd 26 e2 82 3c 02 81 42 3e
       -0.066902414 -0.12174986 0.015976977 0.18994525
000380 15 8d 2c be f5 43 63 3e 49 73 e9 bd f7 46 b4 bd
       -0.16850694 0.22193892 -0.11398942 -0.08802598
000390 40 68 64 bc 40 a5 0a 3d 73 32 9a ba 94 4a 2b 3d
       -0.013940871 0.033849 -0.0011764303 0.04181917
0003a0 e5 dc 10 3e 8d fb 15 3e 7a 1f 30 3e 37 89 84 bd
       0.14146765 0.1464674 0.17199507 -0.06471484
0003b0 fe 25 15 be 5d 50 2e 3e af 7c 90 3d 80 e8 35 be
       -0.14565274 0.17022844 0.070550315 -0.17764473
0003c0 ca 43 1f 3e 0b b0 f4 bc 19 52 02 be 6c b3 18 3d
       0.15553203 -0.0298691 -0.1272663 0.037280485
0003d0 9a 4e a4 bd 8b 48 e9 3d 39 51 ea 3d 89 61 b9 bd
       -0.080228046 0.113907896 0.11441273 -0.090518065
0003e0 0b 1b 87 3d f3 63 97 3c 35 8c 11 be 2e 01 24 3e
       0.06596955 0.018480277 -0.14213641 0.16016075
0003f0 80 95 dd bd 70 09 14 be 2c 45 04 bd 7a 79 f2 3d
       -0.108195305 -0.14456725 -0.03229253 0.11839576

model.rnn.bias_ih_l1 f4 [160]
000000 ec 7a 04 be 52 b0 15 3e 75 4b 24 3e 35 a8 2d 3d
       -0.12937516 0.14618042 0.1604441 0.042396743
000010 50 23 0d 3e 06 9e 60 bd c3 05 ff bc 88 17 a7 3d
       0.13783002 -0.054838203 -0.031130677 0.08158785
000020 4e ff 12 3e 0f 52 5a bd 11 2a b4 bc 92 98 0f 3e
       0.14355204 -0.053300913 -0.021992715 0.14023045
000030 45 38 c7 bd 9e 52 e0 3d 83 5c 89 3d 0f da 33 3e
       -0.097275294 0.10953258 0.06707098 0.17563652
000040 a9 10 13 3e 2c c2 01 3e a1 9b 5c 3e 33 fd 72 3a
       0.14361824 0.12671727 0.21543743 0.0009269297
000050 1c 41 43 3d 7d a7 6c 3e ef b2 ca bc bb da 03 3e
       0.047669515 0.23110767 -0.024743525 0.12876408
000060 c5 c9 3e bd 71 77 5a 3e 97 dd 5f 3e 8a f2 a7 3d
       -0.04657914 0.21334626 0.21861874 0.082005575
000070 f0 14 90 bd 28 51 20 3d 7a bb 6a 3e cf 26 14 3e
       -0.070352435 0.039139897 0.22923079 0.1446793
000080 ff dc ec 3c a8 56 93 3d de b3 34 3e c2 74 66 bb
       0.028913973 0.07194263 0.17646739 -0.0035164808
000090 3d 0c f0 3d 8d 33 61 3e 23 8b 95 bc cc b2 dc 3c
       0.11721084 0.21992321 -0.018254822 0.026940726
0000a0 a2 3c ec 3d e5 31 e7 bd cc d3 20 3e aa f0 8a 3d
       0.11535002 -0.112888135 0.15705794 0.06784184
0000b0 ad d2 93 3d a7 da 0a bd 04 cf 86 bd e7 f4 21 be
       0.072179176 -0.03389993 -0.06582454 -0.15816079
0000c0 32 7f 0a be d6 e7 e7 bc 73 f0 ae bd 88 04 92 3d
       -0.13525084 -0.02830879 -0.08541956 0.071297705
0000d0 69 6f a4 bc d5 8f 9b 3d d4 db 54 3d 71 f0 43 3d
       -0.020072656 0.07595793 0.051967457 0.047836725
0000e0 77 15 e3 bd b6 29 20 3e f7 cc 8a 3d 00 79 16 be
       -0.110880785 0.15640911 0.06777375 -0.14694595
0000f0 31 66 ab 3d 07 62 84 ba 1f 77 5b 3d f8 93 c3 bd
       0.08369101 -0.0010100015 0.0535804 -0.09549707
000100 b1 d0 0e 3e 9d db 88 bd 4d 7f ba bd 3c 58 40 3d
       0.13946797 -0.06682513 -0.09106312 0.046959147
000110 24 f3 0a bd 21 06 e5 39 f8 96 b8 3c cb 80 c4 3d
       -0.033923283 0.0004368285 0.022532925 0.09594878
000120 74 4c 74 3d 1f e8 f5 bc bb e5 69 3d 8a 15 89 bd
       0.059643224 -0.03001791 0.057103854 -0.066935614
000130 fd d8 ac 3d 64 54 29 3e 3e d1 1b b9 23 38 0a 3d
       0.08439825 0.16536099 -0.000148599 0.033744942
000140 23 d6 c2 3d ee 6e 62 bd aa a8 30 3e 1e 65 45 3d
       0.095134996 -0.055281572 0.1725184 0.048192136
000150 b2 42 0a 3d ac 20 f9 bd cd 16 83 bd 6b 7a b0 3d
       0.03375501 -0.12164435 -0.06400833 0.086170994
000160 0c 08 52 bd f9 f5 9b bd 6b fa 82 bd e2 7b b6 3d
       -0.051277205 -0.07615275 -0.0639542 0.089103475
000170 f0 14 2f 3d c7 9a 82 3c 61 66 96 bd 36 cb 99 3d
       0.042744577 0.015942944 -0.07343746 0.075094625
000180 43 af c4 3b 0c 0e 09 3e 3a 06 dc 3d 58 a0 bd bc
       0.006002338 0.13384265 0.10743375 -0.023147747
000190 7b d2 4e be 67 57 26 bc dc d5 1e be 0f fe 84 bc
       -0.2019748 -0.010152674 -0.15511268 -0.016234426
0001a0 7e 31 b8 bd 53 16 92 bd 85 4f c3 3d a6 a2 1f bd
       -0.08993815 -0.07133164 0.095366515 -0.038973473
0001b0 fc 53 ae 3d 09 ff 06 3e 89 72 dc 3c 78 45 1c 3d
       0.085121125 0.13183226 0.026910083 0.038152188
0001c0 1c 27 35 3d 72 f2 23 3c f7 4e b6 3c 7f 35 22 3e
       0.04422675 0.010006534 0.02225445 0.1584072
0001d0 a2 d5 b2 bd 1c 6b 23 be 08 9e 03 3e df 45 b2 ba
       -0.087321535 -0.15958828 0.12853253 -0.0013601145
0001e0 6d 03 ce bd 29 a7 19 3e 6a 40 32 bd c8 60 b9 bc
       -0.10059247 0.15005173 -0.04351846 -0.022629157
0001f0 a5 9b 0a bd 12 39 87 3c 13 34 ed 3c 64 02 e8 3d
       -0.03383984 0.016506705 0.028955495 0.11328581
000200 a3 a4 66 3e e0 1b 4e bd f1 13 18 3d 6f f4 f0 3d
       0.22523741 -0.050319552 0.037128393 0.11765372
000210 79 cd c4 3d 38 73 b0 bc 97 c2 f9 bd 3c 37 df bd
       0.09609503 -0.021539316 -0.12195318 -0.10899207
000220 44 2e b4 3d 86 bc cc bd 50 66 93 3d 8b 1c 88 bc
       0.08797887 -0.099968955 0.07197249 -0.016615173
000230 ae 1f a6 3d 45 78 c4 3d 06 66 86 3b 1c d3 6e 3d
       0.08111511 0.09593252 0.0041015176 0.0583068
000240 5e 24 1c 3d 33 60 e2 3d 96 c8 7f 3d bf 06 cc 3d
       0.03812062 0.11053505 0.062447153 0.09962224
000250 57 36 da 3c a9 fe 20 3e 42 46 30 3e 41 94 80 3d
       0.02663724 0.15722145 0.17214301 0.06278277
000260 20 b8 b5 bd 36 05 8a 3e b7 f4 d1 bc 87 a8 80 3c
       -0.0887301 0.269571 -0.025629384 0.01570536
000270 c0 6b 2c 3d 9a 9c b3 bd 24 0f 37 3e 1b 27 9d bd
       0.042094946 -0.08770104 0.1787687 -0.076734744

model.rnn.bias_hh_l1 f4 [160]
000000 a9 9f c1 bc 32 9b ef bc 5f 0e 70 3e 56 08 95 3d
       -0.023635702 -0.029248808 0.23442982 0.072769806
000010 63 ad 78 3d f4 de 60 bd 53 ee dd bd 6d c4 22 bc
       0.06071223 -0.054900125 -0.10836472 -0.009934527
000020 48 4c 85 3d 77 d6 dc 3c b7 5f b9 3d 81 a1 ac 3d
       0.0650869 0.026957734 0.09051459 0.08429242
000030 b1 b7 13 3e ab 81 08 bd 6b 27 23 be c2 66 03 3e
       0.14425541 -0.033326786 -0.15933006 0.12832168
000040 6b fe 0f 3e cf b4 3d 3e d4 21 1d 3e f3 3c 1e 3e
       0.14061897 0.18526004 0.15344936 0.15452938
000050 ed a8 5c 3e 9c 3b b8 3c b0 df 2c 3d 23 15 4f 3e
       0.21548815 0.022489361 0.042205513 0.20222907
000060 36 e2 da 3c 7f 7c 48 bd b3 76 54 3e 49 51 3c bd
       0.026719194 -0.048946854 0.20748405 -0.045975957
000070 04 9b 16 3d c6 89 f4 bc 64 d3 cd 3d d7 18 23 3e
       0.03676893 -0.029850852 0.10050085 0.15927444
000080 12 17 ff bd 7e 69 7a 3e e7 ab 9f 3d ef 37 3c 3d
       -0.12455572 0.24454305 0.0779646 0.04595178
000090 06 92 f2 3d 2f 02 4e 3d 37 15 22 3e a4 68 6e bd
       0.11844258 0.05029505 0.15828405 -0.05820526
0000a0 66 79 b3 3d 1d 7d 7f 3d 4c 8c af bc 86 20 8b 3d
       0.08763389 0.062375177 -0.021429203 0.06793313
0000b0 6d 95 d4 bd ae 79 20 be 6b a9 39 be 52 25 93 3b
       -0.10380063 -0.15671417 -0.18131034 0.004490533
0000c0 cb f9 08 3e 7e d2 10 3d 19 16 6f 3d a6 d9 e4 bd
       0.13376538 0.03535699 0.058370683 -0.11174326
0000d0 24 22 93 3c fb aa 06 be 83 9a ba bb 07 56 b1 3d
       0.017960615 -0.13151161 -0.0056946888 0.086589865
0000e0 e5 10 de bc 6a 11 e2 bc 20 4e 34 3c 81 aa 60 bd
       -0.027107665 -0.027596194 0.011004955 -0.054850105
0000f0 44 a4 55 bc 5b b6 3d bd 95 8a 32 be 9b 62 24 be
       -0.013039652 -0.046316486 -0.17435677 -0.1605324
000100 30 d9 9f 3d 7d ef 4e 3d 5a 9d 86 bc 8b f4 ab 3d
       0.07805097 0.050521363 -0.016432453 0.08396252
000110 59 18 34 be 62 18 87 bd ca 81 cf bd 93 ff c1 bc
       -0.17587413 -0.065964475 -0.10132177 -0.023681438
000120 36 1f d7 bd af f3 2c bd a0 84 18 3c a3 82 1b bc
       -0.10504 -0.042224582 0.009308964 -0.009491595
000130 7c a2 ef 3c af fa 44 3d b6 96 1b 3e e5 d6 44 3e
       0.029252283 0.048090633 0.1519421 0.19222601
000140 2b 03 02 bd 20 24 cf bd 0e 81 61 bd 67 29 b8 bd
       -0.031741302 -0.10114312 -0.055054717 -0.08992272
000150 15 80 96 3d 13 93 45 3c 1c 88 8e bd 40 bb b5 bd
       0.073486485 0.012058991 -0.069595546 -0.08873606
000160 95 bf f3 3d 7c 4e 8d bd b0 26 a8 3c 79 0b 9e 3d
       0.11901776 -0.06899735 0.02052626 0.07717032
000170 d1 ae 21 3e 14 0e 20 3e 4b 6b 9d bd 11 20 01 3e
       0.15789343 0.1563037 -0.0768648 0.12609889
000180 0f 72 4e 3d 2a 3e 2d bd 59 16 2c 3e af 11 8e bc
       0.050401744 -0.042295612 0.168054 -0.017342417
000190 ab aa 40 be f7 36 1e 3d 67 a1 3d bb 06 11 54 bd
       -0.18815105 0.038626637 -0.0028935315 -0.051774047
0001a0 fd b8 46 3d 28 6c 47 3e 84 cb 46 be df 6f 40 be
       0.048516262 0.19474852 -0.19413573 -0.18792675
0001b0 50 eb e1 bd 58 08 8c bd 12 79 24 3e e9 2e 40 3c
       -0.110312104 -0.06837529 0.1606181 0.011729934
0001c0 9d 5f b7 3d 3a c6 4d 3e 95 c5 e5 3b 76 1c 1a 3e
       0.08953784 0.20095149 0.007012079 0.1504992
0001d0 04 1f 86 bd 86 43 bd 3d dd 31 07 3e 8c 92 00 bc
       -0.065488845 0.09241395 0.13202615 -0.0078474395
0001e0 03 dc d0 ba 76 d6 35 3e f1 c9 8e 3d 99 42 e1 3d
       -0.0015934709 0.17757592 0.06972111 0.109990306
0001f0 14 5f 81 bd d8 08 05 3e f0 7f eb bd 71 81 b5 bc
       -0.06316963 0.12991655 -0.114990115 -0.022156449
000200 54 47 03 3c 76 f1 70 3d f9 68 4b 3d 85 6c a5 3d
       0.008012611 0.058824025 0.049660657 0.08077339
000210 ee f5 92 3d b4 36 04 3e de bb e5 bc 53 c9 35 bc
       0.071758136 0.12911493 -0.028043684 -0.011095363
000220 4d 2e 63 3d 8d 45 cb 3d 02 0f 88 3d cd 49 29 3e
       0.055464078 0.09925375 0.066434875 0.16532059
000230 6c c0 49 3e 27 70 37 3e 24 86 b3 bd 64 a4 11 3e
       0.1970231 0.17913876 -0.0876582 0.14222866
000240 24 9e aa 3d 9b 87 2e 3d 49 fb 02 3e 54 81 35 3d
       0.08330944 0.042609792 0.1279117 0.04431279
000250 c1 34 36 ba c9 8a b5 bd 84 e2 90 bd 6d 48 d2 bd
       -0.000695061 -0.08864362 -0.070744544 -0.1026772
000260 43 bc 22 be a5 ce 22 3e b7 df dc 3d 25 03 8c 3d
       -0.15892129 0.15899141 0.10784858 0.06836537
000270 cd 99 ab 3c f9 4c ea bd 7a df c4 3d 87 a4 49 3e
       0.020947361 -0.114404626 0.09612937 0.19691668
