modello_deepar/models/DeepAR/W1/gluon_ts/prediction-net-state.pt (torch, 98912 bytes, 11 tensors)

model.param_proj.proj.0.weight f4 [1, 40]
0.20556897 -0.25283977 -0.10021547 0.13441682 -0.01510485 0.32991108 0.5018802 0.22305281
0.008766992 0.047662836 0.11145435 0.08457846 -0.13837746 -0.2872775 0.060714982 -0.051828373
-0.3337497 0.058766246 0.21622843 -0.20625517 0.05916146 -0.454376 0.07661276 0.19037327
0.1831672 -0.08891061 -0.11078295 0.107710674 0.143653 0.041038375 -0.24088807 0.5056805
0.13481478 -0.32735026 -0.29907843 0.39494726 -0.9851259 -0.51602167 0.123517536 -0.13173011
00000000: ac80 523e 3774 81be c53d cdbd 90a4 093e
00000010: 557a 77bc 1bea a83e 397b 003f f567 643e
00000020: 6ea3 0f3c 1b3a 433d 2e42 e43d 7937 ad3d
00000030: d2b2 0dbe 0916 93be 46b0 783d fd49 54bd
00000040: 3ee1 aabe e0b4 703d fc6a 5d3e 8e34 53be
00000050: 4953 723d f9a3 e8be 27e7 9c3d 36f1 423e
00000060: 2f90 3b3e c416 b6bd 2ce2 e2bd 6a97 dc3d
00000070: c619 133e db17 283d 5dab 76be 4774 013f
00000080: e30c 0a3e 749a a7be cf20 99be 8736 ca3e
00000090: 3631 7cbf ff19 04bf c3f6 fc3d 42e4 06be

model.param_proj.proj.1.weight f4 [1, 40]
-0.10921271 0.1081717 -0.13618147 0.05216781 0.1297137 0.07634703 -0.08469932 0.074115545
0.17260566 -0.049264945 0.19595477 -0.16850682 0.13792852 0.21574518 0.11440136 0.09120025
0.02894042 0.14940165 0.008265975 -0.11045038 -0.077151455 0.069521554 0.15941952 -0.07642468
0.05531226 -0.15526263 0.1395085 0.16264647 0.0919186 0.15183344 -0.14044076 -0.058537543
0.13085733 -0.021469057 0.0309316 -0.24964316 0.07160682 -0.23313427 0.012004258 0.09985435
00000000: eaaa dfbd 2089 dd3d 2873 0bbe eaad 553d
00000010: abd3 043e d55b 9c3d d676 adbd e4c9 973d
00000020: 8abf 303e 0aca 49bd 5ea8 483e 0d8d 2cbe
00000030: 223d 0d3e 4eec 5c3e 434b ea3d 32c7 ba3d
00000040: 7614 ed3c bffc 183e 036e 073c cf33 e2bd
00000050: 9501 9ebd 5161 8e3d df3e 233e 8b84 9cbd
00000060: 1c8f 623d 2bfd 1ebe 51db 0e3e cc8c 263e
00000070: d23f bc3d 3a7a 1b3e b4cf 0fbe 10c5 6fbd
00000080: 77ff 053e e0df afbc 4464 fd3c 75a2 7fbe
00000090: 99a6 923d c0ba 6ebe 82ad 443c 7080 cc3d

model.param_proj.proj.2.weight f4 [1, 40]
-0.053708334 0.025650172 0.14642781 -0.18521902 -0.093080685 -0.106394514 -0.18190362 -0.23593228
-0.113954194 -0.103816584 0.03812442 -0.043404672 0.057218943 0.2143674 -0.05216849 -0.054791667
0.24180888 -0.19224574 -0.18369447 0.025113609 -0.1232662 0.044853818 -0.10652111 0.013428755
-0.101616666 0.08083338 0.21908188 -0.14836699 -0.2131352 -0.07276527 0.09018882 -0.24178632
0.009300769 0.23361543 0.42055348 -0.36180913 0.5878025 0.34633467 0.09905989 0.08248965
00000000: 45fd 5bbd 4f20 d23c 2cf1 153e 0eaa 3dbe
00000010: 16a1 bebd 5ee5 d9bd f144 3abe 3b98 71be
00000020: d160 e9bd ca9d d4bd 5a28 1c3d 19c9 31bd
00000030: 695e 6a3d 2183 5b3e a0ae 55bd 3a6d 60bd
00000040: bf9c 773e 11dc 44be 671a 3cbe 0ebb cd3c
00000050: fd72 fcbd a3b8 373d bd27 dabd 4804 5c3c
00000060: 661c d0bd f98b a53d 0057 603e 84ed 17be
00000070: 1d40 5abe f505 95bd ebb4 b83d d596 77be
00000080: 4162 183c e238 6f3e c952 d73e 0c3f b9be
00000090: 3a7a 163f c752 b13e e9df ca3d 55f0 a83d

model.rnn.weight_ih_l0 f4 [160, 21]
0.3290998 -0.016378261 0.11342419 0.031883173 0.12750679 0.14904585 0.22990085 0.046643514
0.2527789 0.2513615 0.05479854 0.016281068 0.043985456 -0.22969523 -0.059537705 -0.044342022
0.0066646636 0.025379203 -0.030000841 0.26027858 0.05170816 -0.08918466 0.20328611 0.2653965
0.16132042 0.29657313 0.17622752 0.13807884 0.2269913 0.11121881 0.07874483 0.24648829
0.24916378 0.1602217 0.14831488 0.0401351 0.05436132 -0.28059784 0.026677908 -0.011857564
0.19419207 0.22540005 0.12555233 0.23845337 -0.09815529 0.11220026 0.13655254 -0.21869856
0.19303788 0.13669984 0.15990865 -0.23028564 0.13740183 0.20693696 0.040242136 0.10548747
0.06867867 0.051277895 -0.21564518 0.039681725 0.13538957 0.39485332 0.1188386 0.098440975
0.06962074 0.23884694 0.1450695 0.11372011 0.058320194 0.18030952 0.1644035 0.14013001
0.1332196 0.0016844193 0.04960855 0.1416307 0.16559628 0.19852296 -0.117894486 -0.11626962
0.023470087 0.13066484 -0.34551582 -0.011873065 0.18103191 0.12680708 0.095351584 0.24139392
0.20152703 -0.07882824 0.12006672 0.0119182905 0.29029846 0.055666845 -0.030737815 0.23829325
0.021630988 0.14159265 0.0061229854 0.06423887 -0.08143134 0.034049835 0.123513766 -0.2784787
0.15685819 0.13742684 -0.10701611 -0.08726571 -0.123863354 0.11176456 0.09974523 0.19272877
0.14043103 0.23724335 0.26841822 -0.07577137 0.12864229 -0.0011883634 -0.089129515 0.27455553
0.012526058 -0.05038986 0.03777473 -0.02808907 -0.054909553 -0.054741394 0.16640943 0.16369891
0.13259245 0.042250264 0.16257066 0.27090448 -0.03240056 0.0218331 -0.13682555 0.015376936
0.070414096 0.10651208 -0.12078985 0.11542082 0.08121933 0.008359725 -0.14999345 0.0006285793
0.2387288 -0.01630302 0.060124144 0.24436198 -0.06400035 -0.12905274 0.035812486 0.01600863
0.01861822 0.22320338 0.004585654 0.15035418 0.22626029 0.17792311 0.15013705 0.25459003
0.32336873 0.13373008 0.24524093 0.007299017 -0.04514292 0.16804424 0.111722656 0.09049948
0.14560683 0.17999378 0.26338634 0.16868256 0.24156074 0.01787216 0.1405999 -0.035280436
0.2661002 0.049977105 0.19372179 0.1802547 0.06820258 -0.11520836 0.16253638 0.0021783907
-0.13907449 -0.013630991 0.16848901 0.13421978 0.2573388 -0.19516613 -0.049577303 -0.014668388
-0.14957891 -0.068036936 -0.08632032 -0.09613332 0.17989117 -0.08067027 -0.10035181 0.23942511
0.17137454 0.50659204 0.1718165 0.13830172 0.16947676 -0.21186285 0.05312018 -0.021212827
-0.00934837 0.121569045 0.049946852 0.13839379 0.17243883 0.23006964 -0.023908019 0.06640638
0.23184218 0.1182753 -0.09558323 -0.06262513 -0.047378078 0.035879605 -0.1344481 0.09736767
-0.020862168 0.025492407 -0.13861625 0.008514037 -0.00058328 -0.24337143 -0.009034388 0.09918938
0.09377938 0.007997628 0.038956758 0.105018586 0.11208567 0.0018088105 0.0617638 0.030501528
-0.25164583 -0.03751268 0.17465545 -0.13370821 -0.018273063 0.32350725 0.18889508 -0.07583824
0.029517377 0.04025058 -0.579614 -0.007785736 0.20244427 -0.032754853 0.20220858 0.094217494
00000000: c57f a83e b42b 86bc f14a e83d ee97 023d
00000010: 2491 023e 7a9f 183e 216b 6b3e 450d 3f3d
00000020: 3c6c 813e 74b2 803e 6f74 603d e05f 853c
00000030: 182a 343d 3a35 6bbe cfdd 73bd fb9f 35bd
00000040: 4063 da3b 0ce8 cf3c 53c4 f5bc 3c43 853e
00000050: f0cb 533d 72a6 b6bd 3c2a 503e 0de2 873e
00000060: 2e31 253e 6fd8 973e fd74 343e 8a64 0d3e
00000070: 6870 683e b0c6 e33d f844 a13d 6d67 7c3e
00000080: ca24 7f3e 2811 243e dbdf 173e b464 243d
00000090: faa9 5e3d 85aa 8fbe a18b da3c 3a46 42bc
000000a0: 49da 463e 45cf 663e ca90 003e 1f2d 743e
000000b0: a405 c9bd 40c9 e53d 6ed4 0b3e 84f2 5fbe
000000c0: b9ab 453e 0bfb 0b3e 18bf 233e 00d0 6bbe
000000d0: 11b3 0c3e 48e7 533e f0d4 243d d109 d83d
000000e0: 67a7 8c3d c508 523d 17d2 5cbe 4e89 223d
000000f0: 90a3 0a3e 372a ca3e a761 f33d 6c9b c93d
00000100: 5295 8e3d 4b94 743e 198d 143e 17e6 e83d
00000110: 28e1 6e3d 0fa3 383e 6459 283e 3e7e 0f3e
00000120: b86a 083e bcc7 dc3a 5632 4b3d a307 113e
00000130: 1292 293e 9a49 4b3e aa72 f1bd c41e eebd
00000140: 5744 c03c 01cd 053e 73e7 b0be 3e87 42bc
00000150: 6e60 393e b7d9 013e b147 c33d f82f 773e
00000160: 1a5d 4e3e b370 a1bd 8ae5 f53d ef44 433c
00000170: 00a2 943e eb02 643d dfcd fbbc 2503 743e
00000180: 7833 b13c aafd 103e 53a3 c83b ab8f 833d
00000190: 79c5 a6bd d777 0b3d c9f4 fc3d c394 8ebe
000001a0: 6f9f 203e 9fb9 0c3e 432b dbbd 5db8 b2bd
000001b0: 12ac fdbd d1e4 e43d 3a47 cc3d b15a 453e
000001c0: 27cd 0f3e ecef 723e 1d6e 893e 052e 9bbd
000001d0: ceba 033e dcc2 9bba 8989 b6bd 8b92 8c3e
000001e0: 183a 4d3c 9965 4ebd adb9 1a3d 0d1b e6bc
000001f0: d7e8 60bd 8338 60bd 3c67 2a3e b0a0 273e
00000200: 51c6 073e 9d0e 2d3d ec78 263e feb3 8a3e
00000210: 73b6 04bd 54db b23c ff1b 0cbe 8bef 7b3c
00000220: 4435 903d 0123 da3d ab60 f7bd c061 ec3d
00000230: 5256 a63d 3af7 083c e297 19be 3ec7 243a
00000240: 5375 743e e98d 85bc bc44 763d 073a 7a3e
00000250: 9e12 83bd 6726 04be 1db0 123d 8824 833c
00000260: 3d85 983c 6d8f 643e 4143 963b 72f6 193e
00000270: c7b0 673e 7a31 363e 87bd 193e a059 823e
00000280: 9690 a53e 8af0 083e 7020 7b3e 982c ef3b
00000290: c8e7 38bd ca13 2c3e d9ce e43d cb57 b93d
000002a0: f519 153e 4a50 383e 93da 863e 1fbb 2c3e
000002b0: b35b 773e a368 923c 6cf9 0f3e 3882 10bd
000002c0: 493e 883e cbb4 4c3d 015f 463e b094 383e
000002d0: cbad 8b3d 5cf2 ebbd f06f 263e 55c3 0e3b
000002e0: 8b69 0ebe 8554 5fbc 6288 2c3e e970 093e
000002f0: e9c1 833e a1d9 47be 9211 4bbd ae53 70bc
00000300: 372b 19be f356 8bbd b5c8 b0bd 8ce1 c4bd
00000310: 6435 383e 7436 a5bd 4085 cdbd db2b 753e
00000320: cf7c 2f3e 04b0 013f aaf0 2f3e f79e 0d3e
00000330: 518b 2d3e 93f2 58be 8c94 593d 86c6 adbc
00000340: e829 19bc 31f9 f83d 1295 4c3d 1ab7 0d3e
00000350: ce93 303e 6097 6b3e c0da c3bc 1100 883d
00000360: 0968 6d3e 523a f23d 24c1 c3bd 9b41 80bd
00000370: 840f 42bd 7ef6 123d c3ac 09be b368 c73d
00000380: 23e7 aabc 74d5 d03c 6bf1 0dbe 767e 0b3c
00000390: 42e7 18ba 5c36 79be f804 14bc cd23 cb3d
000003a0: 670f c03d 7c08 033c 1f91 1f3d fc13 d73d
000003b0: 2c8d e53d 9c15 ed3a 0afc 7c3d 57de f93c
000003c0: b9d7 80be e5a6 19bd e1d8 323e ceea 08be
000003d0: 64b1 95bc bea2 a53e b66d 413e 1451 9bbd
000003e0: 6dce f13c cbdd 243d 9561 14bf 7d1f ffbb
000003f0: 8d4d 4f3e f429 06bd c40f 4f3e 1af5 c03d

model.rnn.weight_hh_l0 f4 [160, 40]
0.13825893 0.15043753 0.15415767 0.024069967 -0.062571995 0.10390772 0.09220814 -0.049125448
-0.047208067 0.016285002 0.13086958 -0.019924289 -0.10026777 0.10629777 -0.08929005 -0.04432314
-0.14403957 -0.14158641 -0.038192127 -0.0753082 0.09235429 -0.11569766 0.038078237 0.025376342
0.06870302 -0.14863984 -0.15530898 -0.1339918 -0.11610363 0.061521932 0.03466671 -0.007533179
0.15147564 -0.08204289 -0.15668847 -0.11175561 0.10778631 -9.6877164e-05 0.25264028 0.12209116
-0.12067432 0.073497854 -0.029140085 0.08423042 0.081049226 -0.07448205 0.089188665 0.089011975
-0.043102622 -0.18358748 -0.11936454 0.04324008 0.07419995 -0.18936014 0.04185487 -0.0060185716
-0.03572538 0.07804286 0.05429974 0.108987324 0.02587482 0.09326517 0.12276638 0.0174873
-0.28168803 0.06696157 -0.22528756 0.2031824 0.11883734 0.24500635 0.0860421 -0.10750632
7.242939e-05 0.227345 0.20947188 -0.0061811698 -0.123871975 -0.04356602 -0.09567783 -0.19642462
0.006792407 0.26376727 -0.085883364 -0.06861314 -0.06748841 0.30097115 0.25536597 0.05913807
0.28974953 -0.27605912 -0.27877048 0.28019905 0.3429653 0.13512692 0.26208952 0.087741375
0.10215232 0.0407298 -0.03212615 0.13095579 0.14325066 -0.05848747 0.15661916 -0.31759456
0.07709831 0.24082062 -0.18656476 0.16989456 -0.059665404 0.27052647 0.256261 0.13953432
-0.1415299 0.1458937 -0.017721629 0.07307044 -0.19125055 0.021235062 -0.19590783 -0.23019862
0.020621099 -0.101972 0.04932679 0.080840506 -0.08801227 -0.031023324 -0.049862258 -0.083123975
-0.12407124 -0.112608 -0.20144987 0.20857778 -0.04820126 0.07265561 -0.04557728 -0.2723859
-0.227371 -0.075623676 0.019054502 -0.03296187 0.026212487 -0.02966634 0.12944454 -0.006295927
0.0106022395 0.08994836 -0.11091704 -0.046950087 0.021154394 0.018430792 -0.080628544 0.12611483
-0.19360718 -0.09086104 0.032868784 0.088438556 -0.099142216 0.08694214 0.037038263 -0.20881309
0.015874056 0.18689239 -0.1057433 0.011130648 -0.20857933 0.2849972 0.18061619 -0.094259724
0.03421682 -0.035301123 -0.10303614 -0.03481551 0.11441424 0.2778171 -0.02914827 0.10348059
-0.36462736 -0.13818169 0.05012225 0.17866206 0.06459431 0.2378484 0.020443898 -0.136011
-0.24398947 0.27735883 -0.26175743 0.12685157 0.01472801 0.30449948 0.18199417 0.1041619
-0.0766331 0.06974314 0.013518051 -0.22886686 -0.13390794 -0.1249214 -0.045334917 -0.27870056
-0.10371488 0.03863501 0.05435121 -0.19519147 -0.14528772 -0.060792763 0.0025475048 0.06317535
0.058396682 -0.11011596 -0.19724998 0.07948713 0.0070205876 0.16148959 0.038128905 0.14280877
0.01904016 -0.025103262 0.06987882 0.14964005 0.018949497 -0.037863787 0.08521201 0.03617613
-0.071951434 -0.07670232 0.062141497 0.071842946 0.11142382 -0.030174173 0.019669298 0.20731162
-0.024224222 0.08911134 -0.2057956 -0.08123685 0.048243634 0.053058263 -0.026039978 0.0064657205
0.014699525 -0.11393717 -0.02052112 0.0064851334 -0.025238208 -0.25584385 0.05023937 -0.2520772
-0.15806732 0.19802727 0.07927553 -0.19918916 -0.15227053 0.062087018 0.1361665 0.08176787
00000000: c093 0d3e 4c0c 1a3e 82db 1d3e 612e c53c
00000010: bf25 80bd 92cd d43d 9fd7 bc3d c437 49bd
00000020: 3f5d 41bd 2068 853c ad02 063e 4338 a3bc
00000030: 3059 cdbd a5b2 d93d b4dd b6bd 2e8c 35bd
00000040: 1c7f 13be 07fc 10be 596f 1cbd 303b 9abd
00000050: 3f24 bd3d e5f2 ecbd edf7 1b3d 0ce2 cf3c
00000060: 2bb4 8c3d 0b35 18be 5109 1fbe 2535 09be
00000070: bdc7 edbd 6cfe 7b3d aefe 0d3d e3d8 f6bb
00000080: 6e1c 1b3e 1a06 a8bd f172 20be 20e0 e4bd
00000090: 12bf dc3d 882a cbb8 115a 813e ee0a fa3d
000000a0: 1924 f7bd 0b86 963d 30b7 eebc 0081 ac3d
000000b0: 23fd a53d 0c8a 98bd 8ca8 b63d e94b b63d
000000c0: 608c 30bd 5bfe 3bbe 6575 f4bd 831c 313d
000000d0: 25f6 973d a0e7 41be 0370 2b3d 7037 c5bb
000000e0: c754 12bd efd4 9f3d 6769 5e3d bf34 df3d
000000f0: 6ef7 d33c cf01 bf3d f16c fb3d 8741 8f3c
00000100: 6a39 90be 2623 893d c8b1 66be 0c0f 503e
00000110: fe60 f33d f2e2 7a3e d736 b03d 462c dcbd
00000120: 3ce5 9738 21cd 683e cc7f 563e 698b cabb
00000130: 97b0 fdbd 4872 32bd bdf2 c3bd 8923 49be
00000140: d792 de3b 810c 873e 9ee3 afbd 0c85 8cbd
00000150: 5d37 8abd e418 9a3e 54bf 823e c33a 723d
00000160: 0d5a 943e 9f57 8dbe 01bb 8ebe 4076 8f3e
00000170: 2699 af3e b65e 0a3e 9930 863e c0b1 b33d
00000180: 3c35 d13d 4ad4 263d b696 03bd 4619 063e
00000190: 4db0 123e 8f90 6fbd c660 203e c19b a2be
000001a0: b8e5 9d3d ae99 763e d50a 3fbe d7f8 2d3e
000001b0: b663 74bd 7282 8a3e a434 833e 16e2 0e3e
000001c0: 37ed 10be 2865 153e f32c 91bc f4a5 953d
000001d0: 2fd7 43be 27f5 ad3c 109c 48be 30b9 6bbe
000001e0: 94ed a83c b2d6 d0bd e30a 4a3d b58f a53d
000001f0: c73f b4bd a024 febc 5e3c 4cbd e73c aabd
00000200: 1019 febd 069f e6bd e048 4ebe 6a95 553e
00000210: af6e 45bd 77cc 943d 3eaf 3abd 2a76 8bbe
00000220: f2d3 68be 96e0 9abd 3018 9c3c 0703 07bd
00000230: 92bb d63c d306 f3bc 1c8d 043e 104e cebb
00000240: 04b5 2d3c d936 b83d 7928 e3bd bc4e 40bd
00000250: fb4b ad3c 2cfc 963c 9420 a5bd 3f24 013e
00000260: f640 46be 5a15 babd 6ba1 063d 461f b53d
00000270: 130b cbbd b80e b23d 6fb5 173d 19d3 55be
00000280: 4f0a 823c b860 3f3e f18f d8bd 525d 363c
00000290: d295 55be 27eb 913e 73f3 383e 3e0b c1bd
000002a0: f026 0c3d e997 10bd 9d04 d3bd b59a 0ebd
000002b0: 0352 ea3d 0b3e 8e3e 5ac8 eebc a2ed d33d
000002c0: 70b0 babe 807f 0dbe fd4c 4d3d 30f3 363e
000002d0: 064a 843d 888e 733e f679 a73c 7846 0bbe
000002e0: 60d8 79be fa01 8e3e 1205 86be 61e5 013e
000002f0: c04d 713c 5be7 9b3e ae5c 3a3e d652 d53d
00000300: d1f1 9cbd 7ed5 8e3d d17a 5d3c 135c 6abe
00000310: 2a1f 09be cad6 ffbd 1bb1 39bd d7b1 8ebe
00000320: 7868 d4bd bf3f 1e3d 609f 5e3d 46e0 47be
00000330: 4ec6 14be d501 79bd 0af4 263b 1462 813d
00000340: 5c31 6f3d 7a84 e1bd e6fb 49be 26ca a23d
00000350: f50c e63b 875d 253e 0e2d 1c3d 763c 123e
00000360: 1cfa 9b3c 5ba5 cdbc a01c 8f3d 3e3b 193e
00000370: fa3b 9b3c 0f17 1bbd a283 ae3d 6c2d 143d
00000380: 465b 93bd 1b16 9dbd 1588 7e3d 6522 933d
00000390: 2c32 e43d d42f f7bc 8221 a13c 7f49 543e
000003a0: e071 c6bc 0280 b63d 15bc 52be 815f a6bd
000003b0: 1e9b 453d 9f53 593d cb51 d5bc 65de d33b
000003c0: 47d6 703c e457 e9bd e81b a8bc 3e81 d43b
000003d0: 5cc0 cebc f7fd 82be ccc7 4d3d 4310 81be
000003e0: 66dc 21be a9c7 4a3e 365b a23d 3ef8 4bbe
000003f0: ceec 1bbe f54e 7e3d 3b6f 0b3e ea75 a73d

model.rnn.bias_ih_l0 f4 [160]
0.032462895 -0.030528212 0.13148567 0.23578185 0.19148466 0.12555714 -0.09416451 0.2536725
0.15745483 0.052008145 -0.018601673 -0.01891262 -0.023813363 0.1442728 -0.028814057 0.07495028
0.20744999 0.19234012 0.17700522 0.061203014 0.09412241 0.29422045 0.19215654 0.03389888
0.0633782 0.25489846 0.06624648 0.065808825 0.24123897 0.17365283 -0.053391583 0.20693351
0.15464418 0.085054 0.24970138 0.20303069 0.08152433 0.024439296 0.33164188 0.06451429
-0.18302213 0.10435465 -0.089492 0.16707167 -0.08027345 -0.05258669 0.14160419 0.132676
0.20386434 0.16050242 -0.10581225 -0.00543099 0.17409635 0.091273494 0.011557755 0.062074568
-0.15851292 -0.047642667 -0.12374862 0.034731373 0.15851724 0.16171765 0.040104225 0.120132305
-0.08197689 0.13439223 -0.13803028 0.0686854 -0.12147627 0.029779242 -0.050274342 0.0770306
0.107357934 0.04272146 0.039848957 0.13486499 -0.13245657 0.05822772 0.15356934 0.145704
-0.05174729 0.11840799 0.09362845 0.01600737 -0.08595626 -0.048664484 -0.017124493 -0.024310445
-0.06406047 -0.22619963 -0.16042066 0.05676194 0.09102488 -0.16306114 0.004297374 0.08506722
0.00023763384 -0.0028138198 -0.04232791 0.0691944 -0.03300255 -0.1160407 0.058944523 0.04128243
0.15650521 0.16870889 -0.10254755 0.059115503 -0.093738794 0.20210181 -0.0065919287 -0.15917413
-0.027519166 -0.049064916 0.14407958 0.09518945 0.04379792 0.07637293 -0.17273974 -0.26123837
-0.14064729 0.13404743 0.14303507 -0.059081826 -0.019547388 0.1026384 -0.12765741 0.21918195
0.0420171 -0.003993074 0.1756756 0.017431496 0.004451532 0.12343184 0.20220579 0.19937454
0.22485587 -0.09276934 0.070656635 -0.0018686792 0.0027173103 0.124930605 -0.055865612 0.16667013
0.0860692 0.027543545 -0.06644803 0.18459164 0.06854322 0.17463174 0.09405725 0.10772875
0.04871543 0.025209442 0.37586465 0.22945915 0.09519149 0.028153291 0.16448916 -0.11122358
00000000: d0f7 043d 4d16 fabc 2ea4 063e cc70 713e
00000010: 8e14 443e 0d92 003e 53d9 c0bd 5de1 813e
00000020: d73b 213e 7e06 553d 8962 98bc a4ee 9abc
00000030: 3e14 c3bc 40bc 133e 750b ecbc 887f 993d
00000040: c56d 543e cff4 443e db40 353e 03b0 7a3d
00000050: 40c3 c03d 10a4 963e afc4 443e 8dd9 0a3d
00000060: 6ecc 813d 0d82 823e 3cac 873d c7c6 863d
00000070: 5907 773e 0cd2 313e 22b1 5abd 61e6 533e
00000080: 0b5b 1e3e cb30 ae3d b8b1 7f3e 47e7 4f3e
00000090: 3af6 a63d eb34 c83c f7cc a93e 1120 843d
000000a0: 276a 3bbe e4b7 d53d 9547 b7bd d614 2b3e
000000b0: 6866 a4bd 2465 57bd b000 113e 38dc 073e
000000c0: d0c1 503e bf5a 243e 18b4 d8bd 72f6 b1bb
000000d0: 5046 323e 99ed ba3d bd5c 3d3c e741 7e3d
000000e0: 3651 22be f524 43bd eb6f fdbd 7c42 0e3d
000000f0: 5852 223e 5099 253e 5444 243d ed07 f63d
00000100: 80e3 a7bd 1e9e 093e cf57 0dbe eeaa 8c3d
00000110: 8dc8 f8bd 99f3 f33c 78ec 4dbd 38c2 9d3d
00000120: 7ade db3d b3fc 2e3d a938 233d 0c1a 0a3e
00000130: b2a2 07be 3180 6e3d 4841 1d3e 6e33 153e
00000140: f7f4 53bd e37f f23d 46c0 bf3d e321 833c
00000150: d609 b0bd 6954 47bd aa48 8cbc b326 c7bc
00000160: 2332 83bd e0a0 67be 5045 24be 357f 683d
00000170: 416b ba3d 80f9 26be fcd0 8c3b b937 ae3d
00000180: 592d 7939 1068 38bb 0860 2dbd cbb5 8d3d
00000190: af2d 07bd bfa6 edbd d06f 713d c417 293d
000001a0: e742 203e 06c2 2c3e 7304 d2bd 1923 723d
000001b0: 20fa bfbd c7f3 4e3e 1b01 d8bb 8bfe 22be
000001c0: e06f e1bc 4bf8 48bd 9989 133e b0f2 c23d
000001d0: 7365 333d 6969 9c3d b0e2 30be 09c1 85be
000001e0: d805 10be bb43 093e c977 123e c9ff 71bd
000001f0: d821 a0bc 1534 d23d a0b8 02be 3c71 603e
00000200: 1f1a 2c3d 55d8 82bb 4ee4 333e 7fcc 8e3c
00000210: 28de 913b d5c9 fc3d 090f 4f3e d728 4c3e
00000220: 9e40 663e dafd bdbd 6db4 903d 78ee f4ba
00000230: e714 323b 9edb ff3d 57d3 64bd 93ab 2a3e
00000240: 0c45 b03d 00a3 e13c e815 88bd 9705 3d3e
00000250: 6360 8c3d aad2 323e 16a1 c03d e4a0 dc3d
00000260: d589 473d 0884 ce3c 5571 c03e 57f7 6a3e
00000270: c2f3 c23d bba1 e63c d96f 283e 30c9 e3bd

model.rnn.bias_hh_l0 f4 [160]
0.0094472 -0.033549994 0.0063636354 0.13105 0.037333604 -0.015175491 0.17804517 0.13719869
0.21790601 0.1538548 0.17300849 0.2129281 -0.021402791 0.13814189 0.015366136 0.12353274
0.091451176 0.0028106768 0.30646044 0.25478506 -0.012840899 0.27348757 0.21770254 0.0016082362
0.10291605 0.07505117 0.35252845 0.34272295 0.14641628 0.027186671 0.081618056 0.1547715
0.07348582 0.0015679203 0.3265425 0.19818477 -0.1342572 0.043614578 0.20166738 0.30233017
-0.03081575 -0.0389513 0.109894276 0.0064898045 -0.11038157 -0.0014456192 0.14252765 -0.09372548
0.064835355 0.027605556 -0.07584204 -0.038625516 -0.0017875498 0.020260246 -0.18815789 0.09417563
0.019501192 0.14290299 -0.15860638 0.017102817 0.13563477 0.12769468 0.046769794 -0.11431632
-0.062792554 0.12765375 -0.08657687 0.07901047 0.09242939 0.14987582 0.12294492 0.13009624
0.15355992 -0.018709151 -0.11195018 0.09757614 -0.14010546 0.051010597 0.20608427 0.1723081
-0.084876865 0.10826813 0.022437477 -0.13746022 -0.054878652 -0.0910751 -0.03788025 -0.1431181
0.018816229 -0.14722544 0.060841523 0.06590954 0.13559087 -0.013239086 0.1313137 -0.015074725
-0.15021077 0.13841262 0.019553352 -0.010834503 -0.11379165 -0.13319866 0.14324202 0.08390871
0.090712905 0.111552306 0.083428964 -0.11573585 -0.15573968 0.02393343 0.16021857 -0.0787246
-0.29014564 0.14716709 0.1268115 -0.15501502 0.031487882 -0.037679467 -0.13833559 -0.08687203
0.056140084 0.040935285 -0.09397517 0.024217665 -0.03606577 -0.064342946 0.0999723 0.25837743
0.24678634 -0.08752091 0.14126574 0.04366393 -0.052829772 0.09624476 0.24690355 0.27828982
0.18986651 0.15109445 -0.09153398 0.17242259 0.030819876 0.079327375 0.032905098 0.0035190282
0.17723435 0.06126232 0.093458876 0.17555295 -0.003353021 0.18498495 -0.06838727 0.07605331
0.1674453 -0.11410749 0.0866594 0.31062728 0.12178452 0.18082844 0.025650736 0.03896082
00000000: 6ec8 1a3c b86b 09bd 0b86 d03b f931 063e
00000010: 1feb 183d 9fa2 78bc 7951 363e d07d 0c3e
00000020: c122 5f3e 1d8c 1d3e 2329 313e d309 5a3e
00000030: e854 afbc 1175 0d3e 3fc2 7b3c bcfe fc3d
00000040: c14a bb3d 5533 383b 62e8 9c3e 3073 823e
00000050: a262 52bc 9006 8c3e 6aed 5e3e 74cb d23a
00000060: a6c5 d23d 6eb4 993d 9c7e b43e 6279 af3e
00000070: 26ee 153e 95b6 de3c 5e27 a73d 6c7c 1e3e
00000080: bc7f 963d ad82 cd3a 9430 a73e f3f0 4a3e
00000090: b87a 09be 33a5 323d e581 4e3e 05cb 9a3e
000000a0: 5071 fcbc 668b 1fbd 4010 e13d 6da8 d43b
000000b0: bc0f e2bd ee7a bdba c5f2 113e 25f3 bfbd
000000c0: 66c8 843d 0c25 e23c 1253 9bbd ca35 1ebd
000000d0: 384c eaba d1f8 a53c 76ac 40be 27df c03d
000000e0: f7c0 9f3c 2955 123e b669 22be 351b 8c3c
000000f0: d7e3 0a3e 65c2 023e af91 3f3d ad1e eabd
00000100: 6299 80bd aab7 023e 374f b1bd 3ed0 a13d
00000110: 9f4b bd3d 0c79 193e 8cca fb3d f337 053e
00000120: d03e 1d3e ef43 99bc 2346 e5bd 00d6 c73d
00000130: ce77 0fbe 7df0 503d c107 533e 8971 303e
00000140: ecd3 adbd aebb dd3d cdce b73c 5fc2 0cbe
00000150: 70c8 60bd 9585 babd 5228 1bbd 8d8d 12be
00000160: 7e24 9a3c 44c2 16be f634 793d 95fb 863d
00000170: 55d8 0a3e c0e8 58bc 1977 063e fbfb 76bc
00000180: dad0 19be 0abc 0d3e 5a2e a03c 3383 31bc
00000190: 990b e9bd 3b65 08be 09ae 123e 54d8 ab3d
000001a0: b0c7 b93d 8975 e43d cedc aa3d eb06 edbd
000001b0: 397a 1fbe 0a10 c43c 5610 243e 5d3a a1bd
000001c0: f88d 94be f8b2 163e e0da 013e 42bc 1ebe
000001d0: 70f9 003d c955 1abd d8a7 0dbe f6e9 b1bd
000001e0: 25f3 653d c2ab 273d 0e76 c0bd 2064 c63c
000001f0: b3b9 13bd 3cc6 83bd 47be cc3d 0c4a 843e
00000200: 8fb5 7c3e 2a3e b3bd f7a7 103e f3d8 323d
00000210: 0864 58bd f91b c53d 49d4 7c3e 017c 8e3e
00000220: 5e6c 423e 81b8 1a3e 2b76 bbbd 8c8f 303e
00000230: f779 fc3c 6476 a23d 7fc7 063d 7f9f 663b
00000240: ec7c 353e 33ee 7a3d 5e67 bf3d 27c4 333e
00000250: 5cbe 5bbb b26c 3d3e a00e 8cbd d6c1 9b3d
00000260: c876 2b3e 30b1 e9bd 7c7a b13d 8a0a 9f3e
00000270: 2a6a f93d 172b 393e 7e21 d23c 6195 1f3d

model.rnn.weight_ih_l1 f4 [160, 40]
-0.049712177 -0.12646292 0.109966844 -0.08697182 -0.008145253 0.061827954 0.11824469 0.039850414
0.050099354 -0.14128402 0.11739878 -0.08967132 -0.14868017 -0.07528608 0.21862745 -0.096190505
0.058762383 0.08246203 -0.15144938 -0.015086512 -0.019743172 0.098941654 0.086599 -0.015479683
-0.16894387 0.02395078 0.17161258 0.05050022 -0.09256765 -0.008845701 0.008314917 -0.0071489196
0.021166563 -0.057429746 -0.19379494 -0.12220519 -0.03766697 -0.08174141 -0.1655624 0.1354182
-0.12674312 -0.052917194 -0.026825108 -0.1475283 -0.0482459 0.10378184 -0.10995341 -0.028386358
-0.01423721 0.062059157 0.11228794 0.051164154 0.13557045 -0.10582475 0.2292651 -0.004867618
-0.20450753 -0.07543507 0.012790688 -0.0002828106 0.16981262 -0.103013575 -0.117544 -0.037284005
-0.07064407 0.17252006 0.014381994 -0.0655547 0.09984132 -0.023999786 0.0061276397 -0.17099833
0.018283889 0.016496118 0.049384147 -0.025961233 0.12670268 0.1101719 0.0133227445 0.002909611
0.037760165 0.18955754 -0.048695873 -0.22998321 0.041159883 0.11654751 0.20638895 0.019418309
0.0022983353 -0.07745152 -0.23002237 0.14760797 0.24152352 0.00039842154 0.22657461 0.0071733263
-0.17173207 0.063111104 0.052228715 0.075204186 -0.024665317 0.045327608 -0.060760915 -0.1508815
-0.18307099 0.016091399 -0.06813787 0.2565955 0.25650245 -0.05449839 0.24166985 0.15492004
-0.09633278 0.046985902 0.06001141 0.06924842 -0.066200994 -0.22547506 -0.0885402 -0.21748401
0.050718054 0.20805873 0.07093525 -0.12975852 -0.09495855 0.27494523 0.008323589 0.03548782
-0.06945024 -0.19320838 -0.0723625 0.16481617 0.07017598 0.0151102925 0.36769828 0.244387
-0.055368494 -0.25524423 0.14974542 0.08184044 0.1324845 0.036209513 0.25936908 -0.25240642
-0.7893224 0.03335736 -0.051905308 0.25568178 0.37977722 0.098363936 0.084013194 0.16834325
-0.19818288 0.1818586 0.24447306 -0.106246635 -0.10496034 -0.2653192 -0.13856041 -0.22294249
0.087252215 0.06316172 0.06730572 0.009425108 -0.21511918 -0.013332055 0.188836 0.09533002
0.05982856 -0.011330388 0.081731156 0.14020598 -0.10231726 0.048135135 0.020291142 0.09428205
-0.13052614 0.0049500763 -0.015320741 0.103492245 -0.00451937 0.13308536 0.10860189 0.022288952
0.027614562 0.117815085 -0.059239596 0.18066293 0.088963896 0.053843174 -0.058191434 0.12998874
0.091581 -0.043876223 0.13221446 0.040121157 -0.19863209 0.0011338646 0.021045867 -0.14418165
-0.05363174 -0.10863532 0.14371482 0.033870276 -0.22494224 0.14158873 -0.0035686307 -0.104989745
-0.047342777 -0.16614455 0.039922416 0.042469252 -0.023209995 0.14527756 -0.11063208 0.23159684
0.063430294 -0.1376242 -0.03853838 -0.041119434 0.12331034 0.021366993 0.05991945 -0.08176474
0.07532961 0.06765125 -0.061549246 0.08044671 0.18018387 0.07311525 0.10230131 0.09091276
-0.04242311 0.021166455 -0.097675756 -0.1688713 0.059426136 -0.18856342 -0.06315019 -0.14413129
-0.21676551 -0.02292481 -0.081281215 -0.1479803 0.08108005 -0.08505648 0.06671789 0.076837435
0.06580944 -0.21567863 0.025635023 0.22140022 -0.06521374 0.17329553 0.35289958 0.21663097
00000000: ff9e 4bbd 7f7f 01be 4c36 e13d 481e b2bd
00000010: ab73 05bc 4f3f 7d3d 462a f23d 303a 233d
00000020: fb34 4d3d c2ac 10be c66e f03d 99a5 b7bd
00000030: 9d3f 18be 972f 9abd e0df 5f3e 87ff c4bd
00000040: d3b0 703d dae1 a83d 8c15 1bbe 6b2d 77bc
00000050: 6fbc a1bc eca1 ca3d d15a b13d 7f9e 7dbc
00000060: 9fff 2cbe 6d34 c43c 35bb 2f3e 52d9 4e3d
00000070: 1c94 bdbd 8fed 10bc 4a3b 083c 7c41 eabb
00000080: 8065 ad3c 743b 6bbd 2e72 46be b746 fabd
00000090: ae48 1abd 0a68 a7bd 3189 29be 12ab 0a3e
000000a0: f3c8 01be b3bf 58bd 54c0 dbbc a911 17be
000000b0: 7e9d 45bd 938b d43d 412f e1bd 828a e8bc
000000c0: 3043 69bc be31 7e3d 38f7 e53d 8191 513d
000000d0: fbd2 0a3e a6ba d8bd 78c4 6a3e 8a80 9fbb
000000e0: 6c6a 51be b47d 9abd 0990 513c 3246 94b9
000000f0: 5ce3 2d3e c8f8 d2bd e9ba f0bd 1db7 18bd
00000100: d7ad 90bd 19a9 303e 74a2 6b3c 8b41 86bd
00000110: 9b79 cc3d 339b c4bc 5eca c83b 301a 2fbe
00000120: 18c8 953c de22 873c 0847 4a3d a7ac d4bc
00000130: 59be 013e cea1 e13d a447 5a3c 2caf 3e3b
00000140: 67aa 1a3d 5f1b 423e 5375 47bd b880 6bbe
00000150: 4497 283d 76b0 ee3d a057 533e 2513 9f3c
00000160: ab9f 163b e79e 9ebd fc8a 6bbe 8b26 173e
00000170: f151 773e 3ce3 d039 2d03 683e 390e eb3b
00000180: 88da 2fbe 6540 813d c7ed 553d a704 9a3d
00000190: eb0e cabc 71a9 393d 70e0 78bd ae80 1abe
000001a0: f676 3bbe 1cd2 833c de8b 8bbd 7c60 833e
000001b0: 4a54 833e b439 5fbd 4d78 773e 5ca3 1e3e
000001c0: 1f4a c5bd 4a74 403d 86ce 753d 1ed2 8d3d
000001d0: 6394 87bd efe2 66be 9054 b5bd 21b4 5ebe
000001e0: bcbd 4f3d 590d 553e 8046 913d 6bdf 04be
000001f0: a179 c2bd 9fc5 8c3e aa5f 083c ad5b 113d
00000200: ed3b 8ebd 6bd8 45be ca32 94bd 92c5 283e
00000210: 6db8 8f3d 2991 773c f342 bc3e 9640 7a3e
00000220: 13ca 62bd 5faf 82be dd56 193e f69b a73d
00000230: 04aa 073e 6d50 143d 06cc 843e 6a3b 81be
00000240: 0811 4abf baa1 083d a99a 54bd b9e8 823e
00000250: 2972 c23e 0873 c93d 1c0f ac3d 2c62 2c3e
00000260: 74f0 4abe 2439 3a3e 2557 7a3e d697 d9bd
00000270: 72f5 d6bd ebd7 87be c8e2 0dbe 094b 64be
00000280: 4ab1 b23d ef5a 813d 95d7 893d c56b 1a3c
00000290: 3448 5cbe b16e 5abc 395e 413e 633c c33d
000002a0: cb0e 753d 17a3 39bc aa62 a73d 2892 0f3e
000002b0: b68b d1bd 5929 453d 9c39 a63c f316 c13d
000002c0: a5a8 05be 4034 a23b d803 7bbc bef3 d33d
000002d0: 3917 94bb 8747 083e ab6a de3d 5297 b63c
000002e0: ef37 e23c 0949 f13d 38a5 72bd b4ff 383e
000002f0: b432 b63d a98a 5c3d 245a 6ebd c51b 053e
00000300: d28e bb3d 8eb7 33bd 3a63 073e 1556 243d
00000310: 3666 4bbe 2f9e 943a 6268 ac3c 5ba4 13be
00000320: f5ac 5bbd 327c debd fa29 133e 8fbb 0a3d
00000330: 4257 66be a3fc 103e b0df 69bb dd04 d7bd
00000340: 80ea 41bd cc21 2abe b085 233d 3df4 2d3d
00000350: e322 bebc a4c3 143e 1293 e2bd b927 6d3e
00000360: bee7 813d 5ced 0cbe 6cda 1dbd da6c 28bd
00000370: 228a fc3d d509 af3c 196e 753d 4674 a7bd
00000380: 6946 9a3d bd8c 8a3d 101b 7cbd 3fc1 a43d
00000390: 1f82 383e 73bd 953d 5983 d13d 7830 ba3d
000003a0: dbc3 2dbd 4665 ad3c 3a0a c8bd 99ec 2cbe
000003b0: d268 733d c516 41be e354 81bd 2797 13be
000003c0: c7f7 5dbe d0cc bbbc c476 a6bd 2688 17be
000003d0: 4c0d a63d 1732 aebd 64a3 883d f25c 9d3d
000003e0: 1ac7 863d dcda 5cbe 8a00 d23c bdb6 623e
000003f0: c88e 85bd 6274 313e 41af b43e 82d4 5d3e

model.rnn.weight_hh_l1 f4 [160, 40]
0.014103691 0.14719182 0.16491048 0.023133613 -0.15379873 -0.002200524 -0.14051278 0.12646629
-0.16552135 0.050912514 0.03233761 -0.115206525 0.067017615 -0.0025228201 0.077111885 0.023731545
0.10095461 0.124739334 0.039079133 0.05642739 0.07846255 0.06333554 0.051706042 0.066129535
-0.09649113 -0.009576159 -0.08925867 -0.07709781 0.059111327 0.14926691 0.089340426 0.023949537
0.040847298 0.030445885 -0.034392126 -0.10002948 0.033357453 -0.09108149 -0.014340446 0.012987402
0.0775687 0.09874116 -0.009843097 -0.1217308 0.20042703 0.05854316 -0.1381761 -0.095198154
-0.10521293 0.1720021 -0.08197244 -0.04719557 0.11600576 -0.065201156 0.13113126 0.18428582
0.11317213 0.08761506 -0.019025601 0.05103149 0.06625572 0.03621493 -0.04468988 0.118326336
-0.070602514 -0.0053494545 0.051087953 0.08712833 -0.064928204 0.20515251 -0.0958404 -0.13396536
-0.021942843 -0.15271974 -0.096774854 0.06436102 0.13613456 -0.107958004 -0.17457719 0.024267407
0.05806713 -0.1619409 -0.1950589 0.1294867 0.14783065 -0.08648124 0.12665288 0.04358237
0.019806975 -0.060012914 -0.02918938 -0.15448481 0.10311541 0.041236144 -0.05934651 0.092535175
0.004564313 0.10132569 -0.07692044 0.09032381 0.067126654 0.05624784 -0.024545182 0.028424582
-0.03525618 -0.10123335 -0.029596264 0.016524276 -0.039163895 0.16944247 -0.1269999 0.12959737
0.10365549 0.099405 0.06652427 0.092796646 -0.07099603 -0.07442626 -0.12934634 0.1771964
0.036596924 0.012598088 0.08112469 0.05456625 0.034379695 0.089247 0.041558884 -0.060143802
0.109772794 -0.088748835 0.16837567 -0.06385877 -0.054787014 0.07460049 0.16651845 -0.083964
-0.06731567 -0.039563656 -0.009758971 -0.17860095 0.1364715 -0.17797936 0.08630748 -0.15435262
0.048857555 -0.06776727 0.05070443 -0.06648821 -0.03909555 0.15014568 -0.174655 -0.028211432
0.09614738 0.04852364 -0.25615463 -0.049494606 0.121053055 -0.09115889 0.06418385 0.12581491
-0.051918708 0.08698772 -0.0022915222 -0.038253654 -0.060941685 0.17397305 0.07622406 0.085858546
-0.09457818 -0.16516817 -0.0639085 -0.01620807 0.0249948 0.1992692 -0.068862826 0.13572603
0.0618703 -0.021960111 -0.068495765 -0.021632584 0.087365255 0.0011762631 -0.029156657 -0.0967379
-0.01773136 0.013791071 0.11042122 0.14476208 0.16834112 -0.14164056 0.010997806 0.10178789
0.023121016 -0.053556483 -0.15396474 0.03743473 -0.07864785 -0.1325317 0.1643002 -0.017547995
-0.0121050365 -0.006582226 0.14492495 -0.013973205 -0.15845428 0.018255776 -0.06437938 -0.15472734
0.030018244 0.043177087 -0.11437667 0.10106993 0.07760852 0.055431258 -0.067138076 -0.09379337
0.07751765 0.052392285 -0.09810187 -0.16104336 -0.073025815 -0.11617445 0.08823067 -0.10053113
-0.14756872 0.042170864 0.054588277 0.15431142 -0.040832415 0.07395477 0.016064983 -0.037123248
-0.13021396 0.09253093 0.045187265 0.032750558 -0.18144579 0.24661295 0.049933765 -0.13596848
-0.11165752 0.18677834 0.11634271 -0.021397917 -0.09715253 -0.14428492 -0.05284571 0.1697683
-0.10791239 -0.019089567 0.02159964 -0.14832802 0.21238878 0.31406364 -0.06409976 0.18702361
00000000: 2b13 673c 74b9 163e 4bde 283e b482 bd3c
00000010: 6a7d 1dbe ab36 10bb 95e2 0fbe 6180 013e
00000020: 6e7e 29be a489 503d 7174 043d 66f1 ebbd
00000030: 8840 893d e655 25bb d6ec 9d3d a868 c23c
00000040: 4ac1 ce3d 5677 ff3d 7111 203d 6820 673d
00000050: f9b0 a03d 10b6 813d b7c9 533d ec6e 873d
00000060: 249d c5bd 52e5 1cbc 40cd b6bd 75e5 9dbd
00000070: b81e 723d 6dd9 183e 1df8 b63d d231 c43c
00000080: 7f4f 273d a669 f93c c2de 0cbd 42dc ccbd
00000090: d3a1 083d ef88 babd 31f4 6abc 1dc9 543c
000000a0: 57dc 9e3d ce38 ca3d f144 21bc ff4d f9bd
000000b0: be3c 4d3e f4ca 6f3d 097e 0dbe 40f7 c2bd
000000c0: e079 d7bd 5221 303e 2be1 a7bd 2450 41bd
000000d0: 6e94 ed3d 2f88 85bd 4647 063e 6cb5 3c3e
000000e0: cac6 e73d 866f b33d 94db 9bbc 6506 513d
000000f0: 14b1 873d 1b56 143d bc0c 37bd 1455 f23d
00000100: 0d98 90bd 7a4a afbb 9a41 513d 5670 b23d
00000110: 14f9 84bd 8013 523e f947 c4bd 372e 09be
00000120: 7ac1 b3bc 9062 1cbe e531 c6bd b6cf 833d
00000130: dc66 0b3e 1619 ddbd 5dc4 32be 71cc c63c
00000140: cdd7 6d3d d6d3 25be 85bd 47be 2998 043e
00000150: eb60 173e 141d b1bd 4bb1 013e 6d83 323d
00000160: 3d42 a23c 1ad0 75bd 911e efbc 4431 1ebe
00000170: 2c2e d33d 3be7 283d 5315 73bd 1583 bd3d
00000180: 3c90 953b d883 cf3d 7788 9dbd b1fb b83d
00000190: b379 893d 2364 663d fa12 c9bc abda e83c
000001a0: c968 10bd 6e53 cfbd dd73 f2bc eb5d 873c
000001b0: 526a 20bd 5482 2d3e 430c 02be 2cb5 043e
000001c0: 5449 d43d d994 cb3d e03d 883d 2b0c be3d
000001d0: 5e66 91bd cc6c 98bd 5e73 04be f972 353e
000001e0: a8e6 153d 3668 4e3c b424 a63d dc80 5f3d
000001f0: b9d1 0c3d 22c7 b63d a639 2a3d 5959 76bd
00000200: 8fd0 e03d f3c1 b5bd ac6a 2c3e 63c8 82bd
00000210: 5968 60bd 24c8 983d d083 2a3e 51f5 abbd
00000220: ccdc 89bd 800d 22bd 17e4 1fbc 2be3 36be
00000230: 2fbf 0b3e 3940 36be fac1 b03d 9d0e 1ebe
00000240: dc1e 483d 91c9 8abd 73af 4f3d f82a 88bd
00000250: a822 20bd cabf 193e c3d8 32be a91b e7bc
00000260: ebe8 c43d b9c0 463d b326 83be dbba 4abd
00000270: aaea f73d 83b1 babd d372 833d a0d5 003e
00000280: b6a8 54bd 9e26 b23d 5d2d 16bb ddaf 1cbd
00000290: fd9d 79bd fe25 323e 5c1b 9c3d 9bd6 af3d
000002a0: 34b2 c1bd d821 29be 76e2 82bd c9c6 84bc
000002b0: e5c1 cc3c 3a0d 4c3e f407 8dbd c4fb 0a3e
000002c0: b66b 7d3d b1e5 b3bc 8247 8cbd d136 b1bc
000002d0: 8eec b23d d72c 9a3a f1d9 eebc 851e c6bd
000002e0: 5b41 91bc f2f3 613c 8524 e23d 833c 143e
000002f0: 9d61 2c3e 390a 11be 2430 343c 2b76 d03d
00000300: 4968 bd3c 0b5e 5bbd efa8 1dbe 2955 193d
00000310: 2012 a1bd 64b6 07be 503e 283e d0c0 8fbc
00000320: 3454 46bc b7af d7bb 3567 143e dfef 64bc
00000330: d741 22be 238d 953c 56d9 83bd d870 1ebe
00000340: d2e8 f53c 75da 303d 513e eabd c0fd ce3d
00000350: 37f1 9e3d e30b 633d b07f 89bd bd16 c0bd
00000360: 93c1 9e3d 4b99 563d a2e9 c8bd 8de8 24be
00000370: 8f8e 95bd dfec edbd 48b2 b43d 44e3 cdbd
00000380: 411c 17be 5bbb 2c3d f597 5f3d d003 1e3e
00000390: e43f 27bd 9975 973d b69a 833c 8c0e 18bd
000003a0: cf56 05be db80 bd3d 4816 393d 7325 063d
000003b0: edcc 39be 1b88 7c3e 5987 4c3d 523b 0bbe
000003c0: b3ac e4bd d242 3f3e 1645 ee3d af4a afbc
000003d0: e8f7 c6bd 6dbf 13be be74 58bd bed7 2d3e
000003e0: 2c01 ddbd b961 9cbc baf1 b03c 4de3 17be
000003f0: 727c 593e f3cc a03e bc46 83bd 1e83 3f3e

model.rnn.bias_ih_l1 f4 [160]
-0.03176178 -0.024459919 0.09469578 0.19613427 0.068850674 0.2052982 0.05225887 0.22047597
0.042229433 0.07744212 0.034767218 -0.13736169 0.022362782 0.05758352 0.15292948 0.010086834
0.12967129 0.2961295 0.20738354 -0.049118623 -0.08321328 -0.027993882 -0.0056678546 -0.0867831
0.24272856 0.19108707 0.07304553 -0.020674977 -0.016322019 0.1160223 0.09611072 -0.045065843
0.12608561 0.1661503 0.15334797 0.18200575 0.20247793 0.30920973 0.11591617 0.055328034
-0.0020486184 0.056068987 0.09700712 -0.07440054 0.11721658 -0.07687573 -0.07747761 -0.037331197
0.16814844 0.033667076 -0.08008687 0.12401422 0.06278772 0.15109698 -0.10852865 -0.06095057
0.063604794 -0.0658527 -0.05503039 0.11275195 0.073621534 0.06255017 0.16230659 -0.12240654
-0.052454267 0.10143603 0.08566773 0.0071093496 -0.06475928 0.122226045 0.054011535 -0.12372928
0.053874046 -0.04420912 0.04620555 -0.033376895 0.15335327 -0.057698406 -0.11962212 -0.13925995
-0.11322139 0.10849058 -0.18999533 -0.042831775 0.02985984 -0.05974069 0.14408077 0.08660757
0.17499475 -0.10994783 -0.061377548 -0.08762111 -0.09896331 0.09834503 0.14992411 0.16630383
0.066102095 0.07301693 -0.00032135381 -0.08162763 -0.15134402 -0.08741664 -0.055648953 0.028485706
0.10116729 -0.14563379 -0.04268426 0.12482206 0.11196127 0.013364263 -0.12235431 0.12488559
0.1483795 -0.09860135 0.06448606 -0.12317911 -0.023668678 -0.05953437 0.089977056 -0.07359881
0.04225811 -0.054250754 0.16850281 0.11018288 -0.13244966 -0.041225635 0.18977645 0.14914404
-0.08066123 -0.08216207 0.080841206 0.10782502 -0.07595259 0.2373946 -0.020463968 0.0736234
0.09088177 0.16383144 -0.09078031 0.15810059 0.049672317 -0.105441585 -0.047775798 -0.049046915
0.20165744 -0.011344935 -0.0640543 -0.029549237 0.13579245 0.19244249 0.02715381 0.034425486
0.18023577 0.16678862 0.07682045 0.13257736 0.28776437 0.39904454 0.016809613 -0.09261518
00000000: a418 02bd 2b60 c8bc dcef c13d 6cd7 483e
00000010: 9501 8d3d b139 523e 660d 563d 74c4 613e
00000020: c5f8 2c3d f999 9e3d 1268 0e3d 8ba8 0cbe
00000030: 2732 b73c b2dc 6b3d 8c99 1c3e 4043 253c
00000040: 8dc8 043e 499e 973e 5a5c 543e 9c30 49bd
00000050: b96b aabd 6d53 e5bc 69b9 b9bb 57bb b1bd
00000060: d68d 783e 54ac 433e e598 953d 925e a9bc
00000070: c1b5 85bc 1a9d ed3d b2d5 c43d f696 38bd
00000080: 961c 013e 4e23 2a3e 4007 1d3e b75f 3a3e
00000090: 6056 4f3e bd50 9e3e 7565 ed3d a69f 623d
000000a0: 1d42 06bb 98a8 653d abab c63d 4f5f 98bd
000000b0: 3f0f f03d 0671 9dbd 95ac 9ebd 99e8 18bd
000000c0: 1b2f 2c3e 7de6 093d 9604 a4bd 2bfb fd3d
000000d0: d996 803d 2bb9 1a3e 4544 debd 4ea7 79bd
000000e0: 3b43 823d c8dd 86bd 8c67 61bd 7fea e63d
000000f0: e3c6 963d 4e1a 803d b333 263e 48b0 fabd
00000100: 49da 56bd b1bd cf3d 9072 af3d 8cf5 e83b
00000110: 83a0 84bd a651 fa3d 333b 5d3d c765 fdbd
00000120: 08ab 5c3d 9f14 35bd 0842 3d3d 36b6 08bd
00000130: a408 1d3e 2a55 6cbd 71fc f4bd 299a 0ebe
00000140: 9ee0 e7bd 4f30 de3d 238e 42be 5f70 2fbd
00000150: a09c f43c a7b2 74bd e989 133e 4f5f b13d
00000160: d331 333e 542c e1bd 0667 7bbd b272 b3bd
00000170: 47ad cabd 1e69 c93d b585 193e 8d4b 2a3e
00000180: 8960 873d e689 953d 617b a8b9 632c a7bd
00000190: edf9 1abe 7f07 b3bd 28f0 63bd db5a e93c
000001a0: cc30 cf3d 0621 15be b1d5 2ebd b5a2 ff3d
000001b0: f34b e53d c8f5 5a3c e594 fabd 04c4 ff3d
000001c0: ccf0 173e 81ef c9bd 4411 843d 5445 fcbd
000001d0: d1e4 c1bc 50da 73bd e445 b83d f9ba 96bd
000001e0: d716 2d3d 0a36 5ebd 008c 2c3e 90a7 e13d
000001f0: e2a0 07be 36dc 28bd c254 423e 37b9 183e
00000200: b731 a5bd 9644 a8bd 1390 a53d 5dd3 dc3d
00000210: 088d 9bbd 9217 733e 0da4 a7bc ddc7 963d
00000220: 3920 ba3d 6ec3 273e 07eb b9bd 1fe5 213e
00000230: 3375 4b3d c2f1 d7bd 8eb0 43bd 6be5 48bd
00000240: 4a7f 4e3e 1be0 39bc e72e 83bd 3e11 f2bc
00000250: 2d0d 0b3e a50f 453e ab71 de3c bd01 0d3d
00000260: ba8f 383e a3ca 2a3e 0a54 9d3d 5cc2 073e
00000270: da55 933e 914f cc3e 50b4 893c 07ad bdbd

model.rnn.bias_hh_l1 f4 [160]
0.08871152 0.128571 0.21413012 0.080240525 -0.056591168 0.14672875 -0.019699305 0.2568333
0.13001546 0.160881 0.12546837 0.036488045 -0.0869354 -0.03563481 0.11903334 0.14389874
0.093813084 0.06804474 -0.097656384 0.22442046 0.16804528 0.09467445 0.20735124 0.0067537087
0.23321576 -0.025751594 -0.04870933 0.17897391 0.079212025 0.30675194 0.19301698 0.13998891
0.16393778 0.005740285 0.14597124 0.040733952 0.07532855 0.13913748 0.2195173 0.15688501
-0.04772143 0.08123781 -0.052837003 0.06496598 0.16804452 0.06468228 0.020951604 0.18379141
-0.00045341504 -0.047944155 0.08692287 -0.11600178 0.005645248 -0.11433523 0.038865935 -0.11756038
0.10055907 -0.14611666 -0.093841776 -0.0898516 0.1568778 0.100412205 0.06899651 -0.036233217
0.18181826 0.20523421 0.13582368 0.15484035 0.0072176433 0.12827206 -0.095104694 -0.027550343
0.03550526 0.0024392821 0.12458393 -0.07544633 -0.033185337 -0.14283666 0.034714937 0.048751723
0.11036439 0.01400819 0.08708952 0.12974362 -0.0974825 0.16114506 -0.009055766 -0.038981415
0.08120424 0.1429801 0.035249643 0.09354365 0.10249015 0.12734017 0.06506259 0.122598544
-0.14443454 0.13453119 0.13302208 -0.20847428 0.092494935 -0.055236224 -0.124546625 -0.1687479
0.06889395 0.10200261 0.1157067 0.16756925 -0.010604378 -0.003112039 -0.11213964 0.066149615
0.047607113 0.007812931 -0.1185924 0.044515733 -0.119250484 -0.012006312 0.107304305 -0.022726119
-0.056417294 0.102658056 -0.03965638 -0.014747451 0.11743878 0.15695986 0.15616892 -0.036887005
-0.023169436 0.14981432 0.08253958 -0.018606944 0.08316108 0.16134751 0.04172953 -0.025478551
0.020592414 0.196509 0.1788525 -0.050823245 -0.08311188 -0.13386957 0.031845976 0.11700612
-0.020548014 -0.082964316 -0.049973078 0.028835043 0.14845744 0.16773225 0.13119332 -0.02692472
0.07718921 0.17441422 0.27084556 0.0811636 0.18519126 0.13935368 0.17271802 -0.10937088
00000000: 63ae b53d 1ea8 033e ed44 5b3e 2555 a43d
00000010: 24cc 67bd 1040 163e 7060 a1bc a87f 833e
00000020: c622 053e fdbd 243e c87a 003e 7d74 153d
00000030: 300b b2bd cef5 11bd c0c7 f33d 315a 133e
00000040: 1321 c03d 0a5b 8b3d 1200 c8bd 7ace 653e
00000050: 1014 2c3e aee4 c13d e253 543e 374e dd3b
00000060: 1dd0 6e3e 02f5 d2bc 6f83 47bd f044 373e
00000070: ea39 a23d 970e 9d3e 3ea6 453e 4159 0f3e
00000080: 4edf 273e 0019 bc3b 7c79 153e a5d8 263d
00000090: db45 9a3d 0e7a 0e3e 25c9 603e 77a6 203e
000000a0: 8c77 43bd 0260 a63d 9d6b 58bd e20c 853d
000000b0: dd13 2c3e 2578 843d b3a2 ab3c d133 3c3e
000000c0: 56b8 edb9 1761 44bd 9e04 b23d 5792 edbd
000000d0: c6fb b83b 9728 eabd e331 1f3d 7fc3 f0bd
000000e0: eaf1 cd3d 9b9f 15be 1e30 c0bd 1e04 b8bd
000000f0: 93a4 203e eaa4 cd3d 0b4e 8d3d 4869 14bd
00000100: 912e 3a3e eb28 523e 5d15 0b3e 788e 1e3e
00000110: fb81 ec3b c059 033e 40c6 c2bd 42b1 e1bc
00000120: f76d 113d 5ddc 1f3b dc25 ff3d 9b83 9abd
00000130: 59ed 07bd c643 12be 4031 0e3d e3af 473d
00000140: ba06 e23d 9b82 653c fe5b b23d 83db 043e
00000150: e8a4 c7bd 3603 253e a35e 14bc faaa 1fbd
00000160: 694e a63d 6069 123e ee61 103d d093 bf3d
00000170: 5be6 d13d 7665 023e 893f 853d f214 fb3d
00000180: a6e6 13be 8bc2 093e f136 083e 487a 55be
00000190: fc6d bd3d 613f 62bd 4d12 ffbd 40cc 2cbe
000001a0: 4518 8d3d bfe6 d03d a2f7 ec3d 4697 2b3e
000001b0: fcbd 2dbc 5af3 4bbb 78a9 e5bd 7379 873d
000001c0: adff 423d cf01 003c 92e0 f2bd 2156 363d
000001d0: 9939 f4bd 1fb6 44bc 5cc2 db3d 202c babc
000001e0: d215 67bd 633e d23d ba6e 22bd 4b9f 71bc
000001f0: be83 f03d 16ba 203e bfea 1f3e d416 17bd
00000200: d4cd bdbc ed68 193e 830a a93d 976d 98bc
00000210: 5b50 aa3d 4838 253e 95ec 2a3d 65b8 d0bc
00000220: 6cb1 a83c a839 493e 1c25 373e 092c 50bd
00000230: 9036 aabd 1b15 09be ed70 023d e8a0 ef3d
00000240: 4f54 a8bc 32e9 a9bd 92b0 4cbd 7837 ec3c
00000250: 3a05 183e 01c2 2b3e 8b57 063e 3b91 dcbc
00000260: 6015 9e3d a499 323e 45ac 8a3e 1a39 a63d
00000270: c7a2 3d3e bbb2 0e3e fedc 303e d7fd dfbd
